model_final.pt (torch, 914931 bytes, 22 tensors)

conv1.weight f4 [32, 1, 5, 5]
-0.16372287 -0.09441582 0.29580978 0.087902226 -0.5741106 0.47534448 -0.22741126 -0.47947252
-0.13608626 -0.075782716 -0.25351688 -0.21920733 -0.027456835 0.2112871 0.11272635 0.41124806
-0.42333654 -0.1937986 -0.29178986 0.553276 0.20623036 -0.6481945 -0.0508817 0.043528054
-0.5471903 -0.27518794 0.08013381 -0.33080062 -0.4347725 0.1593699 0.2819884 0.07592491
-0.043779053 -0.04556794 -0.05811995 0.7072552 -0.2298259 -0.0076541104 -0.16606508 -0.2936083
-0.5846046 0.56134903 -0.2219545 0.3966976 -0.24749367 -0.017026883 0.13114011 -0.287322
-0.28782442 -0.32632595 0.3031018 0.5268983 0.25994062 -0.67421526 -0.034127414 0.2135289
-0.3458828 -0.3081833 -0.67946875 0.33352512 -0.23306297 -0.57948303 0.020908438 0.10348997
0.21256182 0.24578947 -0.19427915 -0.828293 0.23519717 -0.1811931 -0.32010093 0.38319317
-0.3610569 -0.4179823 -0.1941482 -0.61779124 -0.39315844 -0.27279302 -0.048141655 0.21363586
-0.47310606 -0.6281937 -0.034930497 -0.27749813 0.0980383 -1.0272524 -0.48607826 0.26884156
0.07804648 0.28814816 0.29439488 0.1712096 -0.21158212 -0.26336017 -0.26022092 -0.8954413
0.075828955 0.3726537 0.4116829 0.083584934 0.35286826 -0.047901206 -0.013221384 -0.07255886
0.11771452 0.80608743 0.07167846 0.1789449 -0.0711351 -0.06380935 -0.2981086 -0.07497103
-0.3185075 0.33483934 -0.11165451 -0.61708784 0.16433106 0.56931674 -0.08974558 -0.17868248
-0.45960036 0.48652527 -0.51469564 0.09197437 0.20918028 -0.9927284 -0.032667845 0.58693767
0.09108505 -0.07842536 -0.71635056 -0.08223525 -0.067732885 0.107171945 -0.08941239 0.093940765
-0.17749278 -0.67231756 -0.0051773298 0.34545788 0.32403517 0.26998347 -0.8373038 -0.2883145
-0.01534074 -0.32182822 -0.26425952 0.22195727 0.21387383 -0.36021513 0.036090262 -0.073791154
0.118691064 -0.008133938 0.2825301 0.22000751 -0.11738682 0.49997368 0.3262618 0.22519901
0.017391974 -0.49842507 -0.30335188 -0.39492893 0.22258891 0.10243393 -0.13058159 -0.37030753
-0.23650852 -0.4283869 0.10980096 0.12908007 -0.24341466 -0.26620522 0.46120036 0.31986037
-0.12580465 0.052327707 0.06981594 -0.27129856 0.72008437 -0.1960726 -0.20845073 -0.10180891
-0.13780823 -0.33024395 -0.13701922 -0.008452233 0.3753798 -0.08887039 -0.49012595 0.10415612
-0.069375515 0.8697082 -0.14565451 -0.26767734 0.060302947 -0.099418655 -0.45017433 -0.07652457
-0.058365133 0.19299258 0.36267605 -0.12500162 0.12049802 0.6223996 -0.3392866 0.25678644
-0.2403471 0.14328083 -0.6855432 -0.18613847 -0.6961162 0.2084131 0.22120593 -0.064192474
0.1416083 -0.6080319 0.32530245 -0.41023782 -0.3684147 -0.06313921 -1.263183 -0.06374221
-0.33363435 -0.118994385 0.0020626627 0.0725298 0.30789194 0.01553112 0.33429524 -0.049820136
0.19714531 0.49163488 0.33117342 -0.24643146 -0.091208495 -0.2063101 -0.45812005 -0.2591598
0.45263866 -0.38421118 0.30132714 -0.16121025 -0.23700336 0.49504763 -0.200491 -0.5907061
-0.25265938 0.10618992 -0.31908265 0.47106957 0.3397896 0.0003439165 0.11857661 -0.044768967
00000000: f8a6 27be 155d c1bd 6174 973e 1506 b43d
00000010: eaf8 12bf 5a60 f33e 7fde 68be 6c7d f5be
00000020: 325a 0bbe f833 9bbd f7cc 81be e377 60be
00000030: 28ed e0bc a55b 583e 13dd e63d 1b8f d23e
00000040: 91bf d8be 2473 46be 7b65 95be 7fa3 0d3f
00000050: 0d2e 533e 13f0 25bf 5469 50bd 794a 323d
00000060: aa14 0cbf 6fe5 8cbe 321d a43d b35e a9be
00000070: 809a debe dd31 233e c960 903e 857e 9b3d
00000080: aa51 33bd 73a5 3abd 2f0f 6ebd ad0e 353f
00000090: 7b57 6bbe 55cf fabb f70c 2abe d453 96be
000000a0: a6a8 15bf 92b4 0f3f 0a48 63be f31b cb3e
000000b0: fb6e 7dbe f67b 8bbc 9849 063e df1b 93be
000000c0: b95d 93be 3214 a7be 2930 9b3e cfe2 063f
000000d0: f016 853e 5f99 2cbf 30c9 0bbd 52a7 5a3e
000000e0: 8d17 b1be 34ca 9dbe aaf1 2dbf cec3 aa3e
000000f0: 0fa8 6ebe 0059 14bf 2c48 ab3c 8df2 d33d
00000100: cea9 593e 3cb0 7b3e 1df1 46be 030b 54bf
00000110: 87d7 703e af8a 39be 45e4 a3be e531 c43e
00000120: 73dc b8be c701 d6be c9ce 46be 9127 1ebf
00000130: 104c c9be 87ab 8bbe 2f30 45bd 5cc3 5a3e
00000140: f53a f2be 4dd1 20bf 4813 0fbd 3c14 8ebe
00000150: 4ec8 c83d 027d 83bf 40df f8be 9aa5 893e
00000160: d5d6 9f3d 2888 933e edba 963e 9251 2f3e
00000170: fca8 58be 25d7 86be ad3b 85be a43b 65bf
00000180: 364c 9b3d 77cc be3e 1ac8 d23e 942e ab3d
00000190: 26ab b43e 0e34 44bd 819e 58bc bd99 94bd
000001a0: 4f14 f13d bf5b 4e3f 28cc 923d 553d 373e
000001b0: 48af 91bd 7aae 82bd b1a1 98be 698a 99bd
000001c0: 6a13 a3be 1070 ab3e 1fab e4bd 78f9 1dbf
000001d0: 6746 283e bebe 113f 88cc b7bd 8af8 36be
000001e0: bd50 ebbe d719 f93e 18c3 03bf 0f5d bc3d
000001f0: 5b33 563e 7323 7ebf b8ce 05bd 8c41 163f
00000200: cc8a ba3d 7a9d a0bd c062 37bf f46a a8bd
00000210: 8ab7 8abd f77c db3d d81d b7bd 0464 c03d
00000220: abc0 35be 011d 2cbf 97a6 a9bb dbdf b03e
00000230: f0e7 a53e 463b 8a3e 8b59 56bf f59d 93be
00000240: ba57 7bbc abc6 a4be 064d 87be c448 633e
00000250: be01 5b3e 1e6e b8be 62d3 133d d11f 97bd
00000260: 4d14 f33d 3544 05bc c9a7 903e a649 613e
00000270: 8068 f0bd 8dfc ff3e c90b a73e 929a 663e
00000280: 9d79 8e3c 9231 ffbe f050 9bbe 2034 cabe
00000290: 59ee 633e e1c8 d13d 2eb7 05be f398 bdbe
000002a0: 4a2f 72be 8755 dbbe 53df e03d 912d 043e
000002b0: b141 79be 0d4c 88be 7422 ec3e bdc4 a33e
000002c0: efd2 00be 9455 563d a9fb 8e3d a5e7 8abe
000002d0: 7357 383f 41c7 48be 1c74 55be 3181 d0bd
000002e0: 9a1d 0dbe bc15 a9be c44e 0cbe 3c7b 0abc
000002f0: c831 c03e ae01 b6bd caf1 fabe ce4f d53d
00000300: c014 8ebd 32a5 5e3f 7526 15be 010d 89be
00000310: 3900 773d 029c cbbd 407d e6be eab8 9cbd
00000320: 4710 6fbd d99f 453e adb0 b93e 6d00 00be
00000330: aac7 f63d 9555 1f3f f9b6 adbe 8379 833e
00000340: 8d1d 76be 36b8 123e c27f 2fbf 159b 3ebe
00000350: ac34 32bf 3e6a 553e cf83 623e 5877 83bd
00000360: c401 113e fba7 1bbf 0b8e a63e b10a d2be
00000370: daa0 bcbe 214f 81bd fbaf a1bf 478b 82bd
00000380: 1fd2 aabe 54b3 f3bd bd2d 073b 818a 943d
00000390: 03a4 9d3e 3d76 7e3c bf28 ab3e 3310 4cbd
000003a0: 76e0 493e 91b7 fb3e 908f a93e 8758 7cbe
000003b0: 85cb babd f442 53be b68e eabe 98b0 84be
000003c0: 41c0 e73e 54b7 c4be 8d47 9a3e 4d14 25be
000003d0: 02b1 72be e276 fd3e 834d 4dbe 8438 17bf
000003e0: 925c 81be 1a7a d93d cd5e a3be 0830 f13e
000003f0: e7f8 ad3e b14f b439 4bd8 f23d aa5f 37bd

conv1.bias f4 [32]
-0.03650729 -0.377588 0.18772839 -0.32007787 -0.43552288 0.19367653 -0.27715003 -0.49468234
0.4533662 -0.303946 -0.55365205 0.08998284 -0.69823086 -0.79200226 0.108695455 -0.1891482
-0.39155346 -0.380728 -0.2648784 -0.5541904 -0.5405881 -0.46307573 -0.25094664 -0.0575685
-0.04280879 -0.051262617 -0.61907494 -0.4591092 -0.6276563 -0.672679 0.085463315 0.020196453
00000000: ab88 15bd 3753 c1be df3b 403e 3fe1 a3be
00000010: dbfc debe 2453 463e 9ce6 8dbe 0147 fdbe
00000020: 9d1f e83e cf9e 9bbe 24bc 0dbf ec48 b83d
00000030: 42bf 32bf a9c0 4abf b99b de3d 11b0 41be
00000040: b279 c8be c8ee c2be 249e 87be 6cdf 0dbf
00000050: fb63 0abf 4318 edbe 147c 80be f3cc 6bbd
00000060: 4558 2fbd c0f8 51bd b27b 1ebf 5c10 ebbe
00000070: 15ae 20bf b134 2cbf 6407 af3d 0873 a53c

conv2.weight f4 [32, 32, 5, 5]
0.35796142 0.13644464 -0.63016474 0.2334966 -0.20032966 0.16497782 -0.08227486 -0.83873224
0.052952625 -0.25596604 0.60667104 0.22361255 -0.3123035 -0.15196088 -0.854987 0.27778444
-0.5739074 0.11288615 -0.40273857 -0.3863022 -0.044994928 -0.6563447 -0.15872684 -0.25038117
-0.5656609 0.30949458 -0.23210911 0.47497448 0.4986876 -0.13622166 -0.25083408 -0.37799576
0.147883 -0.12159315 0.39434206 0.52317953 -0.38344368 -0.38989994 -0.35549605 0.22105426
0.4361674 0.17584312 -0.2662275 -0.25351298 0.25750715 0.25619915 0.5664092 -0.7235089
0.24100001 0.15879303 0.10257951 0.050128415 0.04435388 -0.6447665 0.11462256 0.101727754
-0.5248651 0.26833233 -0.019051468 -0.2946636 -0.33380687 -0.5600897 -0.20837046 0.29836977
-0.056619965 -0.06784392 -0.11062398 -0.04088678 0.31972703 -0.38058868 0.3216517 -0.3978107
-0.37741607 -0.24079074 0.16928412 -0.38094926 -0.016015043 -0.18555573 -0.55349267 0.26056993
0.35899314 0.31185573 0.19588067 -0.15959099 -0.07679868 -0.39924318 -0.4049557 -0.03141649
-0.85289997 -0.32852694 -0.3926154 0.06751953 0.3390832 -0.14686847 -0.5752274 0.023767043
-0.11157768 -0.716795 -0.4309341 -0.4963153 0.21346723 -0.46941867 0.22580355 -0.011885064
-0.55204904 -0.3589808 -0.5146407 -0.46954894 0.24060282 0.66550815 -0.004216229 0.21926335
-0.017937636 0.11952475 0.23215483 0.20283368 0.18146203 -0.13447487 -0.6221282 0.15309852
-0.10247585 0.38035062 -0.40539786 -0.036128767 0.28844756 -0.24724437 -0.121103644 -0.0793918
-0.11967437 0.078790635 0.39935762 0.105280906 -0.13858506 -0.8844276 0.05693213 -0.1582955
0.14881454 0.19466431 -0.7411258 -0.3843483 -0.6258977 0.07950632 0.33100897 -0.1853908
-0.17425735 -1.1243811 -0.9498612 -0.6680371 -0.28272703 0.13861752 -0.7182359 -0.62548375
-0.56331676 0.055795975 -0.012264443 0.006930528 0.09278395 -0.09410352 0.3855085 0.1026417
-0.2560367 0.35433134 -0.48819065 -0.22031051 0.4047496 0.3383116 -0.17910825 0.05419784
0.042277012 -0.30592963 -0.65248483 0.3287844 -0.05058873 -0.11696552 -0.7436996 0.28764173
-0.24525209 -0.15680471 -0.11191519 0.107430935 -0.9431391 -0.45558968 0.032471363 0.049954716
-0.16358617 -0.35770983 -0.4577625 -0.35430515 -0.47705054 0.4996852 0.71419877 -0.8134895
0.716087 -0.69802916 0.294514 0.3398669 0.68492407 -0.5889652 0.3119597 -0.118908666
0.102276355 -0.42289582 0.058186382 -0.3265246 -0.0769382 -0.2820414 -0.96215147 0.23933092
0.28651017 -0.54661614 -0.14923695 -0.088021606 -0.09060759 -0.89875954 -0.42939886 0.09664301
0.008912237 0.07649209 -0.9009347 -0.0013612553 -0.7460921 -0.019230781 -0.23720022 -0.0871455
0.15388781 0.5729875 0.33523917 -0.087901555 -0.43047354 -0.03853918 0.5043666 -0.1851317
0.24859227 -0.034883756 0.1810123 0.69587564 -0.18008263 -0.05872976 0.3982483 -0.1908369
0.37305588 -0.51988953 -0.60735893 -0.26830286 -0.30084604 -0.06861697 -0.09986683 0.45937866
0.25677443 -0.030867446 -0.2581853 0.00158657 -0.94064116 -0.12964539 -0.28941503 -0.22145085
00000000: b846 b73e 25b8 0b3e 7a52 21bf bc19 6f3e
00000010: 3823 4dbe f2ef 283e b97f a8bd 28b7 56bf
00000020: dae4 583d fb0d 83be cb4e 1b3f b0fa 643e
00000030: 3fe6 9fbe a29b 1bbe 6ee0 5abf c339 8e3e
00000040: 98eb 12bf db30 e73d c033 cebe 67c9 c5be
00000050: 9a4c 38bd 3506 28bf 4a89 22be f631 80be
00000060: 27cf 10bf 1376 9e3e 03ae 6dbe db2f f33e
00000070: fb53 ff3e b17d 0bbe 536d 80be a988 c1be
00000080: a46e 173e d405 f9bd 34e7 c93e 18ef 053f
00000090: bb52 c4be f7a0 c7be 9403 b6be 0c5c 623e
000000a0: 5551 df3e 3810 343e f94e 88be 74cc 81be
000000b0: fad7 833e 892c 833e 3100 113f e137 39bf
000000c0: b5c8 763e a49a 223e 3515 d23d 7453 4d3d
000000d0: 6aac 353d 6b0f 25bf 3cbf ea3d a456 d03d
000000e0: 8f5d 06bf db62 893e d311 9cbc 26de 96be
000000f0: bce8 aabe 0a62 0fbf 115f 55be ecc3 983e
00000100: 56ea 67bd c1f1 8abd d38e e2bd e578 27bd
00000110: 43b3 a33e 85dc c2be 88af a43e d8ad cbbe
00000120: ae3c c1be d991 76be d158 2d3e c80b c3be
00000130: fb31 83bc 5202 3ebe b2b1 0dbf 6c69 853e
00000140: f3cd b73e 8eab 9f3e f194 483e d26b 23be
00000150: a048 9dbd 9a69 ccbe 5a56 cfbe 94ae 00bd
00000160: a757 5abf af34 a8be e304 c9be ae47 8a3d
00000170: 509c ad3e b064 16be 1a42 13bf 1ab3 c23c
00000180: d782 e4bd e17f 37bf 65a3 dcbe 0a1d febe
00000190: 2797 5a3e a557 f0be 0c39 673e 92b9 42bc
000001a0: 1653 0dbf 55cc b7be 7ebf 03bf b868 f0be
000001b0: 9660 763e be5e 2a3f 4b28 8abb 9286 603e
000001c0: f3f1 92bc 64c9 f43d ffb9 6d3e a2b3 4f3e
000001d0: 2fd1 393e c8b3 09be cb43 1fbf dcc5 1c3e
000001e0: dcde d1bd 51bd c23e 4f90 cfbe c2fb 13bd
000001f0: 66af 933e a12d 7dbe 3005 f8bd 2b98 a2bd
00000200: d617 f5bd fc5c a13d 9a78 cc3e 849d d73d
00000210: 3ee9 0dbe d969 62bf aa31 693d 3718 22be
00000220: d762 183e 1556 473e 6cba 3dbf 4dc9 c4be
00000230: d53a 20bf 36d4 a23d 027a a93e 16d7 3dbe
00000240: 8570 32be b8eb 8fbf 1b2a 73bf 7b04 2bbf
00000250: 99c1 90be c0f1 0d3e 4fde 37bf b41f 20bf
00000260: 8735 10bf 528a 643d cdf0 48bc 7c19 e33b
00000270: 8305 be3d 59b9 c0bd 5f61 c53e d035 d23d
00000280: 3e17 83be eb6a b53e 20f4 f9be 1499 61be
00000290: 573b cf3e 2e37 ad3e 2768 37be 8efe 5d3d
000002a0: a92a 2d3d cfa2 9cbe 3f09 27bf 6e56 a83e
000002b0: 2136 4fbd 9e8b efbd 1963 3ebf c745 933e
000002c0: 5d23 7bbe 6a91 20be cb33 e5bd c004 dc3d
000002d0: 9071 71bf 0d43 e9be b100 053d 519d 4c3d
000002e0: 2283 27be be25 b7be d95f eabe 7c67 b5be
000002f0: f83f f4be bdd6 ff3e bbd5 363f d940 50bf
00000300: 7a51 373f 0ab2 32bf 8aca 963e 0903 ae3e
00000310: 2f57 2f3f 6cc6 16bf 2fb9 9f3e 6386 f3bd
00000320: 4476 d13d cd85 d8be d854 6e3d 3b2e a7be
00000330: c691 9dbd bb67 90be 8f4f 76bf 2a13 753e
00000340: 76b1 923e 09ef 0bbf 92d1 18be ac44 b4bd
00000350: 7990 b9bd 1b15 66bf 2bda dbbe c5ec c53d
00000360: a204 123c e3a7 9c3d a8a3 66bf 266c b2ba
00000370: e4ff 3ebf df89 9dbc 9de4 72be 5779 b2bd
00000380: c494 1d3e 4faf 123f 78a4 ab3e bb05 b4bd
00000390: 0767 dcbe 42db 1dbd 2b1e 013f 2a93 3dbe
000003a0: f98e 7e3e 45e2 0ebd 4a5b 393e e824 323f
000003b0: 9567 38be 9e8e 70bd 34e7 cb3e c06a 43be
000003c0: 2e01 bf3e 7b17 05bf e07b 1bbf fe5e 89be
000003d0: 7e08 9abe 0e87 8cbd fb86 ccbd ae33 eb3e
000003e0: f077 833e badd fcbc dd30 84be 75f4 cf3a
000003f0: dccd 70bf c3c1 04be 352e 94be 03c4 62be

conv2.bias f4 [32]
-0.20701925 0.062064096 0.09564908 -0.2008196 -0.1714339 -0.08764843 -0.1818891 0.16792063
-0.051988147 -0.38398206 -0.050605867 -0.032808986 -0.044556897 -0.3099071 -0.25131747 0.044569846
0.16766977 -0.068590485 -0.23338778 -0.18583316 -0.2310492 -0.30233186 -0.34325328 0.027453596
-0.119859844 -0.09621077 -0.16407283 -0.31256738 -0.16376391 0.0013589959 -0.116316676 -0.13064432
00000000: dbfc 53be ec36 7e3d aae3 c33d a7a3 4dbe
00000010: 5e8c 2fbe 0581 b3bd 2341 3abe 63f3 2b3e
00000020: 86f1 54bd 4c99 c4be 1948 4fbd b762 06bd
00000030: 4b81 36bd 25ac 9ebe afac 80be df8e 363d
00000040: a0b1 2b3e 2b79 8cbd 35fd 6ebe 0c4b 3ebe
00000050: 2998 6cbe 3ecb 9abe e5be afbe 5de6 e03c
00000060: 1479 f5bd 270a c5bd b502 28be d508 a0be
00000070: bab1 27be 5620 b23a 7037 eebd a0c7 05be

conv3.weight f4 [32, 32, 5, 5]
0.9576228 0.15816572 -0.2518013 -0.066503756 -0.27472895 0.45185792 -0.47575417 0.8597043
0.08599479 -0.23209067 0.04686138 0.24888612 -0.053145435 0.07032127 -0.08496711 -0.43322542
-0.028207123 -0.14307371 -0.109367035 -0.45290697 -0.24351634 0.32641912 0.19509606 -0.2813854
-0.05816558 -0.5838757 0.1860062 -0.08382678 -0.08375821 -0.17611513 -0.5012499 -0.11604258
-0.1800806 -0.11134094 -0.17249659 -0.661003 0.022352578 -0.009963156 -0.61697817 -0.1792022
0.20744477 0.11855999 -0.40564853 0.19014734 0.23193257 -0.20968193 0.039606605 -0.44277632
0.2788805 -0.45555913 0.20703186 0.123363286 0.0820529 0.18298566 -0.35096383 0.34664243
-0.047964584 0.09420015 0.16985928 -0.61889845 -0.16878735 -0.73824775 0.46547985 -0.60152006
-0.7584891 0.0619494 -0.27150488 -0.3015699 -0.7829793 -0.47480822 -0.5138706 -0.24378511
-0.055184662 0.4222701 -0.11686492 0.4775163 0.6043224 -0.27970988 0.12953699 -0.34170198
-0.09282209 0.17820567 -0.43230754 -0.3013945 0.3912823 0.12229421 -0.58234674 -0.051401924
0.65168494 0.55859065 -0.23240572 0.2701428 -0.17348176 0.15476407 0.4780655 0.3604016
-0.019944318 -0.15444255 -0.8273981 -0.5249125 0.026081845 0.29765153 0.11687238 -0.35304222
-0.24329796 -0.3121023 -0.43669522 -0.22468525 0.13771774 0.4416028 0.069508776 0.41016784
0.03053168 0.2519788 0.39106792 -0.09085557 -0.5276587 0.15291874 0.46227792 -0.16072692
-0.07108895 -0.55564433 0.37027925 -0.11189408 0.15502186 -0.19276486 -0.56726205 0.1756878
0.3037513 0.23525523 0.32706034 0.33914906 0.031617034 -0.46035397 -0.044378687 -0.5176452
-0.2291822 -0.25223893 -0.23000917 0.04860865 -0.53853923 0.04451798 -0.58507437 -0.9526729
-0.46630698 0.0937728 -0.301504 -0.15319484 0.5456683 -0.33468336 -0.23949315 -0.10195769
-0.111456 -0.033750992 -0.19838151 -0.6088367 -0.14806464 -0.57840043 0.20531312 -0.17014882
-0.23036027 0.18026586 -0.3003851 0.40722945 0.30300438 -0.47378856 -0.45893416 0.28083175
0.30666628 -0.10812659 -0.55107456 -0.34891748 0.019437846 0.060035344 0.20362328 -0.28072843
-0.20447332 -0.31338444 0.37899208 -0.64119184 -0.5174073 -0.537884 0.21339305 -0.37932464
-0.53695524 -0.24869512 -0.98959965 0.17085345 -0.27093005 -0.36098823 -0.26781717 -0.06460871
0.50200975 -0.55345905 -0.7574469 0.2953061 -0.26156372 0.7523674 -0.037204266 -0.17772162
-0.2268055 -0.7815013 0.20282438 -0.027691955 -0.701079 -0.30688542 -0.24183697 0.2241121
0.3587014 -0.30020759 -0.95054245 0.041483317 -0.052684482 0.51810014 0.38944694 0.5352447
-0.026641617 0.49859974 -0.10758762 -0.23968735 0.08960691 -0.3337958 -0.008502759 -0.60777175
-0.43097314 0.38367987 -0.2567254 -0.056963198 -0.17680386 0.5318221 0.05936001 -0.19432883
-0.12865785 0.46439788 -0.09210079 -0.37254325 -0.08112436 0.27523366 -0.1698345 -0.44333044
-0.5181424 -0.47091725 0.48192614 -0.1871473 0.17898133 -0.6122011 -0.6239357 0.17689835
0.06293495 -0.39336652 -0.39363235 -0.2725851 0.12348201 0.057488065 -0.20112611 -0.6548199
00000000: c526 753f 32f6 213e 1aec 80be 1f33 88bd
00000010: 46a9 8cbe ec59 e73e 0d96 f3be 9515 5c3f
00000020: 091e b03d 2da9 6dbe b8f1 3f3d 01dc 7e3e
00000030: 07af 59bd 9904 903d 3c03 aebd b9cf ddbe
00000040: a012 e7bc ea81 12be d3fb dfbd 6ce3 e7be
00000050: 595c 79be 6820 a73e 43c7 473e bf11 90be
00000060: 083f 6ebd e178 15bf 6978 3e3e 60ad abbd
00000070: 6d89 abbd 8657 34be ea51 00bf bba7 edbd
00000080: 0c67 38be b806 e4bd f2a2 30be 7e37 29bf
00000090: c11c b73c 813c 23bc 48f2 1dbf c880 37be
000000a0: 676c 543e 94cf f23d 2ab1 cfbe fcb5 423e
000000b0: bb7f 6d3e dcb6 56be 893a 223d 94b3 e2be
000000c0: 6dc9 8e3e 0c3f e9be 2900 543e e4a5 fc3d
000000d0: 5a0b a83d 9860 3b3e 88b1 b3be 1e7b b13e
000000e0: 8376 44bd 02ec c03d 97ef 2d3e 2170 1ebf
000000f0: 97d6 2cbe cefd 3cbf 6053 ee3e 38fd 19bf
00000100: 572c 42bf a7be 7d3d b002 8bbe 5f67 9abe
00000110: 5571 48bf 101a f3be 068d 03bf cea2 79be
00000120: 5009 62bd c933 d83e e056 efbd 047d f43e
00000130: dfb4 1a3f 2236 8fbe 58a5 043e 90f3 aebe
00000140: 8219 bebd 8c7b 363e 6a57 ddbe 6150 9abe
00000150: 2756 c83e 6375 fa3d ad14 15bf d38a 52bd
00000160: d3d4 263f ccff 0e3f c4fb 6dbe 2850 8a3e
00000170: 34a5 31be 797a 1e3e 00c5 f43e 8f86 b83e
00000180: 4462 a3bc 3026 1ebe 5dd0 53bf aa60 06bf
00000190: 98a9 d53c c865 983e c95a ef3d f3c1 b4be
000001a0: 1a23 79be dfcb 9fbe 8496 dfbe e413 66be
000001b0: e105 0d3e c319 e23e 9e5a 8e3d 8501 d23e
000001c0: 931d fa3c 5e03 813e 0e3a c83e 7c12 babd
000001d0: a414 07bf bb96 1c3e b1af ec3e 9995 24be
000001e0: 1597 91bd b53e 0ebf 3e95 bd3e b928 e5bd
000001f0: 0dbe 1e3e 2764 45be 1638 11bf 81e7 333e
00000200: 4a85 9b3e bfe6 703e 7474 a73e f2a4 ad3e
00000210: dd80 013d 84b3 ebbe 6dc6 35bd 6584 04bf
00000220: bdae 6abe 7625 81be 8687 6bbe dd19 473d
00000230: b5dd 09bf 7c58 363d 6fc7 15bf 5fe2 73bf
00000240: cabf eebe f40b c03d bb5e 9abe 1cdf 1cbe
00000250: ebb0 0b3f 9e5b abbe b13d 75be 32cf d0bd
00000260: 0b43 e4bd 7b3e 0abd 8624 4bbe b9dc 1bbf
00000270: 429e 17be 0d12 14bf 9a3d 523e 7e3b 2ebe
00000280: 90e3 6bbe 9d97 383e 13cc 99be 6180 d03e
00000290: 6423 9b3e 6a94 f2be 6bf9 eabe 2ec9 8f3e
000002a0: 5d03 9d3e 7971 ddbd 3913 0dbf 50a5 b2be
000002b0: 1e3c 9f3c 9fe7 753d 9f82 503e a3bb 8fbe
000002c0: 7461 51be ed73 a0be 400b c23e 2625 24bf
000002d0: ce74 04bf c4b2 09bf b583 5a3e d736 c2be
000002e0: e675 09bf efa9 7ebe 6756 7dbf 35f4 2e3e
000002f0: 58b7 8abe 73d3 b8be 551f 89be 9251 84bd
00000300: b683 003f 7eaf 0dbf 0ae8 41bf 5c32 973e
00000310: aeeb 85be 269b 403f 8063 18bd a8fc 35be
00000320: b33f 68be 7810 48bf 32b1 4f3e 3dda e2bc
00000330: ea79 33bf 1620 9dbe 1ca4 77be a47d 653e
00000340: b6a7 b73e cfb4 99be c056 73bf 69ea 293d
00000350: afcb 57bd 36a2 043f 9765 c73e cc05 093f
00000360: 853f dabc 7748 ff3e e656 dcbd 9a70 75be
00000370: d483 b73d 48e7 aabe 284f 0bbc ee96 1bbf
00000380: 83a8 dcbe b071 c43e 8371 83be 3e52 69bd
00000390: 120c 35be 7e25 083f 7b23 733d 23fe 46be
000003a0: e2be 03be 8fc5 ed3e 579f bcbd fdbd bebe
000003b0: 8724 a6bd 6deb 8c3e 18e9 2dbe 35fc e2be
000003c0: fba4 04bf 111c f1be 06bf f63e 8ba3 3fbe
000003d0: e246 373e 36b9 1cbf 40ba 1fbf d724 353e
000003e0: 0ae4 803d 5667 c9be 2e8a c9be 4690 8bbe
000003f0: 23e4 fc3d 9b78 6b3d 01f4 4dbe 47a2 27bf

conv3.bias f4 [32]
-0.23001125 -0.2941073 -0.019352695 -0.76868916 -0.08080714 -0.2622773 -0.5957705 -0.539725
-0.4348142 -0.39585102 -0.13567312 -0.1420981 -0.46267048 -0.05414435 0.0633939 -0.2279277
-0.34504974 -0.22041692 -0.41079703 -0.35966843 -0.51435673 -0.44144318 -0.09820699 -0.2542265
-0.41217664 -0.16843103 -0.53217685 -0.65551674 -0.3008843 -0.1326137 -0.14234744 -0.074115194
00000000: 1288 6bbe 3b95 96be 8b89 9ebc d0c8 44bf
00000010: 377e a5bd 3649 86be 6a84 18bf 6b2b 0abf
00000020: f89f debe fcac cabe e5ed 0abe 2a82 11be
00000030: 25e3 ecbe 77c6 5dbd a9d4 813d e165 69be
00000040: 5caa b0be f9b4 61be fd53 d2be 7626 b8be
00000050: e2ac 03bf d704 e2be bf20 c9bd fa29 82be
00000060: d108 d3be 2f79 2cbe be3c 08bf f2cf 27bf
00000070: 820d 9abe e3cb 07be 87c3 11be b5c9 97bd

conv4.weight f4 [32, 32, 5, 5]
0.11823904 0.16637751 -0.17468072 0.29092377 0.14588884 -0.032808345 -0.73215044 -0.5659269
0.31911358 -0.24773109 0.36423975 -0.5666565 -0.113754235 -0.29427853 0.33862692 -0.056009244
0.04628572 -0.49581477 -0.31764045 -0.73950684 0.5600951 -0.008086451 -0.37646118 0.03703699
-0.14009051 0.37897456 -0.3613953 -0.007945884 0.68262786 -0.22723216 -0.4054982 -0.098663054
0.008230671 -0.14563145 -0.19038267 0.4101668 0.018155817 -0.30601558 0.6529569 0.023235725
0.09989514 0.13422592 0.39976305 -0.4160029 -0.07433287 0.15318552 -0.11865842 -0.09973238
0.7101317 0.12779896 -0.64326185 0.18843669 -0.18758005 -0.34863043 0.2973962 -0.5298068
-0.31034482 0.3027607 -0.2636791 -0.31365463 -0.010032531 0.13365674 -0.27104408 0.39171478
-0.030792981 0.3943979 0.077007286 -0.3371039 -0.40431878 0.36093643 0.37650794 -0.37149325
-0.010445554 -0.40824258 0.29529262 -0.2378905 -0.110690914 -0.264677 -0.091035016 0.18263038
-0.13459139 0.033103 -0.46741992 0.121849984 0.21930851 -0.649703 0.552047 -0.0014524672
-0.04513848 0.042719956 0.39843613 0.15480202 -0.118108965 0.23069899 0.5298386 -0.46040633
0.3950842 0.12779199 -0.4861765 -0.06438046 0.08072313 0.08485501 0.08453134 0.05749147
-0.20489188 -0.050671753 0.1676997 0.17137443 0.08865673 -0.19169313 -0.0101355435 0.41578966
0.18964559 0.378251 -0.15749334 -0.18882628 0.48234946 -0.9345373 -0.5199271 0.8243059
-0.3904969 -0.31485578 0.48791555 -0.31092888 0.11228519 0.21595994 0.010805677 -0.2808971
-0.50222075 -0.54796624 0.30917892 -0.024065226 0.3250861 -0.4026675 0.3987566 -0.3163489
0.24289541 -0.26450047 0.124442734 0.012129682 0.5604091 0.0020397361 -0.18046784 -0.1316058
0.2450975 -0.6436908 -0.23119685 0.14048776 -0.47952315 -0.012052904 -0.08982198 -0.11804534
-0.22644354 0.15260309 -0.19802439 -0.3417377 -0.1790686 0.069995984 -0.5272664 0.22448035
-0.7331406 0.1012783 -0.18699184 -0.14417638 0.1562863 -0.3608116 0.19400941 0.27456206
0.3091772 0.04838007 -0.09586174 -0.13739511 -0.25127974 0.090276144 -0.3804384 -0.46356574
0.4177466 0.16272336 0.11801219 -0.48969328 -0.17347486 0.47218373 0.07924527 -0.42448395
-0.2532468 0.24724977 0.34740067 -0.14753006 -0.33768266 -0.6438907 -0.19578867 0.11152489
0.24555333 0.07462725 0.30586118 0.4184992 -0.16706051 0.61722004 -0.6060263 -0.08231485
-0.15733844 0.18241604 -0.3658872 -0.09369534 0.08284606 -0.33443737 -0.06791909 0.22278358
-0.11182757 -0.19895323 -0.08532927 -0.4490933 0.31137428 -0.30967832 -0.014031943 -0.058355153
0.06962847 -0.5879132 0.117422044 0.63894176 -6.407759e-05 -0.27898377 -0.12841105 -0.07022099
-0.1102399 -0.15610912 -0.5712394 0.19301742 -0.096520424 -0.19307657 -0.2896576 -0.37751764
0.29895145 -0.5453279 -0.43552777 0.14748688 0.39950544 -0.44448066 -0.039621595 -0.5470619
0.49260244 0.16758269 -0.41562614 -0.3975855 0.14693548 -0.3040568 -0.8093384 -0.28425112
-0.016538026 0.06853725 -0.2607024 -0.5092395 -0.10722112 0.096677355 -0.21231697 -0.21396603
00000000: 4f27 f23d de5e 2a3e 81df 32be f6f3 943e
00000010: e263 153e 0b62 06bd 366e 3bbf 96e0 10bf
00000020: db62 a33e 38ad 7dbe a27d ba3e 6610 11bf
00000030: fbf7 e8bd adab 96be 8260 ad3e f369 65bd
00000040: 1896 3d3d 6fdb fdbe c5a1 a2be 5250 3dbf
00000050: 6462 0f3f 097d 04bc 85bf c0be 19b4 173d
00000060: e373 0fbe f408 c23e ce08 b9be 742f 02bc
00000070: b3c0 2e3f 8caf 68be 769d cfbe db0f cabd
00000080: f0d9 063c 6920 15be adf3 42be 6201 d23e
00000090: 82bb 943c 13ae 9cbe 2f28 273f d958 be3c
000000a0: d395 cc3d 8572 093e bead cc3e 55fe d4be
000000b0: d53b 98bd aadc 1c3e 3003 f3bd 7d40 ccbd
000000c0: 31cb 353f bbdd 023e cfac 24bf 8cf5 403e
000000d0: fc14 40be b07f b2be 5144 983e 6ba1 07bf
000000e0: 84e5 9ebe 7303 9b3e f200 87be 5797 a0be
000000f0: 7c5f 24bc 50dd 083e 4ac6 8abe d78e c83e
00000100: 9041 fcbc 86ee c93e ffb5 9d3d e298 acbe
00000110: df02 cfbe a9cc b83e a6c5 c03e 5d34 bebe
00000120: d423 2bbc 2c05 d1be 9830 973e 9199 73be
00000130: ebb1 e2bd be83 87be 9170 babd 7503 3b3e
00000140: 53d2 09be 0397 073d aa51 efbe 7c8c f93d
00000150: 6992 603e f052 26bf f452 0d3f b660 beba
00000160: 20e3 38bd 1ffb 2e3d d2ff cb3e 6c84 1e3e
00000170: 1de3 f1bd 5b3c 6c3e 81a3 073f 61ba ebbe
00000180: 7a48 ca3e e7db 023e 20ec f8be e7d9 83bd
00000190: 2b52 a53d 77c8 ad3d c41e ad3d 2d7c 6b3d
000001a0: 2dcf 51be 2f8d 4fbd 78b9 2b3e c77c 2f3e
000001b0: a991 b53d 344b 44be 8d0f 26bc 62e2 d43e
000001c0: 7432 423e 1daa c13e ef45 21be ad5b 41be
000001d0: 82f6 f63e d63d 6fbf f119 05bf b605 533f
000001e0: 36ef c7be c734 a1be 11d0 f93e 1232 9fbe
000001f0: c7f5 e53d 9a24 5d3e 4b0a 313c bfd1 8fbe
00000200: 8a91 00bf 8447 0cbf b34c 9e3e 7024 c5bc
00000210: af71 a63e 6f2a cebe d329 cc3e 7cf8 a1be
00000220: 93b9 783e 9b6c 87be d5db fe3d 93bb 463c
00000230: f976 0f3f 18ad 053b 90cc 38be acc3 06be
00000240: d7fa 7a3e ecc8 24bf debe 6cbe 06dc 0f3e
00000250: 0f84 f5be 8b79 45bc 96f4 b7bd c1c1 f1bd
00000260: d1e0 67be fc43 1c3e e8c6 4abe 3ef8 aebe
00000270: c25d 37be 0e5a 8f3d eefa 06bf 2dde 653e
00000280: 1aaf 3bbf ff6a cf3d ca7a 3fbe f9a2 13be
00000290: 8409 203e 4cbc b8be 67aa 463e 6693 8c3e
000002a0: 794c 9e3e 2e2a 463d 2953 c4bd 4eb1 0cbe
000002b0: bda7 80be b3e2 b83d d2c8 c2be 7d58 edbe
000002c0: e2e2 d53e f4a0 263e 60b0 f13d 14b9 fabe
000002d0: 65a3 31be 11c2 f13e 584b a23d f655 d9be
000002e0: 91a9 81be 0b2f 7d3e 80de b13e 1f12 17be
000002f0: bee4 acbe 05d6 24bf d37c 48be 2967 e43d
00000300: 5572 7b3e 2cd6 983d d699 9c3e 8745 d63e
00000310: e911 2bbe 2202 1e3f 8a24 1bbf b094 a8bd
00000320: 541d 21be 45cb 3a3e 9155 bbbe 58e3 bfbd
00000330: 32ab a93d 603b abbe 2a19 8bbd 6121 643e
00000340: da05 e5bd 65ba 4bbe 1dc1 aebd 8fef e5be
00000350: 736c 9f3e 288e 9ebe 3ce6 65bc d005 6fbd
00000360: 5f99 8e3d 7b81 16bf f87a f03d b091 233f
00000370: 6561 86b8 f6d6 8ebe 307e 03be 06d0 8fbd
00000380: 75c5 e1bd 12db 1fbe bf3c 12bf 5ca6 453e
00000390: 80ac c5bd ddb5 45be 004e 94be fe49 c1be
000003a0: 2a10 993e 9c9a 0bbf 7ffd debe cd06 173e
000003b0: fa8b cc3e f892 e3be 414a 22bd 400c 0cbf
000003c0: 6336 fc3e cc9a 2b3e f3cc d4be 5490 cbbe
000003d0: 4176 163e 55ad 9bbe cd30 4fbf 5d89 91be
000003e0: c17a 87bc 425d 8c3d c97a 85be 855d 02bf
000003f0: bf96 dbbd c7fe c53d 9f69 59be e919 5bbe

conv4.bias f4 [32]
0.3130702 -0.15204708 0.06819799 0.1595259 -0.38911065 -0.43489313 0.032978043 -0.11310866
0.37327147 -0.24559808 0.11704217 0.38794425 0.24327958 -0.40712696 -0.19643557 0.2314964
-0.59973216 -0.22540984 -0.31124058 -0.04029479 0.111146696 -0.13314405 -0.12158216 -0.07435154
-0.4554881 -0.5925813 -0.31729996 -0.3638685 -0.31469142 -0.25359115 -0.20024218 -0.44164366
00000000: bd4a a03e 3bb2 1bbe 63ab 8b3d c25a 233e
00000010: 8339 c7be 50aa debe fc13 073d 83a5 e7bd
00000020: 701d bf3e 107e 7bbe ceb3 ef3d a1a0 c63e
00000030: 481e 793e f272 d0be 6826 49be 640d 6d3e
00000040: 0c88 19bf d6d1 66be ed5a 9fbe 260c 25bd
00000050: e1a0 e33d ea56 08be 1100 f9bd 9f45 98bd
00000060: bc35 e9be 68b3 17bf 2475 a2be f94c babe
00000070: 3c1f a1be b3d6 81be 490c 4dbe 1e1f e2be

conv5.weight f4 [32, 32, 5, 5]
0.2574653 0.29641274 -0.40590146 0.27103359 0.09527074 0.5056756 0.2688025 0.08784537
-0.13414375 -0.15846314 -0.1197265 0.11945281 0.20653681 0.07230113 -0.2080996 -0.004918775
0.43436396 -0.37562844 -0.5664543 -0.19482096 0.3837955 0.072671995 0.09456451 0.47216547
-0.1937459 0.41428164 -0.25551918 0.05027683 -0.096236035 -0.3702477 0.024192993 -0.516354
-0.25270095 -0.32565448 -0.6702926 -0.042665455 0.7549152 0.13389805 -0.3627658 -0.16506037
0.3087699 -0.23112002 0.13094534 -0.09150991 0.0026027928 0.6817113 0.13059023 0.2579644
-0.15386747 -0.79013133 0.63016623 -0.0026212742 0.33233243 0.2915765 -0.43650287 -0.30689773
-0.21223429 0.046351336 -0.74289185 -0.51321805 0.04519473 0.24395682 -0.95591986 -0.30487737
-0.07722484 -0.20359479 -0.35445666 -0.123759545 -0.1176537 -0.31249145 -0.21714269 -0.11929311
-0.33675215 0.3950178 -0.10907711 -0.1120337 -0.17110881 0.09033876 0.22681935 0.2344424
0.24481203 0.1180484 0.30532813 0.20955685 0.231559 -0.612589 -0.15927932 0.12582065
0.14112975 -0.31258085 -0.015279258 0.59219074 -0.22411557 -0.21234168 0.033198964 0.3250129
-0.02562795 -0.04988538 0.65481573 0.22415811 0.4013696 -0.48079708 0.6146931 0.5399599
0.043969046 0.66362876 -0.052500963 0.39756396 0.29705268 -0.22197865 0.18859889 -0.31021988
0.0051180427 -0.014883032 -0.012987763 -0.06124131 -0.62020624 -0.069769084 0.5052416 -0.20207447
-0.0028074568 -0.09913893 0.09762702 0.34142497 0.36501294 -0.5799756 0.0717865 -0.5006477
-0.14894949 -0.3707378 -0.3394827 -0.513148 -0.86946374 -0.38443536 -0.23504847 -0.0064852387
-0.23867752 -0.21802253 -0.023353493 -0.34432244 0.38494414 0.44857112 0.29974112 -0.25180173
-0.1543546 0.106998034 -0.4308558 -0.1487675 0.1064607 -0.34004658 -0.13174789 -0.07276377
-0.20966381 -0.38891643 -0.76271456 -0.16393284 -0.25452274 -0.7056442 -0.31932834 -0.17064525
-0.2644578 -0.16478094 -0.20189126 0.27918357 0.22546944 0.5153895 0.18598759 -0.29876927
0.539485 -0.19575624 -0.23097573 -0.27918753 -0.08186508 -0.37701502 -0.039901488 0.6080158
-0.03931368 -0.33636034 -0.5733386 -0.050716456 0.08857739 -0.108624324 -0.48202956 -0.70972615
-0.28612918 -0.20121908 0.42335862 0.06145351 -0.32083067 0.13611314 -0.19417407 0.28333604
0.17775723 0.14955506 -0.43019617 0.23186217 0.55145216 0.09990432 -0.6016412 -0.8770836
0.0080396775 -0.11277437 -0.086381085 -0.34901166 -0.567692 -0.20756948 -0.688063 0.22386225
-0.479915 0.18577425 0.49653053 0.27862448 -0.5576538 -0.2233389 -0.08980868 -0.58811736
0.0025585503 0.050254695 -0.21050005 -0.4946232 -0.06713002 -0.27764505 0.14533614 0.4045952
0.2025788 0.10316109 0.21379673 0.3010984 -0.0788844 0.1623325 -0.06209392 -0.31011623
-0.44989622 -0.36757007 0.12698267 -0.07535607 0.4605093 0.11765536 -0.45170093 0.01228367
-0.06393738 -0.059361555 -0.5155653 -0.027543362 0.06316749 0.35731742 0.1434544 0.053967085
-0.4821374 -0.12707154 0.24547704 0.08286269 -0.3766167 -0.037247237 -0.084893905 0.28163087
00000000: 7ed2 833e 69c3 973e 51d2 cfbe eac4 8a3e
00000010: 4e1d c33d f573 013f 7ba0 893e 46e8 b33d
00000020: fb5c 09be 2944 22be 2b33 f5bd ada3 f43d
00000030: 637e 533e 9d12 943d 1018 55be ad2d a1bb
00000040: f464 de3e 5f52 c0be 2603 11bf 257f 47be
00000050: d880 c43e 0ed5 943d 0aab c13d acbf f13e
00000060: 5365 46be b91c d43e 69d3 82be 14ef 4d3d
00000070: 6617 c5bd 1b91 bdbe 6230 c63c c72f 04bf
00000080: 0562 81be 2fbc a6be 4c98 2bbf f9c1 2ebd
00000090: 1f42 413f 921c 093e 70bc b9be 9605 29be
000000a0: 1717 9e3e baaa 6cbe 8916 063e 8c69 bbbd
000000b0: 9e93 2a3b a284 2e3f 72b9 053e e913 843e
000000c0: 6f8f 1dbe 0c46 4abf 9352 213f afc9 2bbb
000000d0: 7a27 aa3e 8449 953e 4e7d dfbe b321 9dbe
000000e0: f253 59be e6da 3d3d 292e 3ebf 4262 03bf
000000f0: 1c1e 393d d1cf 793e 2ab7 74bf e318 9cbe
00000100: 0f28 9ebd 277b 50be 587b b5be a575 fdbd
00000110: 6cf4 f0bd e1fe 9fbe a75a 5ebe f24f f4bd
00000120: c76a acbe c63f ca3e d263 dfbd ed71 e5bd
00000130: 2637 2fbe 8703 b93d 5543 683e ab11 703e
00000140: 01b0 7a3e 5cc3 f13d f853 9c3e 1296 563e
00000150: cd1d 6d3e a2d2 1cbf 1e1a 23be 21d7 003e
00000160: 5184 103e 990a a0be da55 7abc d099 173f
00000170: 8d7e 65be 1970 59be a3fb 073d 1768 a63e
00000180: b5f1 d1bc 9d54 4cbd 01a2 273f b489 653e
00000190: 5180 cd3e 092b f6be 875c 1d3f d03a 0a3f
000001a0: e318 343d 93e3 293f 400b 57bd 818d cb3e
000001b0: 4a17 983e 5f4e 63be 1120 413e 24d5 9ebe
000001c0: 41b5 a73b f6d7 73bc a0ca 54bc 2bd8 7abd
000001d0: d6c5 1ebf 18e3 8ebd 8357 013f 9cec 4ebe
000001e0: 4ffd 37bb 5a09 cbbd adf0 c73d 41cf ae3e
000001f0: fae2 ba3e 4879 14bf cd04 933d 732a 00bf
00000200: 3786 18be 58d1 bdbe add0 adbe ab5d 03bf
00000210: 2d95 5ebf b6d4 c4be 8cb0 70be 2082 d4bb
00000220: e167 74be 4c41 5fbe d34f bfbc 084b b0be
00000230: 6617 c53e 1dab e53e ab77 993e 28ec 80be
00000240: 220f 1ebe c921 db3d 2299 dcbe 8256 18be
00000250: 1108 da3d 961a aebe ebe8 06be 2c05 95bd
00000260: 1cb2 56be 0e20 c7be 4341 43bf 03de 27be
00000270: ce50 82be 19a5 34bf 017f a3be a1bd 2ebe
00000280: 0367 87be 56bc 28be 95bc 4ebe 26f1 8e3e
00000290: 76e1 663e 91f0 033f 8873 3e3e 49f8 98be
000002a0: b01b 0a3f 5374 48be e784 6cbe abf1 8ebe
000002b0: e1a8 a7bd 1d08 c1be be6f 23bd eca6 1b3f
000002c0: 6207 21bd 6c37 acbe 52c6 12bf 0fbc 4fbd
000002d0: 1068 b53d 6e76 debd 94cc f6be 9db0 35bf
000002e0: 867f 92be 600c 4ebe 76c2 d83e adb6 7b3d
000002f0: eb43 a4be 3e61 0b3e 91d5 46be 6c11 913e
00000300: fe05 363e f624 193e ac42 dcbe 476d 6d3e
00000310: f82b 0d3f a39a cc3d 2805 1abf 8d88 60bf
00000320: dab8 033c 40f6 e6bd 91e8 b0bd a8b1 b2be
00000330: 4354 11bf 188d 54be e624 30bf 253c 653e
00000340: 6bb7 f5be 9b3b 3e3e 4039 fe3e dea7 8e3e
00000350: 66c2 0ebf f4b2 64be 9ded b7bd dc8e 16bf
00000360: 5aad 273b ded7 4d3d 538d 57be 413f fdbe
00000370: 777b 89bd 7e27 8ebe ffd2 143e 1a27 cf3e
00000380: d170 4f3e 1f46 d33d 88ed 5a3e 9229 9a3e
00000390: 258e a1bd 7e3a 263e 3256 7ebd 8ec7 9ebe
000003a0: cc58 e6be 2532 bcbe bf07 023e 4954 9abd
000003b0: e0c7 eb3e 4bf5 f03d 5845 e7be 7241 493c
000003c0: 9af1 82bd 1a25 73bd 16fc 03bf 9ea2 e1bc
000003d0: f55d 813d 4ff2 b63e b6e5 123e 970c 5d3d
000003e0: b7da f6be 0b1f 02be 555e 7b3e eab3 a93d
000003f0: e7d3 c0be 8f90 18bd dbdc adbd ec31 903e

conv5.bias f4 [32]
-0.9073402 -0.32635817 -0.2879804 -0.64861953 -0.33065632 -0.8762187 0.34876904 -0.22545816
0.44191295 -0.31871793 -0.33549204 -0.61078167 0.16900715 0.59972906 -0.4337214 0.7719431
0.3247308 -0.32208607 -0.8413396 -0.88319844 0.3162054 -0.14862058 -0.18340772 -0.21600658
-0.26761454 -1.2795066 0.036336973 -0.38823953 -0.68214834 -0.04232985 -0.78184766 -0.04417331
00000000: 7347 68bf 6b18 a7be 2b72 93be ee0b 26bf
00000010: c94b a9be de4f 60bf db91 b23e 81de 66be
00000020: 6a42 e23e ff2e a3be 9dc5 abbe 305c 1cbf
00000030: 3610 2d3e d887 193f bb10 debe 109e 453f
00000040: 1e43 a63e 77e8 a4be 0862 57bf 4b19 62bf
00000050: ade5 a13e fe2f 18be 3ccf 3bbe d430 5dbe
00000060: c604 89be dfc6 a3bf 14d6 143d 55c7 c6be
00000070: 46a1 2ebf 1162 2dbd 2b27 48bf 13ef 34bd

conv6.weight f4 [32, 32, 5, 5]
-0.109928936 0.02227834 -0.15685725 0.12497378 -0.7727188 -0.58504647 0.3293178 -0.098030135
-0.22838335 -0.058802627 0.76799726 -0.087325215 0.08135798 -0.012187222 -0.036934387 0.3417457
-0.26318678 0.5667478 0.30418333 0.14963295 -0.5642923 -0.59410596 -0.30058232 -0.21094659
-0.53904766 -0.39013118 -0.3522164 -0.26340637 -0.7864162 -0.21046601 0.38918072 0.28478634
-1.0167012 -0.261651 -0.27692968 -0.24508382 -0.22463585 0.2911071 0.061227284 -0.104615316
-0.3442547 0.35730278 -0.18195051 -0.08731014 -0.38285244 -0.46982458 -0.4859826 -0.26384962
0.23412706 0.117547095 0.64780337 -0.62812203 -0.62635535 -0.28032067 -0.23296395 0.3124738
-0.065276146 -0.4205075 -0.10672922 0.27866098 -0.23674312 -0.08173233 -0.3380353 0.28775182
-0.35897872 0.3183634 0.13085805 -0.3752144 0.54462695 -0.15755397 -0.76330256 -0.13497803
0.57122046 -0.29206163 -0.23802213 0.14428104 -0.2953524 0.18540047 0.0021001922 0.10738832
-0.6693807 -0.029723033 -0.4431858 0.15468948 0.24400875 -0.48574293 -0.5201766 -0.083608106
-0.5060116 -0.27190793 0.6014159 -0.061532825 -0.5290554 0.3216568 -0.38862273 0.17961004
0.1506444 -0.25563198 0.27886322 -0.56017596 -0.14899808 0.055067435 0.033771466 0.07163758
0.4120127 -0.2639497 -0.44228315 -0.19608678 0.011568369 -0.36664093 -0.6317685 0.13840403
0.13583015 0.13940783 0.1056724 -0.16322574 0.088167466 -0.1809771 -0.23675868 -0.5021522
0.13044451 -0.064977966 0.22566079 -0.5490038 -0.46008968 -0.356624 -0.41640678 -0.18706322
-0.30496275 -0.528128 0.05256 0.06624332 0.029186515 -0.19140984 0.23266299 0.18286428
-0.6054739 -0.31817186 -0.13975286 0.30130693 0.17853926 -0.119362906 -0.14450952 -0.007271146
0.21288925 -0.14866245 0.44154614 -0.34230012 -0.5608433 -0.25995126 -0.032863595 -0.61758935
0.35762516 -0.029778128 -0.44292533 0.082051754 0.31521258 -0.4719234 -0.077146515 -0.74449337
0.2967874 0.027386544 -0.17063317 -0.029158916 -0.4303706 0.3358967 0.021683166 -0.5598823
-0.58973813 -0.40280542 -0.36860916 0.29706028 -0.6843542 0.22059588 -0.0786296 0.34318355
0.32772043 0.092833325 -0.0875233 -0.1038825 -0.20741542 0.6538997 0.046017352 0.0036358647
-0.16558203 0.13447085 0.28887448 -0.09130344 -0.21870917 0.32059926 -0.21349141 0.12612176
0.14241107 0.15290602 0.109283134 2.0556065e-05 0.11560357 -0.22680795 0.3823075 0.0051857936
-0.4398048 -0.17292912 -0.36518487 -0.47073975 -0.43396717 -0.18033795 -0.12555772 0.14947535
0.014009313 -0.5574295 -0.22208408 -0.27158123 -0.13885243 0.39094988 -0.0037442972 -0.33678097
0.15319684 0.05986797 0.06534162 -0.11927003 0.09384383 0.103975385 0.6480916 0.21631317
-0.34354624 0.13128707 0.06538531 -0.041581042 -0.19904205 0.30550927 0.15451704 -0.06895828
-0.121590994 0.24690832 -0.38804492 0.5401371 -0.10552795 0.2582678 -0.08955601 -0.667273
0.54787403 0.20290542 0.0061132517 0.093944184 -0.16091079 0.40744767 -0.38212752 -0.21897283
-0.02078715 -0.64992684 0.70039153 0.09995647 -0.7148144 0.29389486 -0.22105147 0.4365686
00000000: 6c22 e1bd 1181 b63c 309f 20be 41f2 ff3d
00000010: e6d0 45bf 9bc5 15bf 589c a83e 06c4 c8bd
00000020: 53dd 69be 06db 70bd 789b 443f 90d7 b2bd
00000030: 039f a63d eaac 47bc 8348 17bd 4bf9 ae3e
00000040: 6bc0 86be 6216 113f ebbd 9b3e 6139 193e
00000050: 7675 10bf 5417 18bf ede5 99be 6202 58be
00000060: 07ff 09bf 46bf c7be b555 b4be 33dd 86be
00000070: 9252 49bf 6784 57be b242 c73e 84cf 913e
00000080: 4423 82bf 1ff7 85be bac9 8dbe 41f7 7abe
00000090: f106 66be fd0b 953e 76c9 7a3d 8e40 d6bd
000000a0: 2742 b0be 64f0 b63e 3c51 3abe a9cf b2bd
000000b0: 3c05 c4be d98c f0be b6d2 f8be 4c17 87be
000000c0: 01bf 6f3e 88bc f03d 71d6 253f 9bcc 20bf
000000d0: d358 20bf 3186 8fbe 1a8e 6ebe 91fc 9f3e
000000e0: 80af 85bd c24c d7be d994 dabd a7ac 8e3e
000000f0: ca6c 72be 4863 a7bd f612 adbe 3554 933e
00000100: 0fcc b7be 8700 a33e a7ff 053e 1a1c c0be
00000110: ac6c 0b3f d455 21be cc67 43bf ae37 0abe
00000120: 813b 123f 1a89 95be 13bc 73be 69be 133e
00000130: 6e38 97be 9fd9 3d3e 61a3 093b 68ee db3d
00000140: 895c 2bbf b87d f3bc 40e9 e2be eb66 1e3e
00000150: 6edd 793e 4cb3 f8be 4b2a 05bf ba3a abbd
00000160: fa89 01bf 8437 8bbe 64f6 193f d809 7cbd
00000170: 2d70 07bf 33b0 a43e 8ff9 c6be b2eb 373e
00000180: 8742 1a3e 32e2 82be 29c7 8e3e b167 0fbf
00000190: f492 18be 648e 613d f353 0a3d b9b6 923d
000001a0: 54f3 d23e 6a24 87be f072 e2be f9ca 48be
000001b0: 4289 3d3c 5cb8 bbbe 95bb 21bf c9b9 0d3e
000001c0: 0f17 0b3e edc0 0e3e c56a d83d a624 27be
000001d0: 2591 b43d 1052 39be de70 72be 0c8d 00bf
000001e0: 3f93 053e 2b13 85bd 9f13 673e 838b 0cbf
000001f0: e090 ebbe 6c97 b6be 4533 d5be 808d 3fbe
00000200: 1424 9cbe 6633 07bf 2849 573d 94aa 873d
00000210: 8f18 ef3c f100 44be 353f 6e3e c640 3b3e
00000220: 5600 1bbf 6ce7 a2be 601b 0fbe e744 9a3e
00000230: ffd2 363e 8a74 f4bd 4efa 13be cb42 eebb
00000240: a4ff 593e f83a 18be 5612 e23e f641 afbe
00000250: 6d93 0fbf 5518 85be fa9b 06bd 561a 1ebf
00000260: a51a b73e 43f1 f3bc 1cc7 e2be c00a a83d
00000270: 8b63 a13e f29f f1be fefe 9dbd 1e97 3ebf
00000280: 85f4 973e bf59 e03c 76ba 2ebe aede eebc
00000290: 8959 dcbe a7fa ab3e e5a0 b13c 7254 0fbf
000002a0: 14f9 16bf 833c cebe 57ba bcbe 4918 983e
000002b0: d631 2fbf e3e3 613e 8e08 a1bd c1b5 af3e
000002c0: f9ca a73e 661f be3d 6a3f b3bd 59c0 d4bd
000002d0: b564 54be f965 273f b17c 3c3d b047 6e3b
000002e0: 568e 29be bab2 093e 5be7 933e 4cfd babd
000002f0: 4cf5 5fbe 9625 a43e 7e9d 5abe 1026 013e
00000300: 35d4 113e 6593 1c3e d6cf df3d d06f ac37
00000310: 91c1 ec3d 5840 68be cfbd c33e 97ed a93b
00000320: 182e e1be 5514 31be 83f9 babe cd04 f1be
00000330: f230 debe 83aa 38be 3492 00be 1110 193e
00000340: 5187 653c b3b3 0ebf 026a 63be b20c 8bbe
00000350: 552f 0ebe 952a c83e e262 75bb 8e6e acbe
00000360: a2df 1c3e 1e38 753d d4d1 853d d843 f4bd
00000370: 3231 c03d 0cf1 d43d 55e9 253f 3381 5d3e
00000380: 4be5 afbe 1e70 063e bce8 853d e250 2abd
00000390: aed1 4bbe b66b 9c3e b739 1e3e 003a 8dbd
000003a0: b304 f9bd 89d5 7c3e d3ad c6be 6d46 0a3f
000003b0: 0a1f d8bd ad3b 843e 2469 b7bd 67d2 2abf
000003c0: 7941 0c3f 70c6 4f3e ac51 c83b cf65 c03d
000003d0: ccc5 24be fb9c d03e 38a6 c3be 6a3a 60be
000003e0: d049 aabc 9b61 26bf dc4c 333f fab5 cc3d
000003f0: 14fe 36bf 6379 963e 515b 62be eb85 df3e

conv6.bias f4 [32]
-0.06991173 -0.58938986 -1.1661831 0.21156348 0.32022983 -1.1003255 0.33561534 -0.5696357
0.16509423 -0.1994216 0.4144833 0.025937192 0.39677835 -0.4212709 -0.88204974 1.4659507
-0.1941481 0.40606153 1.5156212 -0.7708498 -0.15746996 0.20948511 -0.744541 -0.8456369
-0.26074532 0.082405105 -0.31988272 -1.0724537 1.3032573 -0.3385395 -0.77638006 0.9077776
00000000: e22d 8fbd 41e2 16bf 7d45 95bf 19a4 583e
00000010: 2af5 a33e 77d7 8cbf c6d5 ab3e a5d3 11bf
00000020: 760e 293e 2d35 4cbe 2837 d43e 3c7a d43c
00000030: 8826 cb3e d2b0 d7be 03ce 61bf 46a4 bb3f
00000040: c2ce 46be 4ce7 cf3e e0ff c13f 6a56 45bf
00000050: ce3f 21be 4483 563e 3d9a 3ebf a97b 58bf
00000060: 6980 85be 02c4 a83d abc7 a3be 2a46 89bf
00000070: 23d1 a63f 0d55 adbe d8c0 46bf 1d64 683f

conv7.weight f4 [32, 32, 5, 5]
0.14328326 -0.22415674 0.21360195 0.46925673 -0.82268953 -0.08124682 -0.30974475 -0.044789743
-0.48414424 0.22185685 -0.054087095 0.21559697 -0.24733818 0.4154976 -0.40355805 0.1953854
0.37625182 0.3597274 0.11187703 -0.16724344 0.010987896 0.55266166 0.027620152 -0.07281204
0.23535988 0.2079275 0.04071253 0.26122606 0.2647409 0.08391625 -0.42801294 0.016992966
0.09302793 0.15502903 -0.018580133 0.04389685 -0.40269682 -0.12568732 0.21605633 0.017317416
-0.104488246 -0.3610246 -0.49926642 -0.01652392 0.117968656 0.45760363 0.13246012 0.43635055
0.38255224 0.10737662 -0.49868435 0.0901413 -0.3253083 0.119792186 0.43848848 -0.349323
0.17877436 -0.09713928 -0.35371125 0.12161863 0.39221054 -0.36389908 -0.35086465 -0.00867912
-0.013203466 0.14830539 -0.30721563 0.017693112 -0.41958848 0.2806523 0.21715137 0.01355929
-0.5237901 -0.11920745 -0.4427951 -0.20593038 -0.067109205 0.109229706 -0.24846232 -0.066247135
-0.33842206 -0.088555194 -0.12963693 -0.6729066 -0.069487646 -0.36527196 -0.6960062 -0.26014233
0.20962863 -0.07051845 0.2624296 0.009581746 0.12992121 -0.24892364 -0.1550603 -0.4586387
-0.43084532 -0.6435106 -0.40185723 -0.5921302 -0.2935111 -0.43978095 -0.5355792 -0.13955581
-0.008435874 -0.11311892 -0.5126725 -0.30960658 -0.28355715 -0.19354254 0.48216337 0.4934981
-0.02538105 -0.034180287 -0.7814361 0.3574834 0.3073034 -0.4396547 0.24371612 0.21168572
0.16849335 -0.00096039515 -0.07280928 0.029873364 -0.31302232 -0.019754585 -0.387216 0.0607144
-0.18977259 0.60858846 -0.09377468 0.1284482 -0.1577815 -0.22837432 -0.18111704 0.12066204
-0.43209693 -0.19426733 0.31816354 0.41246253 0.11658688 0.28903994 0.38038054 0.0987496
0.71761453 -0.39060876 -0.559982 -0.4013463 -0.13946217 0.44133475 0.11912056 -0.19803524
-0.098315775 0.27169266 0.05137397 -0.25632393 -0.32976002 -0.38596416 0.5583931 0.29514876
0.20030211 -0.44255194 0.03413094 0.3188404 0.025277551 -0.011011183 -0.18203963 -0.16129039
0.044492897 0.14813949 0.28230172 -0.4068463 0.0006668258 -0.24241704 -0.038753927 0.3732929
-0.0794715 -0.14231719 -0.061496068 0.015007078 -0.22164741 -0.07321208 -0.5790333 -0.4740692
-0.35804835 -0.47512665 -0.33370203 -0.02056392 -0.19442526 -0.1837963 -0.035690248 -0.2283463
-0.08326129 0.22916628 0.37934038 0.25436085 -0.40465054 -0.4730522 0.42792052 -0.032813244
-0.13933234 -0.010603744 -0.432031 -0.06440802 0.02054129 0.33329913 0.059722837 -0.27009487
0.0034703766 0.16167139 -0.3142958 0.23894924 0.04694938 0.049666822 -0.3359758 -0.2778596
0.3316449 -0.3954911 -0.14657812 -0.395582 -0.13358861 -0.027549284 0.068116754 0.47885892
-0.63410723 0.13322027 -0.27973032 0.16611205 -0.07917301 0.30905288 0.4013975 0.038582508
0.17519388 -0.4307522 0.030749515 0.46193036 0.22910258 -0.2410615 0.18738459 -0.017534105
-0.17365819 -0.08306214 -0.2658827 0.15890999 -0.66279566 -0.20029365 -0.067930266 0.23282294
0.09305447 -0.18118966 -0.23285396 -0.006383623 0.02907557 -0.31816828 -0.03287808 0.115206055
00000000: d9b8 123e 5889 65be 78ba 5a3e 6b42 f03e
00000010: c89b 52bf bc64 a6bd dd96 9ebe 7375 37bd
00000020: c1e1 f7be 712e 633e 6e8a 5dbd 74c5 5c3e
00000030: 3846 7dbe 1abc d43e 299f cebe 1c13 483e
00000040: 14a4 c03e 312e b83e c91f e53d dd41 2bbe
00000050: 9306 343c 3c7b 0d3f a843 e23c 7b1e 95bd
00000060: 2e02 713e f2ea 543e 2fc2 263d 6cbf 853e
00000070: 1f8c 873e 48dc ab3d 8324 dbbe d534 8b3c
00000080: 6d85 be3d eebf 1e3e 5d35 98bc 2fcd 333d
00000090: 472e cebe 2db4 00be df3d 5d3e 41dd 8d3c
000000a0: effd d5bd 37d8 b8be d99f ffbe 2c5d 87bc
000000b0: 8d99 f13d 064b ea3e a0a3 073e 5769 df3e
000000c0: e3dd c33e 46e8 db3d 8e53 ffbe 009c b83d
000000d0: cf8e a6be 9b55 f53d 9081 e03e 77da b2be
000000e0: a010 373e f5f0 c6bd a419 b5be 3013 f93d
000000f0: d2cf c83e fb50 babe 88a4 b3be de32 0ebc
00000100: 5a53 58bc 5edd 173e 5e4b 9dbe 25f1 903c
00000110: 4dd4 d6be a9b1 8f3e ee5c 5e3e c927 5e3c
00000120: 1c17 06bf 0923 f4bd 0ab6 e2be 6adf 52be
00000130: 8d70 89bd d3b3 df3d e86c 7ebe 94ac 87bd
00000140: a845 adbe 6d5c b5bd 8bbf 04be 9b43 2cbf
00000150: 8a4f 8ebd ed04 bbbe 762d 32bf 6031 85be
00000160: e3a8 563e fa6b 90bd 2c5d 863e c1fc 1c3c
00000170: 110a 053e d7e5 7ebe 21c8 1ebe b1d2 eabe
00000180: c297 dcbe 1cbd 24bf 3bc0 cdbe d895 17bf
00000190: 1647 96be f82a e1be b81b 09bf b8e7 0ebe
000001a0: 9f36 0abc e4aa e7bd 813e 03bf c184 9ebe
000001b0: 672e 91be 0430 46be 1ede f63e c8ab fc3e
000001c0: ebeb cfbc a100 0cbd 320c 48bf 1008 b73e
000001d0: df56 9d3e 6c1a e1be b890 793e 24c4 583e
000001e0: 8589 2c3e 07c3 7bba 081d 95bd fcb8 f43c
000001f0: 7644 a0be 5ed4 a1bc 2d41 c6be aaaf 783d
00000200: bf53 42be 74cc 1b3f f00c c0bd ed87 033e
00000210: 7991 21be f5da 69be bf76 39be a91d f73d
00000220: cf3b ddbe 04ee 46be 55e6 a23e 4a2e d33e
00000230: 1ac5 ee3d 0bfd 933e 3dc1 c23e 3b3d ca3d
00000240: 96b5 373f dffd c7be fb5a 0fbf 437d cdbe
00000250: 2ccf 0ebe a1f6 e13e 7bf5 f33d c0c9 4abe
00000260: c859 c9bd 4d1b 8b3e 836d 523d e43c 83be
00000270: 4ed6 a8be 189d c5be daf2 0e3f bd1d 973e
00000280: ff1b 4d3e 2b96 e2be e2cc 0b3d 0d3f a33e
00000290: de12 cf3c 4068 34bc 9968 3abe 4f29 25be
000002a0: 2f3e 363d e1b1 173e da89 903e 294e d0be
000002b0: eccd 2e3a 2c3c 78be 70bc 1ebd 3f20 bf3e
000002c0: f4c1 a2bd 99bb 11be 4de3 7bbd 3fe0 753c
000002d0: 8af7 62be 37f0 95bd 873b 14bf 33b9 f2be
000002e0: 1d52 b7be cd43 f3be feda aabe aa75 a8bc
000002f0: 6a17 47be 1935 3cbe f02f 12bd 9dd3 69be
00000300: e584 aabd 91aa 6a3e e738 c23e 963b 823e
00000310: 5b2e cfbe e633 f2be 6618 db3e 2e67 06bd
00000320: 23ad 0ebe 53bb 2dbc 2b33 ddbe 5ae8 83bd
00000330: 3546 a83c 2fa6 aa3e ef9f 743d e049 8abe
00000340: 426f 633b 2f8d 253e 61eb a0be 1caf 743e
00000350: fe4d 403d 706f 4b3d 0505 acbe 9d43 8ebe
00000360: 5ccd a93e cf7d cabe 9318 16be b989 cabe
00000370: 74cb 08be 09af e1bc cc80 8b3d ff2c f53e
00000380: da54 22bf e56a 083e d038 8fbe 4719 2a3e
00000390: 7625 a2bd 2e3c 9e3e f983 cd3e b108 1e3d
000003a0: 0666 333e 8d8b dcbe 68e6 fb3c 2382 ec3e
000003b0: de99 6a3e d3d8 76be bfe1 3f3e afa3 8fbc
000003c0: 74d3 31be 7c1c aabd c721 88be 4db9 223e
000003d0: faac 29bf c719 4dbe 061f 8bbd 2369 6e3e
000003e0: 5893 be3d c889 39be 4571 6ebe b62d d1bb
000003f0: e42f ee3c f4e6 a2be 2aab 06bd 27f1 eb3d

conv7.bias f4 [32]
-1.4840736 -0.28894454 -0.016027723 -0.8976315 -0.2298561 -0.81409 -0.3055263 -0.4844403
1.089495 1.0603849 -1.1296331 0.5600259 -1.2075834 0.27230027 1.1028093 -0.9931572
1.351426 1.2394798 -0.70425385 0.4027533 1.3903085 -0.2148613 -0.096400954 -1.1643308
0.26428524 -0.519645 0.30745292 0.67135125 0.38508394 -0.40218532 -0.103280395 1.3871281
00000000: 20f6 bdbf 8af0 93be 924c 83bc 2ecb 65bf
00000010: 665f 6bbe 3468 50bf f16d 9cbe 8f08 f8be
00000020: 9274 8b3f b1ba 873f d197 90bf db5d 0f3f
00000030: 1892 9abf f16a 8b3e db28 8d3f 8d3f 7ebf
00000040: 87fb ac3f 46a7 9e3f fb49 34bf ae35 ce3e
00000050: a1f5 b13f 9a04 5cbe dd6d c5bd cb08 95bf
00000060: 6550 873e 7407 05bf 786a 9d3e addd 2b3f
00000070: b929 c53e 3ceb cdbe ac84 d3bd 6a8d b13f
