model_prev.pt (torch, 915363 bytes, 22 tensors)

conv1.weight f4 [32, 1, 5, 5]
-0.105549216 0.0073421663 0.04911531 0.027143857 0.17228106 0.014557769 -0.09361034 0.067856446
0.11155118 -0.113669485 0.16092566 -0.14644739 -0.066536486 0.060194004 -0.07646936 0.20772795
0.016633209 0.14747833 -0.06121575 -0.047033995 0.0050178855 0.08967424 0.22280045 -0.09429431
0.048409287 0.19420785 -0.15266037 -0.020760747 0.09710814 -0.11039876 -0.21785621 -0.14189063
0.08171774 -0.060106333 0.11296642 0.10205 -0.017544324 0.044656586 0.05994146 -0.13390332
0.19352764 0.121773176 -0.054083526 0.01311051 0.029807895 0.10668489 -0.090056576 0.059091374
0.13432318 -0.15979144 -0.029366689 0.17154378 -0.11108562 -0.10983677 0.1659835 -0.031763196
0.050744675 -0.019389331 -0.0499885 0.061379977 0.0423811 -0.058657 -0.15016983 0.046124313
-0.14602564 -0.050686896 0.03742369 -0.094945505 0.1921172 0.22928841 0.20854585 0.0057365014
-0.14395703 -0.0986736 -0.17934741 -0.08391925 -0.11738413 0.14073962 -0.10593234 -0.04692608
0.07106301 0.14755541 0.033426307 0.13852927 -0.094165266 -0.07692215 -0.13657218 0.07235226
-0.13513666 0.039219122 0.18622598 0.01899309 0.04681826 -0.08237646 0.045897197 0.12504506
0.08899965 0.22125594 0.049536213 0.16458909 -0.053227123 -0.027299657 0.03251676 0.04750046
0.02614668 0.01572999 0.09791681 0.07878788 -0.06163382 0.035885822 -0.13035882 0.11627242
-0.15111175 -0.16735074 -0.08757592 0.015270218 -0.08477442 -0.16301338 -0.038655117 0.21725138
-0.027092643 0.04791376 0.109040394 0.21815495 -0.13615158 0.022423476 0.05547408 0.056439675
0.05392423 0.017360523 -0.19885403 -0.081456065 0.022984637 -0.21642536 0.038503204 0.12201864
-0.037284516 0.08646461 0.023800226 -0.11717053 0.08491126 0.08368368 -0.111461475 -0.042413283
0.058085088 0.09638119 -0.071419686 0.10835551 0.18909444 0.034277063 -0.15520212 -0.13309865
-0.069090046 -0.13727254 0.08506528 0.15520385 0.040378783 0.09238139 0.013341837 0.16721801
0.1130425 -0.032300755 0.0019468775 -0.07712647 -0.124224484 0.13131283 -0.05506177 -0.08060515
0.21873483 -0.032869786 -0.03789926 0.059775323 -0.10537121 -0.120362125 -0.13964096 -0.1368542
0.03421837 0.003085303 -0.069692835 0.068048924 -0.117414825 0.08926088 0.015657395 -0.18165408
0.0074523496 0.04659211 0.03930885 -0.048412167 -0.050978515 -0.10438153 0.1504937 0.16667037
0.0102414135 -0.0817105 0.079086944 0.18140002 -0.06346279 -0.013259376 0.08085705 -0.03229391
0.00823562 -0.12591726 -0.1592637 0.07596768 -0.038724683 0.039885912 0.21447092 0.13805917
0.013487085 -0.02067334 0.16510239 0.08485032 -0.0424016 0.20334361 0.11916581 -0.081178404
-0.06538803 0.08355578 -0.16640887 -0.03267885 0.15184864 -0.039711986 -0.171401 -0.016448542
0.15841332 0.16895597 -0.14570643 0.093285955 -0.042277824 -0.12055628 0.03860398 0.078590065
0.09225409 0.060018692 -0.08683546 0.0433679 -0.06860312 -0.066205986 0.03529055 -0.10094272
0.0632712 0.0389298 -0.0077048433 0.09852614 -0.16351306 0.03890133 -0.08363293 -0.12581395
0.07189848 -0.0130684525 -0.111844584 0.10202711 -0.046669632 -0.03946019 -0.11980848 -0.080124
00000000: 302a d8bd 8e96 f03b 232d 493d cb5c de3c
00000010: 726a 303e b583 6e3c c7b6 bfbd 52f8 8a3d
00000020: f274 e43d 8ccb e8bd b2c9 243e 4ef6 15be
00000030: 4844 88bd fd8d 763d f89b 9cbd a3b6 543e
00000040: 5e42 883c 8f04 173e 5ebd 7abd b8a6 40bd
00000050: 136d a43b 21a7 b73d cd25 643e 601d c1bd
00000060: d148 463d 6cde 463e 0053 1cbe 7112 aabc
00000070: a2e0 c63d bf18 e2bd b315 5fbe c74b 11be
00000080: a15b a73d 0f32 76bd f05a e73d 97ff d03d
00000090: 1db9 8fbc d3e9 363d 2d85 753d f41d 09be
000000a0: 1c2c 463e 3764 f93d b086 5dbd 77cd 563c
000000b0: b02f f43c 9c7d da3d 956f b8bd cc09 723d
000000c0: 048c 093e 5ea0 23be 6992 f0bc 2ca9 2f3e
000000d0: dc80 e3bd 1af2 e0bd 94f7 293e 201a 02bd
000000e0: a6d9 4f3d 60d6 9ebc bec0 4cbd 9269 7b3d
000000f0: ce97 2d3d 5342 70bd 1fc6 19be d9ec 3c3d
00000100: bf87 15be 109d 4fbd 9549 193d ca72 c2bd
00000110: 5fba 443e 95ca 6a3e 0b8d 553e 43f9 bb3b
00000120: 7969 13be 6215 cabd d9a6 37be dbdd abbd
00000130: 1767 f0bd 0c1e 103e 0ef3 d8bd 9035 40bd
00000140: 7c89 913d c418 173e 06ea 083d 9eda 0d3e
00000150: b8d9 c0bd 5c89 9dbd 94d9 0bbe 6c2d 943d
00000160: 4461 0abe 3ba4 203d 06b2 3e3e 6697 9b3c
00000170: 81c4 3f3d fdb4 a8bd b3fe 3b3d d00b 003e
00000180: 7345 b63d eb90 623e 7ce6 4a3d 0b8a 283e
00000190: af04 5abd 88a3 dfbc 4b30 053d d88f 423d
000001a0: 9031 d63c 2edc 803c 9c88 c83d 8a5b a13d
000001b0: bf73 7cbd 03fd 123d c87c 05be 3c20 ee3d
000001c0: 0abd 1abe fe5d 2bbe 015b b3bd f02f 7a3c
000001d0: 369e adbd fbec 26be d454 1ebd 2577 5e3e
000001e0: 64f1 ddbc 3841 443d 9250 df3d 0364 5f3e
000001f0: 526b 0bbe 70b1 b73c ca38 633d 4a2d 673d
00000200: a7df 5c3d a837 8e3c 64a0 4bbe 70d2 a6bd
00000210: 474a bc3c 9c9e 5dbe 89b5 1d3d e9e4 f93d
00000220: a6b7 18bd 5c14 b13d b1f8 c23c 1af7 efbd
00000230: f4e5 ad3d 5962 ab3d ea45 e4bd 8db9 2dbd
00000240: a1ea 6d3d 8063 c53d 7c44 92bd 7ee9 dd3d
00000250: f9a1 413e 1b66 0c3d 4eed 1ebe 034b 08be
00000260: 157f 8dbd 2c91 0cbe b536 ae3d c2ed 1e3e
00000270: 3964 253d 7432 bd3d b897 5a3c 333b 2b3e
00000280: d482 e73d cc4d 04bd 5e2e ff3a 7cf4 9dbd
00000290: 6869 febd df76 063e 7388 61bd 5014 a5bd
000002a0: 06fc 5f3e 78a2 06bd 413c 1bbd f8d6 743d
000002b0: dccc d7bd 6b80 f6bd 0afe 0ebe 8223 0cbe
000002c0: 9028 0c3d cb32 4a3b 1ebb 8ebd 3c5d 8b3d
000002d0: 2f77 f0bd 69ce b63d f043 803c 8703 3abe
000002e0: d732 f43b 5ed7 3e3d 5102 213d d64b 46bd
000002f0: d9ce 50bd fcc5 d5bd 051b 1a3e a3ab 2a3e
00000300: 9acb 273c d657 a7bd 56f8 a13d edc0 393e
00000310: c7f8 81bd db3d 59bc 6298 a53d 9e46 04bd
00000320: b2ee 063c 74f0 00be 0616 23be f194 9b3d
00000330: c69d 1ebd 695f 233d 449e 5b3e 625f 0d3e
00000340: eff8 5c3c 235b a9bc 9a10 293e 01c6 ad3d
00000350: 4dad 2dbd 4f39 503e 340d f43d dd40 a6bd
00000360: 29ea 85bd 4b1f ab3d 1667 2abe 42da 05bd
00000370: 367e 1b3e 09a9 22bd be83 2fbe 18bf 86bc
00000380: 1a37 223e cb02 2d3e 1134 15be b50c bf3d
00000390: 832b 2dbd 36e6 f6bd 351f 1e3d d4f3 a03d
000003a0: b6ef bc3d 29d6 753d cad6 b1bd 8aa2 313d
000003b0: cb7f 8cbd 0197 87bd d38c 103d 0fbb cebd
000003c0: 5594 813d db74 1f3d e978 fcbb 13c8 c93d
000003d0: f86f 27be 0057 1f3d be47 abbd 5fd5 00be
000003e0: 833f 933d 101d 56bc c60e e5bd 97f3 d03d
000003f0: a828 3fbd 02a1 21bd 265e f5bd 0d18 a4bd

conv1.bias f4 [32]
-0.19297132 -0.24095085 -0.08841764 -0.23393705 -0.10644094 -0.21313582 -0.18908496 -0.16642801
-0.109962024 -0.19097993 -0.08154946 -0.13870962 -0.09628899 -0.13104807 -0.18999529 -0.28200102
-0.22229083 -0.24509445 -0.14278176 -0.0987227 -0.1571715 -0.084573455 -0.2442586 -0.30661124
-0.21792807 -0.1512958 -0.1939265 -0.26740226 -0.09543195 -0.091982745 -0.18923678 -0.07105509
00000000: 469a 45be d2bb 76be 4f14 b5bd 328d 6fbe
00000010: b5fd d9bd 4740 5abe 7d9f 41be 1b6c 2abe
00000020: c533 e1bd 3e90 43be 6703 a7bd e509 0ebe
00000030: 2933 c5bd 7731 06be 208e 42be 7062 90be
00000040: 35a0 63be 0afa 7abe 6235 12be 202f cabd
00000050: 91f1 20be d934 adbd ed1e 7abe 26fc 9cbe
00000060: 8928 5fbe 49ed 1abe ab94 46be f3e8 88be
00000070: d471 c3bd 7361 bcbd 49c7 41be 5585 91bd

conv2.weight f4 [32, 32, 5, 5]
0.0046501243 0.01978737 0.05496924 0.011636325 0.03648309 0.06814579 0.07857408 0.057530418
0.033025317 0.047567077 0.009177362 0.01581249 0.044161476 0.022436464 -0.0031196359 0.010117651
0.057641897 0.01597883 0.04204822 0.026535971 0.029817156 0.011028447 -0.0056386474 -0.01788138
0.00028904542 0.020150317 0.05459483 0.09097828 0.07456726 0.07435964 0.047376808 0.043895863
0.04062306 0.05220362 0.057102464 0.03277226 0.063560486 0.08757349 0.05302139 0.024666078
0.035299473 0.017975891 0.038775787 -0.007123719 0.042668145 -0.001721678 -0.002944459 0.041295964
0.040760726 0.031291697 0.043298718 0.017497417 0.011751691 0.014696319 0.020122191 0.01903475
0.071530014 0.046420045 0.040359672 0.015329552 0.045084238 0.026120761 0.08008992 0.066973634
0.041182812 0.020310024 0.025306273 0.053471185 0.0042121555 0.0017628564 0.038330212 0.009199411
0.0118882945 0.024349311 0.019389484 0.05653904 0.012386539 0.06333047 0.048298564 0.06284436
0.022909835 0.045865025 0.072856836 0.0668786 0.012164382 0.052345943 0.013246366 0.008034246
0.065401115 0.011364861 0.014028298 0.025426233 0.008333362 0.020947117 0.00722458 -0.016110038
-0.014885669 0.03406033 0.015597035 0.021400072 0.0056449464 0.010202818 0.035542864 0.06348683
0.020511562 0.061848395 0.013014669 0.016919143 0.015948925 0.049947724 0.028827319 0.05021258
0.0366931 0.0411108 0.041230146 0.015009049 0.046052374 0.042827513 0.026817672 0.047003593
-0.012103853 0.024811937 0.041955873 0.03049538 0.04467748 0.025202842 0.06330785 0.07603717
0.049848 0.059632886 0.05341866 0.051132858 0.063260555 0.028069919 0.050546106 0.010233359
0.07286477 0.046740294 0.06460402 0.028445194 0.06661739 0.05687099 0.024469057 0.06255942
-0.003578076 0.007475057 0.063868426 0.06331408 0.005531479 0.052237965 0.0065523027 0.053366933
0.047269873 0.09202193 0.03342533 0.05489798 0.050474774 0.046630908 0.08438971 0.07125882
0.040796474 0.02357662 0.029527418 0.07024671 0.07378292 0.043280903 0.010227711 0.013975697
0.033500977 0.007714625 0.03463564 0.005234608 -0.016854644 0.014752309 0.009561312 0.06972003
0.0489221 0.056414902 0.08386109 0.04087927 0.016277023 0.055464126 0.07657822 0.074960224
0.025989452 0.03353549 0.081549495 0.05028794 0.07525555 0.03345118 0.030384907 0.044942547
0.07462401 0.028573249 0.022623796 0.020952692 -0.0074571283 0.05509029 -0.008013704 -0.0094497865
0.009805879 0.05623156 -0.0008391156 0.016193945 0.047713958 -0.010367106 0.04271807 0.052584045
0.045987673 0.019468253 0.046635523 0.034390237 0.00871393 -0.0035653182 -0.021710157 0.01200048
0.03749656 0.027484797 -0.025710063 0.022092387 -0.01995957 -0.0035463353 -0.014536775 0.0024306944
0.0053466572 0.052177798 0.050063927 0.062113967 0.06281234 0.047577653 0.04497392 0.03926723
0.076333985 0.07073941 0.03260108 0.053100344 0.035094716 0.07763923 0.05032534 0.06744323
-0.008164591 0.05969295 0.022275474 0.07500485 0.023358557 -0.01902839 0.028348396 0.026250986
0.032801073 0.027264696 0.030158414 0.019928856 -0.0067537376 -0.011988949 -0.024828656 0.014122096
00000000: 1260 983b 1f19 a23c 6d27 613d 49a6 3e3c
00000010: 4b6f 153d 0590 8b3d 72eb a03d 04a5 6b3d
00000020: 8e45 073d b2d5 423d a55c 163c 3289 813c
00000030: aae2 343d adcc b73c ce72 4cbb 81c4 253c
00000040: e919 6c3d 09e6 823c c13a 2c3d f761 d93c
00000050: 1c43 f43c a9b0 343c 67c4 b8bb f97b 92bc
00000060: 058b 9739 4712 a53c d49e 5f3d d252 ba3d
00000070: b8b6 983d de49 983d 2f0e 423d 26cc 333d
00000080: 5e64 263d 77d3 553d 46e4 693d 353c 063d
00000090: 002c 823d bb59 b33d f52c 593d 8410 ca3c
000000a0: 2e96 103d 2d42 933c 5cd3 1e3d 166e e9bb
000000b0: cbc4 2e3d eda9 e1ba d3f7 40bb f525 293d
000000c0: b8f4 263d b92b 003d ff59 313d be56 8f3c
000000d0: 2a8a 403c d4c8 703c 4bd7 a43c c4ee 9b3c
000000e0: 547e 923d f222 3e3d 2f50 253d cd28 7b3c
000000f0: 40aa 383d 35fb d53c 2f06 a43d 7929 893d
00000100: 4faf 283d 3561 a63c 1a4f cf3c 9a04 5b3d
00000110: 1f06 8a3b a50f e73a 2400 1d3d 20b9 163c
00000120: 1fc7 423c 3578 c73c b2d6 9e3c 7b95 673d
00000130: e9f0 4a3c 68b3 813d b7d4 453d 8bb4 803d
00000140: 68ad bb3c f7dc 3b3d f735 953d a6f7 883d
00000150: 1e4d 473c b368 563d 4907 593c 12a2 033c
00000160: 05f1 853d af33 3a3c f2d6 653c ad4a d03c
00000170: a788 083c 4a99 ab3c 2bbc ec3b 33f9 83bc
00000180: 05e3 73bc d882 0b3d b58a 7f3c 344f af3c
00000190: 3ef9 b83b b829 273c 6595 113d 6205 823d
000001a0: dd07 a83c be54 7d3d 7a3b 553c 049a 8a3c
000001b0: 52a7 823c fc95 4c3d 4527 ec3c b5ab 4d3d
000001c0: 814b 163d cc63 283d f1e0 283d 84e8 753c
000001d0: 6aa1 3c3d e76b 2f3d bcb0 db3c d786 403d
000001e0: 3d4f 46bc 6742 cb3c ecd9 2b3d 72d1 f93c
000001f0: bcff 363d 3176 ce3c 8ca7 813d 60b9 9b3d
00000200: 6b2d 4c3d 9d41 743d 86cd 5a3d b070 513d
00000210: c08e 813d e3f2 e53c 6f09 4f3d d2a9 273c
00000220: 203a 953d c072 3f3d 1d4f 843d e505 e93c
00000230: b36e 883d 8ef1 683d 5573 c83c 271f 803d
00000240: 277e 6abb 53f1 f43b 73cd 823d d0aa 813d
00000250: 6941 b53b 7af7 553d b3b4 d63b 4997 5a3d
00000260: 0e9e 413d fe75 bc3d 00e9 083d b4dc 603d
00000270: a3be 4e3d 0d00 3f3d 83d4 ac3d 25f0 913d
00000280: 341a 273d c123 c13c 7ce3 f13c 82dd 8f3d
00000290: 801b 973d 5147 313d 2192 273c 52fa 643c
000002a0: 5238 093d f7ca fc3b 1ade 0d3d 1387 ab3b
000002b0: c012 8abc abb3 713c 0da7 1c3c 60c9 8e3d
000002c0: 8a62 483d 5013 673d 5dbf ab3d 0571 273d
000002d0: 6457 853c 5a2e 633d 0bd5 9c3d bf84 993d
000002e0: d5e7 d43c 835c 093d 6c03 a73d bafa 4d3d
000002f0: 951f 9a3d 1b04 093d c5e9 f83c ad15 383d
00000300: 79d4 983d 7212 ea3c 8a55 b93c fba4 ab3c
00000310: ed5a f4bb 5ba6 613d e94b 03bc 47d3 1abc
00000320: d6a8 203c 1053 663d 18f8 5bba 2aa9 843c
00000330: b66f 433d cbda 29bc 25f9 2e3d 5e62 573d
00000340: 925d 3c3d e37b 9f3c e404 3f3d c7dc 0c3d
00000350: dfc4 0e3c 1da8 69bb 80d9 b1bc a99d 443c
00000360: fe95 193d cc27 e13c e99d d2bc 18fb b43c
00000370: 4182 a3bc a269 68bb a72b 6ebc 494c 1f3b
00000380: 0333 af3b 63b8 553d d50f 4d3d 376b 7e3d
00000390: c2a3 803d c9e0 423d 9336 383d add6 203d
000003a0: fe54 9c3d d3df 903d b688 053d bf7f 593d
000003b0: 7abf 0f3d 5101 9f3d f221 4e3d ad1f 8a3d
000003c0: c7c4 05bc 9880 743d 0e7b b63c 259c 993d
000003d0: 725a bf3c 6de1 9bbc e53a e83c 4f0c d73c
000003e0: 6b5a 063d 365a df3c c70e f73c d741 a33c
000003f0: 754e ddbb 4c6d 44bc 7765 cbbc 5d60 673c

conv2.bias f4 [32]
0.20346813 -0.012128305 0.18957067 -0.012274862 0.019460788 0.15466915 0.1684429 0.0025911848
0.1919407 0.16299333 0.12350688 0.17449048 0.13952254 0.1295752 0.20125279 0.1758233
0.007891218 0.18227412 0.0100136595 0.15632486 0.15585335 0.12389141 0.16095975 0.0036192017
0.14146489 0.14416295 0.16345151 0.15057597 0.13169752 0.1615737 0.1318114 0.017477771
00000000: f359 503e ccb5 46bc d01e 423e 811c 49bc
00000010: 3b6c 9f3c 9761 1e3e 4c7c 2c3e ded0 293b
00000020: 1a8c 443e b9e7 263e 2df1 fc3d a2ad 323e
00000030: ffde 0e3e 5caf 043e 3615 4e3e 060b 343e
00000040: 2b4a 013c 11a6 3a3e 5510 243c a013 203e
00000050: 0598 1f3e c8ba fd3d a2d2 243e 2130 6d3b
00000060: 2cdc 103e 749f 133e d55f 273e 9630 1a3e
00000070: b7db 063e 9373 253e 91f9 063e 8b2d 8f3c

conv3.weight f4 [32, 32, 5, 5]
0.0020737376 0.021315701 0.034134556 -0.031989537 -0.028787829 -0.007406492 -0.0064076385 -0.016317824
-0.02224203 0.011686886 -0.020471534 -0.0011943219 0.004723832 -0.026940241 0.028317828 -0.0124209095
0.021671696 0.005722616 -0.031623017 0.031085381 -0.019474583 0.029663406 -0.030804476 -0.00619853
-0.013970724 -0.0060327696 -0.0079138 -0.019449433 0.01693731 0.034605213 0.021393891 0.00045889866
0.020907799 0.0030083829 0.024638806 -0.029438525 -0.002261392 0.0131893065 0.014033172 -0.0028326807
0.03265923 -0.027334014 -0.0027394935 0.034625493 0.031208165 -0.026600959 -0.030947462 -0.027993742
0.021359598 -0.01952105 0.015071724 0.02651109 0.008223532 0.023023557 -0.03255348 -0.034414537
-0.02078878 0.013341967 0.0002800665 -0.01049154 0.02943038 0.0019093695 0.015256687 0.029462641
0.02021847 -0.0072676847 0.010081482 0.008349388 0.031479716 -0.032034423 0.0097822435 0.027194783
-0.0031618227 0.014345005 0.029986124 -0.030596709 0.0061358893 7.1241244e-05 0.017525021 -0.005095312
0.030890392 0.025714839 0.0065238345 -0.019277977 -0.028417356 0.005071077 -0.010863658 -0.019060884
-0.021056134 -0.018397829 -0.012558127 0.020526549 0.01762435 0.018417826 0.0027033174 -0.035097037
-0.009542612 0.014150088 -0.030240998 0.03383975 -0.01585206 -0.0032435872 -0.024068197 -0.011335427
-0.034494173 0.017384352 -0.024581078 -0.014601726 0.022033315 -0.005256345 0.02246311 0.03521399
0.024240147 0.028382221 0.0077602244 0.010854287 0.016508553 -0.0025355748 -0.033055514 0.034881018
-0.017244522 -0.012909524 -0.019936945 0.010730489 0.011397953 0.032374103 -0.0152606405 0.03463326
-0.017233048 0.0074596945 0.02795316 -0.0026416695 0.0197345 -0.0103281895 -0.007324372 -0.0021666922
0.014257851 0.005768403 0.035037253 -0.022406448 -0.028481409 -0.017819013 -0.020141821 0.023514275
0.027512759 -0.0059642904 -0.026296174 -0.0014305633 0.00039286938 0.01200075 0.028898321 -0.031692985
0.03585333 -0.0030704814 -0.026040558 -0.030423313 0.031619605 0.0027242631 0.01783989 -0.0009361007
0.0021271233 0.0062271175 0.023790784 -0.034585096 -0.024721744 -0.028606182 -0.034292515 0.029355075
-0.033810522 -0.0040578158 0.013508731 0.007819793 -0.031047966 0.02376204 -0.02419449 0.018833602
-0.007949923 0.0034512833 -0.029501507 0.008765727 0.018033355 0.014083806 0.022602685 -0.025445053
-0.026655223 -0.008394706 -0.015796227 0.028240517 -0.023453234 -0.0047307 -0.011732458 -0.019591896
0.005755597 -0.0036563918 -0.019261135 0.02043574 0.03395841 -0.033395816 -0.012630511 -0.032004856
0.029457424 0.02082557 -0.03090612 -0.016075166 0.012628411 0.0144286305 0.02858462 0.0039714975
0.010731702 -0.031049185 0.00531794 0.032677457 0.017575439 -0.030953707 -0.01818455 -0.025803717
0.0004895797 0.02689043 -0.01670026 0.0070384704 0.03459239 0.011286843 0.028755104 -0.023618756
0.0064152908 -0.02578402 -0.025902545 -0.023382215 0.024382032 0.025433753 0.018283673 0.031498577
0.010885274 0.0071636955 -0.013102534 -0.02890943 -0.013405447 -0.013307718 0.014259145 -0.028464515
-0.03225434 0.028098818 -0.029082518 0.014881274 0.0030950676 -0.025982019 -0.0067718946 0.017594112
-0.028912416 0.02166703 -0.034919165 0.005473415 -0.0017712837 0.010637939 -0.01020229 -0.009086304
00000000: 8be7 073b 449e ae3c add0 0b3d 7607 03bd
00000010: 74d4 ebbc 28b2 f2bb 2bf7 d1bb f5ac 85bc
00000020: eb34 b6bc 5a7a 3f3c ebb3 a7bc cb8a 9cba
00000030: 60ca 9a3b c8b1 dcbc cafa e73c 1281 4bbc
00000040: d788 b13c c884 bb3b 2387 01bd c5a6 fe3c
00000050: 2989 9fbc ac00 f33c ab59 fcbc 0a1d cbbb
00000060: 77e5 64bc 8aae c5bb e2a8 01bc 6b54 9fbc
00000070: 1dc0 8a3c 32be 0d3d 3e42 af3c 5698 f039
00000080: d546 ab3c 4a28 453b 52d7 c93c 1029 f1bc
00000090: dd33 14bb f617 583c 64eb 653c 7fa4 39bb
000000a0: afc5 053d 95eb dfbc 1389 33bb 76d3 0d3d
000000b0: 44a8 ff3c 41ea d9bc 8885 fdbc 2253 e5bc
000000c0: 53fa ae3c 9cea 9fbc 64ef 763c c92d d93c
000000d0: febb 063c e69b bc3c cc56 05bd 42f6 0cbd
000000e0: 3b4d aabc 4498 5a3c e4d5 9239 b5e4 2bbc
000000f0: fb17 f13c cf43 fa3a 2ff7 793c a35b f13c
00000100: 34a1 a53c c225 eebb cd2c 253c dfcb 083c
00000110: e0f0 003d 8736 03bd b445 203c 98c7 de3c
00000120: 9536 4fbb 5007 6b3c 76a5 f53c f3a5 fabc
00000130: 920f c93b 5a67 9538 a290 8f3c 93f6 a6bb
00000140: d90d fd3c eda7 d23c e4c5 d53b d9ec 9dbc
00000150: 84cb e8bc 472b a63b 7cfd 31bc 9225 9cbc
00000160: ea7d acbc 0bb7 96bc 9ac0 4dbc 4b27 a83c
00000170: f160 903c fbe0 963c 242a 313b e9c1 0fbd
00000180: 9e58 1cbc c5d5 673c f8bb f7bc 8d9b 0a3d
00000190: 2edc 81bc 5d92 54bb ab2a c5bc 3ab8 39bc
000001a0: c349 0dbd a169 8e3c 425e c9bc 143c 6fbc
000001b0: 367f b43c 6b3d acbb 8e04 b83c 8b3c 103d
000001c0: 4693 c63c d581 e83c 7b49 fe3b 2ed6 313c
000001d0: f23c 873c e32b 26bb 3865 07bd 66df 0e3d
000001e0: 6244 8dbc 7882 53bc ce52 a3bc efce 2f3c
000001f0: 7bbe 3a3c b59a 043d c407 7abc 9bdb 0d3d
00000200: 522c 8dbc 7470 f43b 07fe e43c dc1f 2dbb
00000210: 3faa a13c 9137 29bc 4901 f0bb 10ff 0dbb
00000220: c399 693c df04 bd3b 3983 0f3d ba8d b7bc
00000230: d851 e9bc 2ef9 91bc 7600 a5bc 02a1 c03c
00000240: 7062 e13c 1870 c3bb 136b d7bc bd81 bbba
00000250: 09fa cd39 cb9e 443c 2cbc ec3c 81d0 01bd
00000260: f1da 123d 213a 49bb 0253 d5bc 503a f9bc
00000270: 8f83 013d 8d89 323b f624 923c a864 75ba
00000280: 3567 0b3b d90c cc3b e4e4 c23c 1aa9 0dbd
00000290: 4185 cabc 8357 eabc 4f76 0cbd 0e7a f03c
000002a0: e77c 0abd 6df7 84bb b953 5d3c 971e 003c
000002b0: 4e58 febc 9ca8 c23c 8633 c6bc ed48 9a3c
000002c0: 6540 02bc ed2e 623b 25ad f1bc 209e 0f3c
000002d0: b0ba 933c c4bf 663c 4429 b93c 2572 d0bc
000002e0: 0e5c dabc f389 09bc 1767 81bc a858 e73c
000002f0: ff20 c0bc fd03 9bbb 7f39 40bc 2f7f a0bc
00000300: 7299 bc3b 13a0 6fbb 87c9 9dbc da68 a73c
00000310: f917 0b3d 0dca 08bd 34f0 4ebc 8617 03bd
00000320: b250 f13c 639a aa3c d52e fdbc 11b0 83bc
00000330: 65e7 4e3c 1066 6c3c 4b2a ea3c 5623 823b
00000340: 05d4 2f3c dc5a febc 1d42 ae3b ccd8 053d
00000350: 5efa 8f3c a192 fdbc c4f7 94bc 5162 d3bc
00000360: 2357 003a 5249 dc3c fcce 88bc f8a2 e63b
00000370: c0b0 0d3d 73ec 383c d38f eb3c 1f7c c1bc
00000380: 5c37 d23b 0239 d3bc 9331 d4bc 0f8c bfbc
00000390: d4bc c73c 725a d03c a4c7 953c a704 013d
000003a0: 2658 323c 6fbd ea3b 03ac 56bc 78d3 ecbc
000003b0: 85a2 5bbc 9d08 5abc 309f 693c 6a2e e9bc
000003c0: 201d 04bd 7e2f e63c 763e eebc 96d0 733c
000003d0: 9ed6 4a3b 3ed8 d4bc c5e6 ddbb 8721 903c
000003e0: bbd9 ecbc 0e7f b13c 6607 0fbd 555a b33b
000003f0: 6b2a e8ba c04a 2e3c 8127 27bc b9de 14bc

conv3.bias f4 [32]
0.028387051 0.07197855 0.049843367 0.051689412 0.08657544 -0.0191553 0.05054496 -0.029563287
0.035686746 -0.024489833 -0.011052792 0.080017485 0.04822294 -0.022027273 0.060457885 0.029065637
0.040407427 0.059651677 0.07129726 0.053865533 0.014107891 0.06447508 -0.023659319 0.06091554
0.08723272 -0.017647747 0.05233137 0.03658111 -0.020194216 0.08140157 0.0072558383 0.067399085
00000000: f68b e83c 7d69 933d 8f28 4c3d 47b8 533d
00000010: 774e b13d 93eb 9cbc 3b08 4f3d b52e f2bc
00000020: 442c 123d e79e c8bc c516 35bc 35e0 a33d
00000030: 6b85 453d 8a72 b4bc b0a2 773d 0f1b ee3c
00000040: 4282 253d 5155 743d 4c04 923d 1ba2 5c3d
00000050: c924 673c 830b 843d 30d1 c1bc 9382 793d
00000060: 11a7 b23d 0292 90bc 6b59 563d 13d6 153d
00000070: 576e a5bc deb5 a63d 62c2 ed3b 8808 8a3d

conv4.weight f4 [32, 32, 5, 5]
-0.026989883 0.0071892412 -0.031853195 0.011478393 -0.024688099 0.030784847 -0.035255924 0.032902904
0.02846305 -0.026951741 0.024647526 0.0012350936 0.006247691 0.020381432 0.0065699955 0.034346346
-0.013538939 0.020670503 0.022718411 0.030800138 -0.02939381 0.0062130885 0.013957222 0.029775249
-0.010559859 0.049066763 0.004480213 0.0406488 0.0200978 0.058398034 0.02909934 0.067485996
0.046462853 0.00795952 0.023064746 0.041980598 0.04736368 0.017543351 0.059501637 0.026272098
0.019723784 0.03172646 0.028292008 0.017930351 0.048229612 -0.016025247 0.02102832 0.0032531267
0.031322386 0.037593342 -0.0051609254 0.009958934 0.054010645 0.04497422 0.0012878956 -0.0066162325
0.06583273 0.052991726 0.039008267 0.027240807 0.00065542926 0.05830269 0.020748753 0.021032382
0.022551073 0.030212255 0.040272236 0.056003224 0.051235534 0.054551877 0.004036586 0.024729243
0.02066502 0.011981371 -0.00050181546 0.048533246 -0.0015435896 0.027383478 0.0010768742 0.01137082
0.056071762 0.06407906 0.05318472 0.06988106 0.03735511 0.036494125 0.022079298 0.01102321
0.00595108 0.051732592 0.021409772 0.0604637 0.0077557713 0.06379198 0.00034878866 0.0082928445
0.039788127 0.018039966 0.033583768 -0.015957255 0.017086955 0.0084855575 0.059982777 0.06528617
0.009268911 0.049377013 0.024194093 0.061512556 0.050992858 0.040328067 0.00012629562 0.018151438
0.006734429 0.05032519 0.045145757 0.015858566 0.04725946 0.060554758 0.023122186 0.031788785
0.009423902 0.052797418 0.025704598 -0.006909457 -0.008769064 -0.02303081 0.024830783 0.020656237
0.02564673 0.020273592 0.025465406 0.032550965 -0.007153805 0.021946544 0.018289916 0.034187887
0.033666372 0.015628096 -0.024674132 -0.012620905 0.006604716 0.02382022 -0.02685008 0.00070311007
-0.02680466 -0.0032954668 0.02571675 -0.0009948686 -0.015796574 -0.0034717564 0.014618226 0.014083347
0.027207352 0.06382911 0.037878733 0.06244625 0.03342433 0.054018967 0.03399146 0.023779117
0.003337717 0.07060181 0.07693396 0.033320837 0.020732887 -0.005132732 0.027803069 0.05691426
0.011231207 -0.00207427 -2.6688445e-05 0.036821213 0.01679081 0.029208053 0.013666327 0.024497028
-0.03248371 -0.024114842 -0.027171036 -0.00389418 0.035071258 -0.01478829 -0.03094507 0.014818898
-0.00844748 0.01353288 0.031015638 -0.024944007 -0.026259098 -0.03260292 0.020554138 -0.03114276
0.021069877 -0.03404737 0.027170544 0.00482901 0.0023206347 0.011015604 0.028604422 0.026072301
0.012243727 -0.0012309119 0.05380754 0.043779768 0.0030650822 0.008981793 0.004435219 0.07167516
0.050398856 0.05488382 0.05224988 0.045062464 0.019659672 0.010071623 0.016910931 0.019301802
0.05390135 0.0050639194 0.037265483 0.057487417 8.9261666e-05 0.008222751 0.012541792 -0.00022438561
0.031086905 -0.03394607 0.029268354 0.010370772 0.031823855 -0.020881167 -0.029210221 -0.0003915485
-0.015435747 -0.0011064822 0.008020052 0.01597254 0.033977985 -0.030997684 0.0028325657 0.005711231
0.012931183 -0.03262395 -0.022661543 0.015795404 -0.024556812 0.0011181835 -0.0012617911 0.015056698
-0.007215023 -0.01413913 -0.016443554 -0.001396176 0.0040121265 -0.00017213431 0.00917108 -0.017517641
00000000: e319 ddbc ba93 eb3b 7f78 02bd df0f 3c3c
00000010: b23e cabc 8130 fc3c 8468 10bd 32c5 063d
00000020: 582b e93c e6c9 dcbc 9ce9 c93c dde2 a13a
00000030: 6eb9 cc3b f6f6 a63c 1e49 d73b c1ae 0c3d
00000040: 6dd2 5dbc 3055 a93c f61b ba3c 9250 fc3c
00000050: 4acb f0bc 2a97 cb3b d5ac 643c 39eb f33c
00000060: 4203 2dbc 3bfa 483d c0ce 923b 5b7f 263d
00000070: 24a4 a43c c732 6f3d bd61 ee3c 1936 8a3d
00000080: d54f 3e3d a668 023c 47f2 bc3c d9f3 2b3d
00000090: 6b00 423d 13b7 8f3c fdb7 733d 9538 d73c
000000a0: c693 a13c 9bf3 013d a4c4 e73c ace2 923c
000000b0: 6a8c 453d 6147 83bc 9543 ac3c 6932 553b
000000c0: e74b 003d 7afb 193d fb1c a9bb cc2a 233c
000000d0: 443a 5d3d e336 383d 9bce a83a fbcc d8bb
000000e0: 4fd3 863d da0d 593d 22c7 1f3d 1d28 df3c
000000f0: 1dd1 2b3a cdce 6e3d 4af9 a93c 1a4c ac3c
00000100: 07bd b83c b17f f73c 80f4 243d a363 653d
00000110: 5adc 513d ca71 5f3d 5645 843b fb94 ca3c
00000120: b049 a93c 834d 443c 448c 03ba ccca 463d
00000130: 4652 caba 5153 e03c e725 8d3a ad4c 3a3c
00000140: 81ab 653d e23b 833d 39d8 593d cd1d 8f3d
00000150: ac01 193d dd7a 153d a5df b43c b29a 343c
00000160: 4701 c33b 8ee5 533d 8c63 af3c c9a8 773d
00000170: 2024 fe3b 5fa5 823d 9fdd b639 b6de 073c
00000180: e0f8 223d 8dc8 933c 228f 093d cab8 82bc
00000190: f1f9 8b3c 0207 0b3c 80b0 753d c1b4 853d
000001a0: a1dc 173c 8d3f 4a3d b132 c63c 97f4 7b3d
000001b0: e3dd 503d 0b2f 253d 396e 0439 53b2 943c
000001c0: 7cac dc3b c921 4e3d c2ea 383d d3e9 813c
000001d0: 2393 413d 4408 783d bd6a bd3c f534 023d
000001e0: b666 1a3c 1b42 583d 7392 d23c ba68 e2bb
000001f0: 1fac 0fbc 1cab bcbc ed69 cb3c 4537 a93c
00000200: 1719 d23c ce14 a63c d49c d03c 2954 053d
00000210: 776a eabb 3dc9 b33c bcd4 953c 9908 0c3d
00000220: c0e5 093d 7e06 803c 6821 cabc eac7 4ebc
00000230: 606c d83b 9f22 c33c b3f4 dbbc eb50 383a
00000240: 7295 dbbc c2f8 57bb efab d23c 4066 82ba
00000250: d167 81bc 6886 63bb 4981 6f3c d7bd 663c
00000260: f4e1 de3c d6b8 823d bb26 1b3d a4c7 7f3d
00000270: f3e7 083d fe42 5d3d a13a 0b3d 6ccc c23c
00000280: 99bd 5a3b af97 903d 8d8f 9d3d 6e7b 083d
00000290: 04d8 a93c 7a30 a8bb 43c3 e33c ed1e 693d
000002a0: 1903 383c 7af0 07bb 00e1 dfb7 d7d1 163d
000002b0: e18c 893c ba45 ef3c bbe8 5f3c fead c83c
000002c0: a40d 05bd 7d8c c5bc cb95 debc 8035 7fbb
000002d0: e1a6 0f3d 954a 72bc 8480 fdbc f7ca 723c
000002e0: 4d67 0abc 03b9 5d3c 8214 fe3c 6057 ccbc
000002f0: 521d d7bc a48a 05bd 2761 a83c 1a1f ffbc
00000300: bc9a ac3c 4175 0bbd c394 de3c ac3c 9e3b
00000310: ca15 183b cb7a 343c d253 ea3c 9495 d53c
00000320: ea99 483c 8d56 a1ba 4c65 5c3d 6a52 333d
00000330: 8cdf 483b 5f28 133c 5055 913b 6dca 923d
00000340: 086f 4e3d dbcd 603d f803 563d 6b93 383d
00000350: 520d a13c 7303 253c cb88 8a3c d01e 9e3c
00000360: a9c7 5c3d 3cef a53b b1a3 183d ed77 6b3d
00000370: fe31 bb38 b8b8 063c 177c 4d3c 0e49 6bb9
00000380: f7a9 fe3c 090b 0bbd 30c4 ef3c 2cea 293c
00000390: bb59 023d fb0e abbc 464a efbc c048 cdb9
000003a0: 37e6 7cbc 6207 91ba 8966 033c d8d8 823c
000003b0: 802c 0b3d dbee fdbc 91a2 393b 4725 bb3b
000003c0: 50dd 533c b1a0 05bd b3a4 b9bc 5d65 813c
000003d0: 5e2b c9bc 0390 923a af62 a5ba 5eb0 763c
000003e0: 006c ecbb cfa7 67bc a2b4 86bc e5ff b6ba
000003f0: 2878 833b f47e 34b9 4c42 163c 2881 8fbc

conv4.bias f4 [32]
-0.0044367663 -0.03026322 -0.009614001 0.040894203 -0.03049773 0.01448617 0.052277934 -0.032919165
-0.008240152 0.013824182 0.017244838 -0.009483923 0.035994906 0.007818091 0.037671518 -0.016048154
0.029900435 0.046971355 0.024771493 -0.035933025 0.023983046 -0.01122754 0.013406513 0.016850043
0.013066574 0.0051873573 0.032964434 0.056194358 0.02046514 0.02606505 0.0015962749 0.048107002
00000000: 4b62 91bb 93ea f7bc 0b84 1dbc ae80 273d
00000010: 60d6 f9bc 6757 6d3c 6321 563d 3fd6 06bd
00000020: b401 07bc d27e 623c 0c45 8d3c 7562 1bbc
00000030: 656f 133d 7317 003c 734d 1a3d 6b77 83bc
00000040: c2f1 f43c 0965 403d 96ed ca3c 822e 13bd
00000050: 1878 c43c b7f3 37bc fea6 5b3c 1a09 8a3c
00000060: 2f15 563c b5fa a93b b705 073d 0e2c 663d
00000070: 82a6 a73c 5f86 d53c 193a d13a d90b 453d

conv5.weight f4 [32, 32, 5, 5]
0.034226436 -0.0016774774 0.03357963 0.005024 -0.01886589 -0.0139269205 0.04217143 0.028016467
0.0081462795 -0.01255084 0.027247168 -0.020615658 0.012462846 0.045177974 -0.012525062 -0.0058836867
0.016903074 0.011985682 -0.015647447 0.038291905 0.02442157 0.01747889 0.012116674 0.04133153
0.012791218 0.029885048 0.011966218 0.017727911 -0.033512104 -0.030708171 -0.008319515 0.023417503
-0.009568987 0.025450557 -0.02276671 0.003114615 -0.006777948 0.00054793124 0.012666095 -0.027070215
-0.0032709895 0.006554624 -0.028996445 -0.00952 -0.017957097 -0.012928787 0.021661686 -0.0030200598
-0.031673066 0.0105168475 -0.006765734 -0.00992011 0.028404746 0.03296679 7.5283824e-06 -0.008644927
-0.010194561 -0.022573853 -0.0058784382 -0.0059218644 -0.026891666 0.039346263 0.008427446 -0.019453054
0.03281903 0.034536853 -0.024966987 0.021986758 -0.017952964 0.005076184 0.030705035 -0.007895258
0.03469932 -0.015070333 -0.0047174403 0.02529882 -0.017242573 0.044071116 0.025938205 0.0051758606
0.03231243 0.022512168 0.018423002 0.019562388 0.017173275 0.028749065 -0.003977123 0.03842415
0.005185923 -0.004647115 -0.0076818187 0.017125024 0.017525224 -0.018485224 -0.014422091 -0.020606969
0.0062036803 0.01637784 0.019573778 0.0043643573 0.032832686 -0.014414957 -0.002057032 0.01883587
-0.021066878 -0.0039256816 -0.007530321 0.030525161 -0.023495287 0.02432137 0.029667968 -0.023217486
0.02505427 0.017149111 0.022154786 0.019505266 -0.010515516 0.015878242 0.014692187 -0.022386901
0.017186249 -0.033553462 -0.024861053 0.034547523 0.03294131 -0.0023749925 -0.012420006 0.0077074384
0.02860211 0.022859287 0.0014094568 -0.018047044 0.03194472 0.007405724 -0.01977934 -0.0041450695
-0.01873752 0.03335669 0.019346619 0.020795077 -0.016789544 0.026823541 0.033893704 0.02096445
-0.03093753 0.03441189 0.030315852 -0.010490314 0.025232805 0.017056387 -0.012506347 0.036998715
-0.02502633 0.010835824 0.029989216 -0.007191871 -0.012608027 0.027532753 -0.0024736712 0.026118515
-0.018553426 0.0095059965 0.026056824 0.032605402 0.044490837 -7.3986375e-05 -0.010295449 -0.02517755
0.038453113 -0.0030181296 0.0094831195 0.0386829 -0.00061574054 -0.020597631 -0.0077982834 -0.025532555
0.024223108 -0.026089959 0.0061217113 0.036240626 -0.021406809 -0.03007136 -0.029210629 -0.010520151
-0.004947153 0.018802153 0.03593355 -0.0060663735 -0.021497596 -0.008600667 0.01622751 0.014581942
0.018052666 0.0032649392 0.0019807166 0.019091316 0.0031071885 0.004748512 -0.0029977753 -0.016015308
0.039096814 0.028309686 0.016564129 0.019768067 0.03234409 -0.00266655 -0.011533061 0.00902394
0.018992385 0.01247274 -0.009858488 0.0380486 -0.023394294 -0.019058025 -0.021504113 -0.014677436
-0.0025311932 0.021653047 0.04051548 0.022289427 -0.0017492065 0.01675141 -0.02573647 -0.011848158
-0.0076556974 -0.02084625 -0.010993219 0.027588334 0.037499625 0.006949381 0.044469494 -0.018325107
-0.0064014858 -0.016477365 0.01053327 0.008292494 0.03279154 0.0358156 0.038262084 -0.018165564
0.012374183 -0.012115568 -0.006321133 0.03668453 0.045043014 0.010287381 0.035005018 0.007785945
-0.014454351 -0.022045147 0.0034260927 0.012520967 -0.0085599385 -0.0305999 0.019778434 -0.016325787
00000000: 0531 0c3d cdde dbba cb8a 093d 5ea0 a43b
00000010: a48c 9abc bd2d 64bc f3bb 2c3d ca82 e53c
00000020: f977 053c 0aa2 4dbc 7435 df3c 2be2 a8bc
00000030: f730 4c3c 8a0c 393d eb35 4dbc f1cb c0bb
00000040: 5178 8a3c 985f 443c 132f 80bc f9d7 1c3d
00000050: bf0f c83c e42f 8f3c 0485 463c 404b 293d
00000060: 4292 513c 7dd1 f43c f50d 443c 203a 913c
00000070: fd43 09bd b48f fbbc 934e 08bc 10d6 bf3c
00000080: 3ec7 1cbc b07d d03c 4081 babc 921e 4c3b
00000090: 8c19 debb 0ba3 0f3a 7485 4f3c 5bc2 ddbc
000000a0: 195e 56bb 2cc8 d63b f489 edbc c6f9 1bbc
000000b0: c31a 93bc 43d3 53bc d973 b13c 32ec 45bb
000000c0: 9ebb 01bd db4e 2c3c 17b3 ddbb f587 22bc
000000d0: 12b1 e83c 2f08 073d 509c fc36 74a3 0dbc
000000e0: 1707 27bc cdec b8bc ea9f c0bb 330c c2bb
000000f0: e94b dcbc 8c29 213d 4513 0a3c 035c 9fbc
00000100: 3f6d 063d 8476 0d3d 9187 ccbc 931d b43c
00000110: 1812 93bc 1e56 a63b 2089 fb3c 1d5b 01bc
00000120: e020 0e3d 8fe9 76bc c294 9abb 793f cf3c
00000130: 4c40 8dbc ea83 343d 5c7c d43c 449a a93b
00000140: 0a5a 043d 706b b83c d6eb 963c 4d41 a03c
00000150: f8ae 8c3c 2983 eb3c 8752 82bb a462 1d3d
00000160: adee a93b d346 98bb c4b7 fbbb c749 8c3c
00000170: 0f91 8f3c 536e 97bc a24a 6cbc f2cf a8bc
00000180: 3e48 cb3b d22a 863c 3059 a03c e202 8f3b
00000190: 917b 063d b62c 6cbc 45cf 06bb af4d 9a3c
000001a0: 7294 acbc 01a3 80bb e9c0 f6bb e70f fa3c
000001b0: 3079 c0bc 9c3d c73c 3d0a f33c 9932 bebc
000001c0: 9d3e cd3c 4b7c 8c3c f47d b53c 82c9 9f3c
000001d0: 4549 2cbc 1613 823c 80b7 703c bc64 b7bc
000001e0: 2dca 8c3c 5b6f 09bd 68a9 cbbc b481 0d3d
000001f0: 78ed 063d c3a5 1bbb 487d 4bbc ae8e fc3b
00000200: f94e ea3c 6643 bb3c 86bd b83a 65d7 93bc
00000210: 77d8 023d b7ab f23b 4808 a2bc 5dd3 87bb
00000220: 6d7f 99bc 06a1 083d cd7c 9e3c 705a aa3c
00000230: 3a8a 89bc 0bbd db3c 20d4 0a3d a3bd ab3c
00000240: b470 fdbc 7bf3 0c3d f358 f83c 91df 2bbc
00000250: 07b5 ce3c d6b9 8b3c 6ce7 4cbc f78b 173d
00000260: 0504 cdbc bd88 313c f2ab f53c c9a9 ebbb
00000270: e691 4ebc 5e8c e13c 511d 22bb 7ff6 d53c
00000280: 5bfd 97bc 0abf 1b3c 1f75 d53c 3e8d 053d
00000290: 063c 363d 2229 9bb8 3eae 28bc 2641 cebc
000002a0: 0381 1d3d d0cb 45bb 165f 1b3c f671 1e3d
000002b0: a669 21ba 5dbc a8bc be88 ffbb a629 d1bc
000002c0: 8a6f c63c 9cba d5bc a398 c83b 0d71 143d
000002d0: 555d afbc 3658 f6bc 214b efbc b65c 2cbc
000002e0: ba1b a2bb f906 9a3c 0f2f 133d 6ec8 c6bb
000002f0: ba1b b0bc d0e9 0cbc 8eef 843c 19e9 6e3c
00000300: 2fe3 933c 97f8 553b e9ce 013b 6465 9c3c
00000310: f9a1 4b3b 6899 9b3b 5376 44bb 8932 83bc
00000320: fb23 203d b7e9 e73c 7fb1 873c a4f0 a13c
00000330: 3d7b 043d 49c1 2ebb 2af5 3cbc 26d9 133c
00000340: eb95 9b3c 775a 4c3c 7f85 21bc d9d8 1b3d
00000350: 64a5 bfbc 931f 9cbc 6529 b0bc a179 70bc
00000360: 60e2 25bb bb61 b13c 8ff3 253d 5198 b63c
00000370: a145 e5ba 413a 893c 4ad5 d2bc c71e 42bc
00000380: a5dc fabb c1c5 aabc e71c 34bc ee00 e23c
00000390: 3599 193d a2b7 e33b a525 363d 891e 96bc
000003a0: 8ec3 d1bb 8afb 86bc bd93 2c3c 3edd 073c
000003b0: 6c50 063d 61b3 123d b4b8 1c3d f3cf 94bc
000003c0: 16bd 4a3c 6080 46bc 8221 cfbb 8542 163d
000003d0: 067f 383d 678c 283c 6c61 0f3d 3e21 ff3b
000003e0: f1d1 6cbc 0698 b4bc 4c88 603b be24 4d3c
000003f0: fc3e 0cbc a4ac fabc 6206 a23c a8bd 85bc

conv5.bias f4 [32]
-0.022730168 0.00792769 -0.0069851615 0.056756962 -0.009589803 -0.009977068 0.06424183 -0.0143512385
0.053160977 0.0063238614 0.04364921 -0.014557302 0.0067628003 0.026143797 -0.0022988622 0.037295282
0.042186778 0.061705906 -0.033610392 -0.011589448 -0.008661364 -0.003815583 0.04505362 0.031506024
-0.009995575 0.04153045 -0.007083107 0.026141612 -0.0064985165 0.022889558 0.04985277 -0.015118888
00000000: 9e34 babc 24e3 013c c8e3 e4bb fd79 683d
00000010: 8d1e 1dbc db76 23bc 3891 833d 7521 6bbc
00000020: 53bf 593d 6538 cf3b 84c9 323d c081 6ebc
00000030: 7b9a dd3b 842b d63c 82a8 16bb f0c2 183d
00000040: 0bcc 2c3d 55bf 7c3d 0dab 09bd abe1 3dbc
00000050: 65e8 0dbc dc0e 7abb 258a 383d 760c 013d
00000060: 7bc4 23bc d51b 2a3d 6819 e8bb ef26 d63c
00000070: 82f1 d4bb e282 bb3c 6b32 4c3d 36b5 77bc

conv6.weight f4 [32, 32, 5, 5]
0.021790693 -0.015014125 0.018646616 0.021712571 -0.0055275764 -0.006239622 -0.019255955 0.03297434
0.013085358 -0.017880216 0.032803483 0.023752142 -0.0004939382 0.0020267898 0.0003024009 -0.008928275
0.018228188 0.011636758 -0.028233662 -0.013683423 0.04823622 -0.0074341553 0.011094049 0.03252077
0.027317254 0.007887465 0.008970369 0.015916448 -0.0016469067 -0.011302491 0.017474063 -0.02750989
-0.0047515747 -0.0037589949 0.013646988 -0.040174168 0.0031516738 0.030708587 -0.014628497 0.0077657513
-0.008060268 -0.03821265 -0.014144851 0.010398965 0.014069032 0.021423817 -0.03528265 0.023469908
0.0070129996 0.0042528 0.026349086 -0.002436324 -0.002422154 0.00039897597 0.03586811 0.026431343
-0.033763614 0.002805451 -0.035915546 0.008180521 0.027049895 0.015898522 -0.038852386 -0.03302885
0.018409401 0.0023558368 0.021247089 -0.009307367 -0.02187982 0.018644398 0.010707968 -0.019218959
0.03402845 0.010627099 -0.0030735019 0.022808105 -0.007493472 0.033153567 -0.0045543183 0.038733676
0.009133538 -0.022781523 -0.036356352 -0.029176451 0.025765156 -0.018151825 0.0033309977 0.011893521
-0.032336995 -0.034502402 -0.026311684 0.02314536 -0.031674936 0.0072204126 -0.026773984 0.020357419
0.028134096 -0.024185417 -0.0069108517 0.024968112 -0.0047329045 -0.0024768296 0.01567613 -0.013867324
0.0146858 0.022170551 0.027567498 0.029702554 0.041152094 0.02706821 0.009475577 0.018737035
0.011835887 -0.005246665 0.0021304023 0.01614292 0.02504839 0.015885705 0.026781118 -0.021289999
0.039013233 0.024298206 -0.015070244 -0.0037868177 -0.013048264 -0.010823323 -0.028938385 0.01101431
0.0004920768 0.024550507 0.02623891 -0.007959334 0.00080582337 -0.03843878 -0.038949825 0.015023912
-0.028278248 -0.037015807 -0.01809377 0.0055698715 0.011630788 -0.022277394 0.0064372174 0.011292607
0.006993809 0.023743792 0.029091166 0.0022634796 0.012445794 0.04075417 0.022526195 0.017170107
-0.034963127 0.030459046 -0.03117951 -0.033728167 -0.037310537 -0.01977661 0.014217539 0.017379671
0.018945338 -0.04769329 -0.021966305 -0.019124048 -0.04257866 0.027331648 -0.010825918 0.0053474405
0.007843616 0.020536028 0.042305455 -0.014123854 -0.006536505 0.009334838 -0.011648923 0.0279215
0.030137064 -0.03139394 -0.032557767 -0.024876324 0.007812269 0.023801552 -0.023708811 -0.005369073
-0.031052737 -0.021783167 -0.009123757 -0.016383978 -0.036045562 -0.023322724 0.018123996 0.012374909
0.014927977 0.028581342 -0.009530582 -0.030117765 -0.0091184545 -0.02319857 0.02364928 -0.013650134
-0.031888973 -0.0024426002 -0.0015931269 0.014883517 -0.036942095 0.015318613 -0.049545534 -0.033274207
0.0077134883 -0.035493962 -0.010922536 -0.023128819 -0.051957384 -0.00916408 -0.020066569 -0.005090059
-0.038009033 -0.007890527 -0.038892705 -0.017885447 -0.009010126 -0.015482709 0.012434 0.02796881
-0.031672575 -0.020316143 -0.0048324196 -0.003652621 0.0030306345 -0.023388872 0.017309181 -0.02646917
0.016927423 0.01728175 -0.033907767 -0.0070449896 0.020198995 -0.047336183 0.024263078 -0.033625167
-0.0054848716 0.024414515 -0.042727917 -0.019035285 -0.020229712 0.0014629399 0.029821761 0.0061041536
0.020808142 0.026650192 0.017291373 0.012396709 0.014934113 0.009852924 -2.6095287e-05 0.019326767
00000000: 6582 b23c cefd 75bc cac0 983c 90de b13c
00000010: ac20 b5bb be75 ccbb aabe 9dbc 1a10 073d
00000020: f863 563c 8879 92bc f25c 063d da93 c23c
00000030: a27b 01ba e4d3 043b 908b 9e39 e647 12bc
00000040: 4853 953c 1aa8 3e3c 484a e7bc 7030 60bc
00000050: 5893 453d 379a f3bb d0c3 353c 8034 053d
00000060: 6fc8 df3c 6d3a 013c 74f8 123c 3663 823c
00000070: 05dd d7ba 152e 39bc c425 8f3c 6c5c e1bc
00000080: 19b3 9bbb 7859 76bb 9e97 5f3c ab8d 24bd
00000090: 508c 4e3b 9390 fb3c 5dac 6fbc d877 fe3b
000000a0: 370f 04bc de84 1cbd cebf 67bc 6c60 2a3c
000000b0: cc81 663c 0081 af3c 8a84 10bd f743 c03c
000000c0: 4ecd e53b 125b 8b3b 0ada d73c bcaa 1fbb
000000d0: 00bd 1ebb a62d d139 70ea 123d 8b86 d83c
000000e0: b74b 0abd a8db 373b 2e1c 13bd 9807 063c
000000f0: be97 dd3c 9e3d 823c ae23 1fbd 4249 07bd
00000100: 50cf 963c 6264 1a3b 600e ae3c ed7d 18bc
00000110: 4f3d b3bc 23bc 983c 7970 2f3c 1471 9dbc
00000120: 6a61 0b3d 491d 2e3c ce6c 49bb 10d8 ba3c
00000130: cd8b f5bb 09cc 073d 643c 95bb 34a7 1e3d
00000140: d6a4 153c 51a0 babc 66ea 14bd 7403 efbc
00000150: 7311 d33c 23b3 94bc de4c 5a3b 0bdd 423c
00000160: cc73 04bd 6452 0dbd 9a8b d7bc 579b bd3c
00000170: 94bd 01bd 3699 ec3b 1d55 dbbc 9ac4 a63c
00000180: 7a79 e63c 7f20 c6bc 6d74 e2bb ed89 cc3c
00000190: 7b16 9bbb 4e52 22bb 3a6b 803c c633 63bc
000001a0: b69c 703c 049f b53c 3cd5 e13c c552 f33c
000001b0: 198f 283d 27be dd3c 733f 1b3c 697e 993c
000001c0: 4feb 413c 37ec abbb 389e 0b3b 283e 843c
000001d0: 4832 cd3c bd22 823c 1364 db3c 5d68 aebc
000001e0: 57cc 1f3d 080d c73c 2fe9 76bc 422c 78bb
000001f0: 63c8 55bc 4f54 31bc 3110 edbc 5d75 343c
00000200: b7fe 003a 251e c93c fcf2 d63c de67 02bc
00000210: e43d 533a fb71 1dbd da89 1fbd db26 763c
00000220: c9a7 e7bc e39d 17bd 6339 94bc 7883 b63b
00000230: 108f 3e3c 157f b6bc 4bef d23b a004 393c
00000240: 522c e53b 5782 c23c 9950 ee3c e356 143b
00000250: 72e9 4b3c d8ed 263d db88 b83c 53a8 8c3c
00000260: 7f35 0fbd 4085 f93c 2c6c ffbc 8c26 0abd
00000270: efd2 18bd 8f02 a2bc aef0 683c d05f 8e3c
00000280: 4133 9b3c 0a5a 43bd aef2 b3bc 09aa 9cbc
00000290: f666 2ebd 9fe6 df3c 315f 31bc 9539 af3b
000002a0: 8382 003c 2c3b a83c 7c48 2d3d bd67 67bc
000002b0: 2e30 d6bb 26f1 183c 20db 3ebc a1bb e43c
000002c0: 01e2 f63c ef96 00bd 4b5b 05bd 6fc9 cbbc
000002d0: 10fe ff3b 79fb c23c fb38 c2bc 0cef afbb
000002e0: 4f62 febc 9d72 b2bc cf7b 15bc b137 86bc
000002f0: 83a4 13bd 4c0f bfbc c678 943c 21c0 4a3c
00000300: 7994 743c 6b23 ea3c 2926 1cbc 88b9 f6bc
00000310: 9265 15bc ed0a bebc 23bc c13c d0a4 5fbc
00000320: 039e 02bd 0814 20bb 78d0 d0ba ffd9 733c
00000330: 9850 17bd ebfa 7a3c 42f0 4abd 894a 08bd
00000340: 6ec1 fc3b 1e62 11bd 70f4 32bc a678 bdbc
00000350: 44d1 54bd f024 16bc a562 a4bc 82ca a6bb
00000360: 5caf 1bbd 4547 01bc f54d 1fbd 8084 92bc
00000370: 359f 13bc 30ab 7dbc fab7 4b3c d91e e53c
00000380: 1abb 01bd 0a6e a6bc 4659 9ebb d060 6fbb
00000390: 9c9d 463b 059a bfbc fccb 8d3c dfd5 d8bc
000003a0: 61ab 8a3c 7592 8d3c dfe2 0abd a8d9 e6bb
000003b0: 5d78 a53c 96e3 41bd 5dc3 c63c 8bba 09bd
000003c0: 70ba b3bb f300 c83c 7803 2fbd e3ef 9bbc
000003d0: c8b8 a5bc 1ec0 bf3a c44c f43c 5a05 c83b
000003e0: d675 aa3c 8151 da3c a3a6 8d3c 911b 4b3c
000003f0: 36ae 743c 296e 213c 34e7 dab7 2b53 9e3c

conv6.bias f4 [32]
-0.0012393902 -0.010169419 0.051021013 0.0024965259 0.010508029 0.03330142 -0.022672527 -0.015827334
0.06506347 0.009872112 -0.008521334 -0.008546541 0.010447041 0.059196845 0.0510061 0.05516179
0.026724268 0.023200195 -0.03145752 -0.021066116 0.004981927 0.03350832 0.016966691 -0.014627967
0.0012426962 -0.016961426 0.06614887 0.02759997 0.07062364 -0.0075452332 0.04810543 -0.006835645
00000000: 0973 a2ba a39d 26bc 69fb 503d c19c 233b
00000010: de29 2c3c 1267 083d bcbb b9bc 53a8 81bc
00000020: ff3f 853d a4be 213c 119d 0bbc cb06 0cbc
00000030: 112a 2b3c 6478 723d c6eb 503d 54f1 613d
00000040: daec da3c 560e be3c 9ad9 00bd d992 acbc
00000050: 6f3f a33b 0540 093d bbfd 8a3c 24aa 6fbc
00000060: f7e1 a23a b0f2 8abc 0f79 873d 5519 e23c
00000070: 21a3 903d 013e f7bb 330a 453d 8cfd dfbb

conv7.weight f4 [32, 32, 5, 5]
-0.03091573 -0.011825916 0.028387055 -0.0031084814 0.0366375 -0.027900718 -0.018537067 0.0021846914
-0.021262692 -0.025181599 -0.018828386 0.008554755 0.041497014 0.02368966 0.00068217725 -0.024068752
0.027491335 -0.057480853 -0.031596687 0.010187154 0.0019267795 -0.03453283 0.028222749 0.027819159
-0.012396395 0.018591698 0.0033495463 0.0026963237 -0.023535747 -0.030240247 0.074384205 0.037771612
-0.013020568 -0.012722593 -0.019339407 0.032365475 -0.021688329 -0.024746781 -0.03339781 -0.029156504
0.047018837 0.021474572 0.007277388 -0.012005563 -0.0027645587 0.03553694 0.039895177 0.009202905
-0.0106729735 -0.0153904 0.0007676596 0.0009474528 0.031883486 0.00060301344 0.039614193 -0.039501686
0.019496249 -0.014767438 -0.013187291 -0.019525317 -0.018488469 -0.019633472 0.03475638 0.038877375
0.04699017 -0.00024791522 0.009379843 0.005427695 0.027875708 -0.0036149914 -0.034876723 0.042141676
-0.00064143096 0.053932536 -0.009163038 0.07281048 0.03707664 0.009822556 0.00097109453 -0.020984944
0.042965654 -0.01849798 0.00219486 0.005880125 0.016894164 0.007728544 0.005314261 0.019201292
-0.0122857 0.0049213753 0.05495729 0.020790372 -0.041442882 -0.04209686 -0.029248983 0.028809072
-0.0061155865 -0.00564302 -0.017301258 -0.033259083 -0.04276097 -0.015052475 0.023199536 -0.0013618441
0.029313274 0.010564592 -0.015294779 0.008245238 -0.015446291 0.013699812 0.009083834 0.0071669286
0.008571906 0.011057519 -0.006209489 0.0017921164 0.037931684 0.008204326 -0.013791223 -0.0031540592
0.02110629 0.008520906 0.02295724 -0.025482383 0.008020512 -0.018431395 -0.0051990338 0.0075241644
-0.022622395 -0.0074783154 0.045329057 -0.0032678046 -0.024620151 -0.01982257 0.00992548 0.05507098
-0.0045211897 -0.033681907 -0.0016270296 0.014181195 0.03895878 0.00285472 -0.019245539 -0.040147357
-0.03679036 -0.0063842363 0.04241586 0.021711046 -0.015201654 -0.015876127 -0.019617908 -0.046433628
-0.008865259 0.0014427309 -0.019682955 -0.028369788 -0.041028313 0.013831723 0.0028781067 -0.028646734
-0.0125230625 0.012995068 -0.027782481 0.015563047 -0.011394235 0.0040445714 0.013108471 -0.050064977
-0.010871642 -0.039484702 0.004627913 0.00644665 0.015241033 -0.047479227 0.014280913 0.007764482
-0.0041520507 0.01652599 -0.03435003 -0.03467769 0.014606858 0.02730838 -0.03490866 -0.010887834
-0.037811816 0.06547064 -0.0094311265 -0.013508229 -0.035154123 0.009627388 -0.006233856 -0.009391895
-0.0034014937 0.020949306 -0.006616636 0.06856169 0.014403376 -0.017623251 -0.016250515 0.01965871
0.03540849 -0.00641004 0.009921803 -0.04225595 -0.043450233 0.016357383 0.048201013 0.043580923
-0.016450789 0.009760075 0.036017273 0.011453792 -0.0016067708 0.016337315 0.035691682 0.050689578
0.01902965 0.010981064 0.032577515 -0.011402266 0.009847835 0.023606984 0.03662265 -0.02589067
0.010655205 -0.050798953 0.006436363 0.042186964 0.029992362 0.034562785 -0.03423472 -0.015494482
-0.031645693 -0.045077763 -0.02787335 -0.021486077 -0.045279667 0.009858285 -0.023291811 0.016850548
-0.032342713 -0.018842932 -0.0331044 0.012579319 0.0235878 0.017367117 -0.011860104 -0.022501098
0.020093009 0.037556738 -0.041715525 -0.038554203 -0.032301515 0.043813407 0.026640622 -0.020075833
00000000: fc42 fdbc 7dc1 41bc f88b e83c aab7 4bbb
00000010: 3411 163d 0c90 e4bc 0cdb 97bc 0a2d 0f3b
00000020: 192f aebc a449 cebc fd3d 9abc 3e29 0c3c
00000030: c6f8 293d d110 c23c 24d4 323a d52b c5bc
00000040: 8235 e13c 0b71 6bbd 876b 01bd 05e8 263c
00000050: fe8b fc3a 4c72 0dbd 6533 e73c 01e5 e33c
00000060: 401a 4bbc 9e4d 983c 1084 5b3b ceb4 303b
00000070: 0ace c0bc 65ba f7bc bf56 983d 68b6 1a3d
00000080: 3854 55bc 6c72 50bc ad6d 9ebc a991 043d
00000090: b9ab b1bc c3b9 cabc 24cc 08bd 9fd9 eebc
000000a0: d396 403d 71eb af3c 2877 ee3b fbb2 44bc
000000b0: 992d 35bb 2f8f 113d 2069 233d c8c7 163c
000000c0: b2dd 2ebc 0428 7cbc c43c 493a 7b5e 783a
000000d0: 4298 023d 8c13 1e3a 7e42 223d 85cc 21bd
000000e0: 99b6 9f3c 20f3 71bc 820f 58bc 8ff3 9fbc
000000f0: 2175 97bc 60d6 a0bc b55c 0e3d e23d 1f3d
00000100: c478 403d 9efa 81b9 eaad 193c ceda b13b
00000110: 995b e43c 7ee9 6cbb e5da 0ebd c09c 2c3d
00000120: b425 28ba 5de8 5c3d 9120 16bc a91d 953d
00000130: addd 173d c9ee 203c 0d91 7e3a 9ee8 abbc
00000140: c1fc 2f3d 1389 97bc a4d7 0f3b 10ae c03b
00000150: a165 8a3c ba3f fd3b 4123 ae3b 074c 9d3c
00000160: f649 49bc 7d43 a13b e51a 613d 9250 aa3c
00000170: 03c0 29bd c26d 2cbd 909b efbc 0101 ec3c
00000180: 4265 c8bb 15e9 b8bb 5ebb 8dbc ad3a 08bd
00000190: 2026 2fbd a89e 76bc f40c be3c e87f b2ba
000001a0: 6422 f03c 1c17 2d3c f496 7abc 0917 073c
000001b0: 7112 7dbc 2d75 603c 5cd4 143c 8ed8 ea3b
000001c0: 2e71 0c3c 992a 353c f878 cbbb 73e5 ea3a
000001d0: 415e 1b3d 706b 063c 95f4 61bc 55b4 4ebb
000001e0: 19e7 ac3c 459b 0b3c d210 bc3c 6ec0 d0bc
000001f0: 7768 033c 70fd 96bc a85c aabb 448d f63b
00000200: 9a52 b9bc a80c f5bb f6aa 393d aa28 56bb
00000210: 33b0 c9bc f162 a2bc 7b9e 223c 1c92 613d
00000220: 7d26 94bb 0af6 09bd 0e42 d5ba 3e58 683c
00000230: 3e93 1f3d 4116 3b3b d2a8 9dbc 8e71 24bd
00000240: 7db1 16bd db32 d1bb 41bc 2d3d 5ddb b13c
00000250: 5c10 79bc a70e 82bc bcb5 a0bc 3031 3ebd
00000260: 973f 11bc 041a bd3a 263e a1bc c267 e8bc
00000270: 4e0d 28bd 739e 623c 9e9e 3c3b 8eac eabc
00000280: 882d 4dbc 44e9 543c 1698 e3bc 26fc 7e3c
00000290: e3ae 3abc 5388 843b eac4 563c ef10 4dbd
000002a0: f91e 32bc b6ba 21bd bfa5 973b 6b3e d33b
000002b0: 87b5 793c 9479 42bd 7efa 693c 326d fe3b
000002c0: ed0d 88bb 8361 873c 9eb2 0cbd 320a 0ebd
000002d0: 9a51 6f3c d3b5 df3c 62fc 0ebd e362 32bc
000002e0: 90e0 1abd 7915 863d 0385 1abc 9e51 5dbc
000002f0: c5fd 0fbd 31bc 1d3c 6045 ccbb 76e0 19bc
00000300: 98eb 5ebb e19d ab3c 5ed0 d8bb 126a 8c3d
00000310: 23fc 6b3c a35e 90bc cd1f 85bc 4e0b a13c
00000320: 7e08 113d 500b d2bb 0f8f 223c 9314 2dbd
00000330: dff8 31bd ebff 853c 6d6e 453d e981 323d
00000340: cec3 86bc b9e8 1f3c d986 133d b0a8 3b3c
00000350: 489a d2ba d5d5 853c 7131 123d e09f 4f3d
00000360: 12e4 9b3c ece9 333c 0070 053d 92d0 3abc
00000370: d058 213c 6f63 c13c a201 163d ac18 d4bc
00000380: 2b93 2e3c 9012 50bd 20e8 d23b 3dcc 2c3d
00000390: 8bb2 f53c b591 0d3d b539 0cbd 91dc 7dbc
000003a0: ea9e 01bd 76a3 38bd a756 e4bc 9203 b0bc
000003b0: 2c77 39bd a584 213c 78ce bebc 290a 8a3c
000003c0: cb79 04bd 7e5c 9abc 7b98 07bd 7d19 4e3c
000003d0: 343b c13c 7c45 8e3c e250 42bc 3954 b8bc
000003e0: 189a a43c 18d5 193d e6dd 2abd 03eb 1dbd
000003f0: 984e 04bd b075 333d 6f3d da3c 1376 a4bc

conv7.bias f4 [32]
0.052377403 -0.027670017 -0.019535974 -0.019767657 0.035171337 -0.0004920593 0.051434327 0.041463196
0.055046905 0.038235303 0.03131239 -0.013699002 -0.035542786 0.057859093 -0.007196899 0.06461517
0.031433072 0.02636391 0.041713405 0.012497415 0.006081002 0.0011153802 0.05750263 0.054858588
-0.021149844 0.0596816 0.048521098 0.0017975189 -0.016012868 -0.018121544 -0.02690075 0.04044969
00000000: b089 563d 3bac e2bc e809 a0bc c8ef a1bc
00000010: d20f 103d 8afd 00ba cdac 523d 50d5 293d
00000020: dd78 613d 9f9c 1c3d 6c41 003d c771 60bc
00000030: 5095 11bd a8fd 6c3d f7d3 ebbb f554 843d
00000040: f7bf 003d 20f9 d73c addb 2a3d f5c1 4c3c
00000050: 2443 c73b f331 923a e187 6b3d 66b3 603d
00000060: 7042 adbc b274 743d 0fbe 463d ba9a eb3a
00000070: 6b2d 83bc a273 94bc f65e dcbc 93ae 253d
