model.pt (torch, 8763 bytes, 7 tensors)

linear1.weight f4 [24, 49]
0	0xbce59b75	-0.02802823
1	0x3c65bbde	0.014021842
2	0xbdb4c437	-0.088264875
3	0xbda289aa	-0.079364136
4	0xbc80af04	-0.015708454
5	0xbdeff127	-0.11715918
6	0x3cd470b9	0.025932657
7	0xbceef48b	-0.029169342
8	0x3da95f60	0.082701445
9	0x3dc08f71	0.09402359
10	0x3d974aa0	0.073872805
11	0xbdf97b0c	-0.121816725
12	0x3e0059bd	0.12534232
13	0x3d850c0f	0.064964406
14	0x3dd864b5	0.10566083
15	0x3e010e81	0.12603189
16	0x3dd6443c	0.104622334
17	0x3b62723c	0.0034552952
18	0xbdefa2b3	-0.11700954
19	0x3df7f5bf	0.12107419
20	0xbd9b8810	-0.07594311
21	0xbde54417	-0.11194628
22	0x3da48ab8	0.08034271
23	0xbddf1132	-0.108919516
24	0xbde64eac	-0.11245474
25	0xbc290a53	-0.010317403
26	0xbdd4b53c	-0.1038613
27	0x3d48eaf3	0.04905219
28	0xbdf6a87b	-0.12043854
29	0xbde7a043	-0.11309864
30	0x3c54165a	0.012944782
31	0x3e001eac	0.125117
32	0x3cda0220	0.026612341
33	0xbc81f72a	-0.015864927
34	0xbe0dd23a	-0.13849726
35	0x3d851678	0.06498426
36	0xbdb82a2e	-0.0899242
37	0x3e064f22	0.13116124
38	0x3d68a8be	0.05680155
39	0xbd16bb07	-0.036799457
40	0x3d295d47	0.04134872
41	0xbe035003	-0.12823491
42	0x3e0d56d7	0.13802658
43	0xbdeefa55	-0.11668841
44	0xbc9e2a23	-0.019307202
45	0x3d218986	0.039437793
46	0x3dd0a788	0.10188204
47	0x3c8c9f4c	0.017165802
48	0x3dd95279	0.106114335
49	0x3d694750	0.056952775
50	0x3dfb00e1	0.12256027
51	0x3d8cff32	0.06884612
52	0xbe040d8c	-0.12895793
53	0x3deda791	0.116042264
54	0x3daafa68	0.083485425
55	0xbd554371	-0.05206627
56	0x3de1adc9	0.11019475
57	0xbdca2c8b	-0.09871777
58	0xbe091500	-0.13386917
59	0x3cac51b7	0.021035058
60	0x3d7ce9f4	0.061746553
61	0xbd3881ea	-0.04504577
62	0x3cddb54d	0.02706399
63	0x3dab20df	0.08355879
64	0xbd965549	-0.073404856
65	0x3dbced51	0.09224952
66	0xbc9e809a	-0.019348431
67	0xbe0a5244	-0.13507944
68	0x3ca75ea6	0.020430874
69	0x3d0762c1	0.033053163
70	0xbd9bd5e6	-0.07609157
71	0x3dad0583	0.08448317
72	0xbc86089d	-0.016361529
73	0xbd860158	-0.06543225
74	0x3da6d022	0.08145167
75	0x3b2cd23b	0.0026370424
76	0x3dda5373	0.10660448
77	0xbdb0c828	-0.08631927
78	0xbd901157	-0.07034557
79	0x3d0a9184	0.03383018
80	0xbdf5e0a2	-0.12005736
81	0xbdf89870	-0.1213845
82	0xbdd8d8ca	-0.10588224
83	0x3d4ced30	0.050030887
84	0xbc5890e7	-0.013218141
85	0x3e006d27	0.12541638
86	0xbd58d9a2	-0.052941926
87	0x3de1987e	0.11015414
88	0xbd99b9ba	-0.07506128
89	0xbc8e2fc4	-0.01735676
90	0xbe065773	-0.13119297
91	0xbc0be1be	-0.008537708
92	0xbd80d0a5	-0.06289796
93	0x3de3b82d	0.11119113
94	0xbdcb6f0e	-0.099332914
95	0x3c0f64c6	0.008752054
96	0xbd9b944b	-0.07596644
97	0xbe0e231e	-0.13880584
98	0xbd40f2fc	-0.047106728
99	0xbe08e5ae	-0.13368866
100	0xbd48aec4	-0.048994794
101	0xbccbd768	-0.024882987
102	0x3cb92d05	0.022604475
103	0xbcdb3649	-0.026759284
104	0x3e1964bd	0.14979835
105	0xbbafbfb8	-0.005363431
106	0x3d53328c	0.051561877
107	0xbd1f4158	-0.038880676
108	0xbd891ffe	-0.06695555
109	0x3c697606	0.01424933
110	0xbe05d03d	-0.13067718
111	0x3e0f3fea	0.13989225
112	0x3d864b4c	0.065573305
113	0xbda9fa3c	-0.082996815
114	0xbe00769b	-0.12545244
115	0xbdbfc3c7	-0.093635134
116	0xbcecc924	-0.028904505
117	0x3bc263f0	0.0059323236
118	0x3dd0a606	0.101879165
119	0xbd1fdc20	-0.039028287
120	0x3e0e3115	0.13885911
121	0x3d8ca37a	0.06867118
122	0xbd2b1e62	-0.041777022
123	0x3cb361a5	0.021897146
124	0x3db79464	0.0896385
125	0x3e1107b9	0.14163102
126	0xbd4d15e2	-0.050069697
127	0xbcd41a49	-0.02589144
128	0xbdd9f5c4	-0.10642579
129	0xbd992471	-0.07477654
130	0xbd8e50de	-0.06949018
131	0xbb9fc0d4	-0.004875282
132	0xbdcb5d52	-0.09929909
133	0x3e143a91	0.14475466
134	0xbcd3fe77	-0.025878174
135	0x3db60ccc	0.088891596
136	0xbdb0fd40	-0.086420536
137	0x3dfbf47a	0.123024896
138	0xbdc64d42	-0.096827045
139	0x3ce1decc	0.027572058
140	0x3dd72a8c	0.10506162
141	0xbdaf5c5f	-0.0856254
142	0x3d869c59	0.0657279
143	0xbc957e2c	-0.01824864
144	0xbd6d8780	-0.05799055
145	0xbdb1ccbd	-0.08681629
146	0x3dba1d7e	0.090876564
147	0x3e150db2	0.14556006
148	0x3c775051	0.0150948325
149	0x3de49a54	0.11162248
150	0x3ddbf400	0.10739899
151	0x3dd205b0	0.10254991
152	0xbdc20e1f	-0.0947535
153	0x3e0bccdf	0.13652371
154	0xbdcaa2e1	-0.09894348
155	0xbdf9dd4f	-0.122004144
156	0x3d2c6558	0.042088836
157	0x3da7f7cf	0.082015626
158	0xbdc5b046	-0.09652762
159	0x3e14fc9c	0.14549488
160	0xbdc98c18	-0.09841174
161	0xbd9d56e6	-0.0768259
162	0x3dc1e662	0.0946777
163	0xbd844075	-0.06457607
164	0xbdd9e49c	-0.10639307
165	0x3cd606a1	0.026126208
166	0x3e08dc82	0.13365367
167	0x3d2becf3	0.04197402
168	0x3be1d557	0.006891887
169	0xbd4eed90	-0.050519526
170	0x3dc30597	0.095225506
171	0xbb9dbe58	-0.0048139505
172	0x3de33a66	0.11095123
173	0x3d1748c4	0.03693463
174	0x3d84a4b2	0.06476726
175	0xbdd5c21d	-0.10437415
176	0x3dd601d8	0.104495704
177	0x3dac912e	0.08426128
178	0x3d708fa7	0.058730748
179	0x3de0a09e	0.10968135
180	0x3e097647	0.13424025
181	0x3d7b57cb	0.061363023
182	0x3cff12f2	0.031136964
183	0x3cef389f	0.029201804
184	0xbd57238d	-0.05252414
185	0x3d1871ff	0.03721809
186	0xbd0deb53	-0.03464825
187	0x3db8bd69	0.09020502
188	0xbc4df3dd	-0.012570349
189	0xbd0f68f4	-0.0350122
190	0xbd22c6ce	-0.039740376
191	0x3e0724bb	0.13197605
192	0xbd81285c	-0.06306526
193	0xbe0a9c0b	-0.13536088
194	0xbc8976b6	-0.016780239
195	0xbdc20c53	-0.09475007
196	0xbd9b7ce2	-0.07592179
197	0x3cab4aea	0.020909745
198	0x3d36893e	0.044564478
199	0x3e3a6aa8	0.18204749
200	0x3e368674	0.17824727
201	0x3e3e1d84	0.18565947
202	0x3e21a142	0.15784171
203	0xbcf6aa89	-0.030110614
204	0xbddac31b	-0.10681745
205	0x3dfaff1e	0.12255691
206	0x3e0b8def	0.13628362
207	0x3e0003b3	0.12501411
208	0x3c0aa4fc	0.008462187
209	0x3c05b929	0.008161821
210	0x3d8b2028	0.06793243
211	0xbdcf0b7e	-0.10109614
212	0xbd249469	-0.040180597
213	0xbd9fbd79	-0.07799811
214	0x3e0060a7	0.1253687
215	0x3dee1b45	0.11626295
216	0xbdad3c00	-0.0845871
217	0x3dc9c11c	0.09851286
218	0x3da8bae4	0.082387716
219	0x3dc99e8a	0.09844692
220	0xbda4306d	-0.08017049
221	0x3d8ae1ff	0.067813866
222	0x3d839df3	0.06426611
223	0x3dc8cd15	0.09804741
224	0x3b23c746	0.0024990602
225	0xbc2d3e8a	-0.0105739925
226	0x3d4be2ae	0.049776725
227	0x3d335abb	0.0437877
228	0xbb06312a	-0.0020476081
229	0x3e07ecb8	0.13273895
230	0xbcccccf2	-0.02500007
231	0xbd5043ef	-0.050846037
232	0x3bc9837a	0.0061497064
233	0xbde720be	-0.11285542
234	0x3d9406a6	0.072278306
235	0x3cca7104	0.024712093
236	0x3dad9abf	0.08476781
237	0x3ce19e74	0.027541377
238	0x3d04b2ab	0.032396954
239	0x3db760bf	0.08954
240	0x3e021dfb	0.12706749
241	0x3d76fdc1	0.060300592
242	0xbc23a95b	-0.009989108
243	0x3dd5cd29	0.10439522
244	0xbd77a8ab	-0.06046359
245	0xbdd850bb	-0.10562273
246	0x3ddad3c2	0.10684921
247	0x3de1fd46	0.11034636
248	0xbca9195c	-0.020641975
249	0xbe079c0f	-0.13243125
250	0x3d630b61	0.055430774
251	0xbd393443	-0.045215856
252	0x3cee29cb	0.029072663
253	0xbc27eb0d	-0.010248912
254	0xbd8cb87a	-0.068711236
255	0x3d14d337	0.036334243

linear1.bias f4 [24]
0	0xbe063819	-0.13107337
1	0xbe19dd76	-0.15025887
2	0xbdc69fe9	-0.09698469
3	0xbb379060	-0.0028009638
4	0xbdb458c0	-0.0880599
5	0x3cb8d83b	0.022564044
6	0x3dcb2b76	0.09920399
7	0xbd11e6d5	-0.03562053
8	0xbe1b5090	-0.15167451
9	0xbd91a3c7	-0.07111316
10	0x3c002a53	0.007822591
11	0x3b8a5bf6	0.0042223884
12	0x3e228e28	0.15874541
13	0x3cddecf8	0.027090535
14	0x3d075191	0.033036772
15	0x3d0a16db	0.033713203
16	0xbcec7ec0	-0.028869033
17	0x3d31df67	0.043425944
18	0xbda87812	-0.082260266
19	0x3db30911	0.08741964
20	0x3d86d56b	0.06583675
21	0xbd289c97	-0.04116496
22	0xbdc32e21	-0.09530283
23	0x3da63838	0.081161916

linear2.weight f4 [12, 24]
0	0xbc57307e	-0.01313412
1	0x3d478013	0.048706125
2	0x3db0c226	0.08630781
3	0x3e48bc92	0.19603184
4	0x3e367eb1	0.17821766
5	0xbe1c2957	-0.15250145
6	0xbe024309	-0.12720884
7	0xbdbeb19d	-0.09311221
8	0xbdbc879a	-0.092055514
9	0x3d474edf	0.0486592
10	0x3dcf7ce2	0.101312414
11	0xbdea3dab	-0.114375435
12	0xbcb7d904	-0.022442348
13	0x3e3cfaba	0.1845502
14	0xbe0065a6	-0.12538776
15	0x3d0302cb	0.031985085
16	0xbd87871b	-0.06617566
17	0x3e1e83e1	0.15479995
18	0x3e43ae88	0.19109547
19	0xbdbd6b6f	-0.09249007
20	0xbc353dec	-0.011062127
21	0xbe1741c5	-0.14771183
22	0x3db99ba3	0.090628885
23	0xbd7174d9	-0.058949325
24	0xbd135914	-0.035973623
25	0xbce22f31	-0.027610393
26	0xbdfe07e9	-0.124038525
27	0x3e1788e0	0.14798307
28	0xbcfd6a05	-0.030934343
29	0x3e1bfd24	0.15233284
30	0x3cd84d55	0.026404062
31	0xbdb78cc0	-0.08962393
32	0x3e366d77	0.17815195
33	0xbdebb283	-0.11508658
34	0x3e18c3c6	0.14918432
35	0x3de4f7cb	0.11180075
36	0xbdf7b97f	-0.120959274
37	0x3db32a18	0.08748263
38	0x3e307b22	0.17234471
39	0xbba23687	-0.004950348
40	0xbdf562da	-0.11981745
41	0xbd14f68a	-0.03636793
42	0x3d847fef	0.06469714
43	0xbe069803	-0.13143925
44	0xbe34c4db	-0.1765322
45	0xbcfb70d5	-0.030693451
46	0xbe49f580	-0.19722557
47	0xbc8c431a	-0.01712184
48	0x3e33bdfe	0.17552945
49	0x3c0661c0	0.008202016
50	0xbda5dc18	-0.0809862
51	0x3d8b42bc	0.06799838
52	0xbd2f1f0b	-0.042754214
53	0x3c65bde9	0.014022329
54	0xbc17ed88	-0.00927294
55	0x3d81d5ed	0.06339631
56	0xbc71b58b	-0.014752756
57	0xbdd1875f	-0.10230898
58	0xbe38d46a	-0.1804978
59	0xbe2e817d	-0.17041583
60	0xbddf7eae	-0.10912834
61	0x3e2988d0	0.16556096
62	0x3e331cdb	0.17491476
63	0xbd89e676	-0.0673341
64	0x3db9d88f	0.090745084
65	0xbdd3235f	-0.10309481
66	0xbd8c16fb	-0.06840321
67	0x3e3c7821	0.184052
68	0x3cfeecae	0.031118717
69	0xbd9f69b9	-0.07783837
70	0xbd886504	-0.06659892
71	0x3d06b0a2	0.032883294
72	0xbdf1a1f9	-0.11798472
73	0x3dcca373	0.09992113
74	0xbdfba43a	-0.12287183
75	0x3e27126b	0.1631562
76	0x3c21130b	0.0098312
77	0xbc2cb84a	-0.010541985
78	0x3e1652d6	0.14680037
79	0xbd196840	-0.037452936
80	0x3e378282	0.17920879
81	0xbe49008c	-0.19629115
82	0x3bd2736e	0.0064224517
83	0xbe0ec1ce	-0.13941118
84	0x3d923080	0.07138157
85	0xbe5688fb	-0.20950691
86	0x3c31f710	0.010862127
87	0x3e0157b7	0.12631117
88	0x3d6f1b32	0.058375545
89	0xbe6b8980	-0.23001671
90	0x3dbae099	0.0912487
91	0x3e2963c1	0.1654196
92	0xbdc03be2	-0.09386422
93	0xbe5c3e92	-0.21508244
94	0xbd4b536a	-0.049640097
95	0xbd3080d4	-0.04309161
96	0xbdc34679	-0.09534926
97	0x3e1be992	0.15225819
98	0x3c92f0a4	0.017937012
99	0x3c0c0fdd	0.008548704
100	0xbdcd2eae	-0.10018669
101	0xbe1e5f9d	-0.15466161
102	0xbdef963a	-0.11698575
103	0xbe1a3aad	-0.15061446
104	0x3daec5e6	0.0853384
105	0xbc63d8dc	-0.013906684
106	0x3cdf8969	0.027287202
107	0xbe4d8ecb	-0.20074002
108	0xbde00bab	-0.109397255
109	0x3d376eed	0.04478352
110	0x3de9375b	0.11387511
111	0x3db33f26	0.08752279
112	0x3e19fa3e	0.15036866
113	0x3de3a983	0.11116316
114	0xbd95483b	-0.072891675
115	0x3cfd3097	0.030906959
116	0x3e145ddb	0.14488928
117	0xbda19cd2	-0.07891239
118	0xbd6cbc00	-0.05779648
119	0x3d5e6e42	0.05430437
120	0x3e207f3e	0.15673539
121	0x3e2c582d	0.16830511
122	0x3dfd606a	0.12371905
123	0xbe2a8929	-0.16653885
124	0xbd5065bd	-0.050878275
125	0xbda2d02d	-0.07949863
126	0xbd2a8e30	-0.041639507
127	0xbc9feaf6	-0.019521218
128	0xbdb805ba	-0.08985467
129	0x3e0c4102	0.13696674
130	0x3e4294f7	0.19002138
131	0x3e1267d5	0.14297421
132	0x3e3158af	0.17318986
133	0xbd8287bd	-0.06373546
134	0xbe21823c	-0.15772337
135	0x3e1ee8ef	0.15518545
136	0xbe1acbcd	-0.15116806
137	0x3b1e9fec	0.0024204208
138	0x3e1b3596	0.1515716
139	0xbe452fbc	-0.1925649
140	0x3e3547db	0.17703192
141	0x3e182032	0.14856032
142	0xbe184e4b	-0.14873616
143	0xbde60799	-0.11231918
144	0xbe4124f2	-0.1886175
145	0x3dea4a06	0.114399
146	0x3e08462e	0.13308021
147	0xbd1f579d	-0.038901914
148	0xbe06451f	-0.13112305
149	0x3e3f0e5e	0.18657824
150	0x3be5609d	0.0070000426
151	0x3bef5bb9	0.0073046354
152	0x3e1c8f38	0.15289009
153	0xbe435afd	-0.19077678
154	0x3d828134	0.063723
155	0x3d60a759	0.054847095
156	0x3e235bd6	0.15953001
157	0x3d633045	0.055465955
158	0xbd69eda6	-0.057111405
159	0x3e3a55f6	0.18196854
160	0x3e14ff4c	0.14550513
161	0xbcd1648f	-0.025560645
162	0xbdca3adb	-0.09874507
163	0xbd70a212	-0.058748312
164	0xbdf91381	-0.12161923
165	0xbd945d90	-0.07244408
166	0xbd9e605d	-0.077332236
167	0xbd28635b	-0.041110378
168	0xbc5dbb40	-0.013533413
169	0x3d875299	0.06607551
170	0xbd2a7dce	-0.041623883
171	0x3d310e98	0.04322681
172	0xbe487040	-0.1957407
173	0xbe1b3b4b	-0.15159337
174	0xbe489b44	-0.19590479
175	0x3dbf020d	0.09326563
176	0xbe3c6785	-0.18398865
177	0x3de2ebc9	0.11080129
178	0x3e183f61	0.14867927
179	0xbe525ad2	-0.20542458
180	0xbdb8d092	-0.09024157
181	0x3da0ebc5	0.078574695
182	0xbe21124a	-0.15729633
183	0x3d3a74dd	0.045521606
184	0xbce73787	-0.02822472
185	0x3d6ba9b2	0.05753488
186	0x3b94b889	0.0045386
187	0xbdc196d0	-0.09452593
188	0x3cf222b4	0.029557563
189	0xbe44f9d2	-0.19235924
190	0x3ac2d369	0.001486403
191	0xbe0d2a8a	-0.13785759
192	0xbd2fe3eb	-0.04294197
193	0xbc83cc2e	-0.016088571
194	0x3dbf9ae8	0.09355718
195	0x3e3874e3	0.18013339
196	0xbdecf97c	-0.11571023
197	0x3e2e9185	0.17047699
198	0xbd5241fc	-0.05133246
199	0xbcfa51bf	-0.030556558
200	0xbd761c01	-0.0600853
201	0x3e2560de	0.16150233
202	0xbd6c0250	-0.057619393
203	0xbddf1624	-0.10892895
204	0x3d2fe253	0.04294045
205	0xbdcdc3ef	-0.10047137
206	0x3d8490e4	0.06472948
207	0x3cc77d4c	0.024351738
208	0x3ce9e88b	0.028553268
209	0x3c92310f	0.017845659
210	0xbe1220d1	-0.14270331
211	0xbd937b88	-0.07201296
212	0x3d3e03ec	0.04639046
213	0xbe06d831	-0.13168408
214	0x3e416b84	0.1888867
215	0x39a803c6	0.00032046268
216	0x3d174474	0.036930516
217	0xbe1b03bf	-0.15138148
218	0xbc4b0820	-0.012392074
219	0x3df7c3a6	0.12097864
220	0xbe0a7661	-0.1352172
221	0x3cc40962	0.023930255
222	0xbe4f7a89	-0.20261587
223	0xbde518e1	-0.11186386
224	0xbe280c1b	-0.16410868
225	0x3db98734	0.09058991
226	0x3e0e22dd	0.13880487
227	0x3bbccc80	0.005761683
228	0x3e25f633	0.16207199
229	0xbdb1138e	-0.08646308
230	0xbe4efaf1	-0.20212914
231	0xbdc8b07e	-0.09799288
232	0x3e01156f	0.12605833
233	0xbe264e7e	-0.1624088
234	0xbe48daaf	-0.19614671
235	0x3d5bc568	0.05365506
236	0xbda1af4a	-0.07894762
237	0xbe0361c9	-0.12830271
238	0xbdfc7c83	-0.12328436
239	0x3e18fe2c	0.14940709
240	0xbdeb38d7	-0.11485451
241	0x3db5763d	0.08860443
242	0x3e012f42	0.12615684
243	0xbe1cfe38	-0.15331352
244	0x3e45f6dc	0.1933245
245	0xbe197fd2	-0.14990166
246	0xbdcba6d3	-0.099439286
247	0x3e652047	0.22375594
248	0x3ddc9fbb	0.10772654
249	0xbe26fc7a	-0.1630725
250	0xbdf70529	-0.12061531
251	0xbd5d511c	-0.05403243
252	0x3dcc3f4b	0.0997301
253	0x3d59d05c	0.053177223
254	0x3dcba543	0.099436305
255	0x3e4f9e07	0.20275126

linear2.bias f4 [12]
0	0x3e321811	0.17391993
1	0x3d5600c5	0.052246828
2	0xbdd46a67	-0.10371857
3	0x3d15935d	0.03651749
4	0xbd166fde	-0.03672778
5	0xbe31167c	-0.17293733
6	0xbdf1db37	-0.1180939
7	0x3e3c0835	0.18362506
8	0xbe4ef4a0	-0.20210505
9	0xbe209c6d	-0.15684672
10	0xbddadda2	-0.10686804
11	0x3e4c6ca1	0.19963314

linear3.weight f4 [6, 12]
0	0x3d7e3f8e	0.06207233
1	0x3e80e219	0.251725
2	0x3e134769	0.1438271
3	0x3dc8e32e	0.09808956
4	0x3e5c9e8a	0.21544853
5	0xbe92d414	-0.28677428
6	0x3e3d6c2e	0.18498299
7	0x3d7794e9	0.060444746
8	0x3e41f2ca	0.18940273
9	0xbe6f884f	-0.23391841
10	0x3e5a6bf7	0.21330248
11	0xbdb16187	-0.0866118
12	0x3e1a4929	0.15066971
13	0xbdb62b39	-0.08894963
14	0xbd7c5b92	-0.061610766
15	0xbe874514	-0.2641989
16	0xbe6a6830	-0.22891307
17	0x3cc0c6c8	0.023532286
18	0xbe745286	-0.23859605
19	0x3c992155	0.018692652
20	0xbe8948e6	-0.2681343
21	0xbe248007	-0.16064464
22	0x3cae6b91	0.021291526
23	0x3df6c39d	0.12049029
24	0x3e3e0f2b	0.18560474
25	0xbdd0a3d0	-0.10187495
26	0xbccbce75	-0.02487872
27	0x3d2e1ae8	0.04250613
28	0xbe518e65	-0.20464475
29	0x3e16cf06	0.1472741
30	0x3e89f272	0.26942784
31	0x3c4f5cc2	0.0126563925
32	0xbd5b0bc6	-0.053478025
33	0x3e8b903f	0.2725849
34	0x3e244a83	0.16044049
35	0x3e37b491	0.17939974
36	0xbe7508da	-0.23929158
37	0xbc03fc92	-0.008055823
38	0x3e1c9329	0.15290512
39	0xbe700f62	-0.23443368
40	0x3e178273	0.14795856
41	0xbdd21e14	-0.10259643
42	0xbe767f2d	-0.24071951
43	0xbc4f27c0	-0.0126437545
44	0x3cef6d30	0.02922687
45	0x3d37f0c8	0.04490736
46	0xbb8e2940	-0.0043384135
47	0xbe19d1c0	-0.1502142
48	0xbdc1f010	-0.094696164
49	0xbdb34bb0	-0.087546706
50	0xbe852600	-0.26005554
51	0x3e1bcf5c	0.1521582
52	0xbe839283	-0.25697717
53	0xbe2aa574	-0.16664678
54	0x3e730628	0.23732817
55	0xbe168504	-0.14699179
56	0x3e28c1d4	0.1648019
57	0x3e854ada	0.2603367
58	0xbe294c9e	-0.16533133
59	0xbe8de7a2	-0.27715784
60	0xbe8a3f06	-0.27001208
61	0xbe17ef48	-0.14837372
62	0x3d6f614f	0.05844241
63	0x3e877498	0.2645614
64	0x3dc22a2b	0.09480699
65	0x3e790595	0.24318536
66	0x3c8d11b9	0.017220365
67	0xbe0e7629	-0.13912262
68	0x3e275009	0.16339125
69	0x3e7ce9ed	0.2469861
70	0xbd859131	-0.06521834
71	0x3d9c62d0	0.076360345

linear3.bias f4 [6]
0	0x3bce92f7	0.0063041407
1	0x3e6065db	0.21913855
2	0x3e28fcc2	0.1650267
3	0xbd820184	-0.06347945
4	0xbd86a38e	-0.06574164
5	0xbc9531cd	-0.018212223

linear4.weight f4 [1, 6]
0	0xbd3535d0	-0.044240773
1	0x3edc2245	0.42994896
2	0x3ed5dfe8	0.4177239
3	0x3e82ccff	0.25547025
4	0xbe3aad78	-0.18230236
5	0xbebe117f	-0.37122723
