model_10000.pt (torch, 915363 bytes, 22 tensors)

conv1.weight f4 [32, 1, 5, 5]
-0.18545112 -0.18908773 0.17302342 0.06775846 -0.105022654 -0.16075976 -0.007445269 -0.0347904
0.17395926 0.049719427 -0.15904869 0.19754103 0.0040194476 -0.18724893 -0.07405926 0.07196524
0.019838544 -0.1521239 -0.1654955 0.00048507255 -0.15734401 -0.069567725 -0.117358536 0.1325972
-0.040441982 0.16932952 -0.16331914 -0.059519894 0.15535271 0.12565893 0.041452024 0.15599605
-0.08363553 0.04947151 -0.1816826 -0.18680091 -0.1887552 0.018008482 -0.12557581 -0.066699274
-0.08630105 -0.19222528 -0.18460083 -0.16561559 -0.10637382 -0.09047687 0.010316882 0.19867313
0.15766668 -0.07932603 -0.03736509 -0.14245638 0.1790291 -0.1348568 0.13197833 0.051621284
-0.10727918 0.031140134 0.14802995 0.04491121 -0.14586924 -0.15766264 -0.13763115 -0.04597905
0.09583664 0.13067542 0.15574518 0.085994214 0.08040167 -0.17096952 -0.0109426165 -0.049357872
0.007863425 -0.16346465 0.16363083 -0.09722245 0.18009317 0.16056003 0.088073075 -0.13291235
-0.038446873 -0.00074728567 -0.1836126 0.16077948 -0.07369327 0.073710255 -0.18995363 0.06433926
0.10182262 -0.15238564 -0.09821495 0.07903424 0.12530003 -0.18587792 0.09687593 -0.0842366
-0.15157929 0.08332289 -0.17815574 0.17937161 0.13335362 0.18893102 -0.108663596 -0.025440605
0.05545471 -0.05303811 -0.006458392 -0.09734308 0.022946436 -0.013067951 -0.19403376 -0.11058127
0.15143502 0.0036420817 0.112566404 -0.061822012 0.06915979 0.086841136 0.033801384 -0.06064467
-0.13301674 -0.11643369 0.13105322 -0.06834912 0.037303876 -0.1639269 0.10234827 -0.09389872
0.017699152 -0.05841801 0.13115543 0.15219097 0.018490236 0.17239834 0.018793643 -0.19575416
-0.19469433 -0.1970376 -0.082570456 -0.10911286 -0.020807931 -0.094723254 0.11677591 0.07946171
0.09564728 -0.16548236 -0.0023055738 -0.0030323223 0.03724589 -0.09471575 0.114314586 -0.18317059
-0.07398926 -0.071280174 -0.0038477525 0.095846884 0.16940843 0.035454232 -0.09104791 -0.19023241
-0.18019933 0.14403787 0.006740847 -0.17907397 -0.10413064 -0.18140638 0.010374869 0.0015109825
0.18631633 0.18274468 0.07125266 -0.08165984 0.020080108 -0.12825033 -0.015503738 -0.14592974
-0.004940451 0.045883186 0.039512813 0.13467517 0.15425637 0.1707947 -0.08697427 0.054963272
-0.008435426 -0.00125654 0.13265248 0.16990003 0.15196337 0.121898204 0.05214791 -0.16411865
0.03705953 0.14953637 -0.04439539 0.098223485 -0.06212959 0.07208736 -0.123068705 0.11118956
-0.0114423875 -0.113343425 -0.111212984 0.052323 -0.10674521 0.09564201 0.062105745 -0.09140386
-0.17785716 -0.17609738 0.11905255 0.02018692 -0.032643266 0.12062869 0.09410025 -0.17038594
-0.026571237 -0.16703568 0.08862907 0.08571136 0.18402162 0.06791451 0.12374416 0.17586054
0.16602816 0.123510726 -0.13965847 0.07214123 -0.07578106 -0.02954761 0.12693052 0.034602486
-0.12991586 0.090707436 0.17578551 -0.10997955 -0.04027869 -0.13946483 0.199663 -0.14626636
-0.07353353 -0.18939862 -0.051260658 0.1503856 -0.039233647 0.18340416 0.07584305 0.032933746
0.12225159 0.03477355 0.13506316 -0.18451875 0.16531971 -0.051622722 -0.17740801 0.12331077
00000000: e6e6 3dbe 37a0 41be 0d2d 313e f3c4 8a3d
00000010: 1e16 d7bd 359e 24be 71f7 f3bb 6180 0ebd
00000020: 6022 323e 99a6 4b3d a9dd 22be 3248 4a3e
00000030: 92b5 833b 2fbe 3fbe 62ac 97bd 8362 933d
00000040: 7184 a23c 5ec6 1bbe a777 29be 5651 fe39
00000050: ca1e 21be 8679 8ebd ac59 f0bd 8fc7 073e
00000060: 7ea6 25bd b864 2d3e 223d 27be 22cb 73bd
00000070: c814 1f3e bcac 003e 99c9 293d 6ebd 1f3e
00000080: 1b49 abbd a3a2 4a3d 010b 3abe bd48 3fbe
00000090: 0b49 41be 8686 933c f296 00be a199 88bd
000000a0: 9bbe b0bd b4d6 44be 0008 3dbe 2297 29be
000000b0: 84da d9bd f04b b9bd 2408 293c f870 4b3e
000000c0: 6073 213e b075 a2bd 230c 19bd 16e0 11be
000000d0: 6853 373e e717 0abe 5425 073e d770 533d
000000e0: 30b5 dbbd 9819 ff3c 2a95 173e d1f4 373d
000000f0: bf5e 15be 5172 21be 2eef 0cbe 8754 3cbd
00000100: 0046 c43d c7cf 053e aa7b 1f3e bc1d b03d
00000110: a1a9 a43d a212 2fbe a948 33bc 7b2b 4abd
00000120: 98d5 003c 4763 27be d78e 273e 901c c7bd
00000130: 586a 383e d969 243e a85f b43d 2d1a 08be
00000140: 787a 1dbd 7ee5 43ba f104 3cbe 60a3 243e
00000150: 7fec 96bd 67f5 963d 3483 42be 4dc4 833d
00000160: 6188 d03d fb0a 1cbe eb24 c9bd b4dc a13d
00000170: a74e 003e c856 3ebe e366 c63d 3d84 acbd
00000180: 9a37 1bbe 31a5 aa3d 756e 36be 31ad 373e
00000190: da8d 083e 2277 413e 058b debd d168 d0bc
000001a0: 7a24 633d 7d3e 59bd eba0 d3bb cf5b c7bd
000001b0: 2afa bb3c f61a 56bc c9b0 46be 6f78 e2bd
000001c0: c811 1b3e feaf 6e3b 3789 e63d 1439 7dbd
000001d0: a6a3 8d3d c4d9 b13d 5273 0a3d 8c66 78bd
000001e0: 8a35 08be c974 eebd d132 063e a0fa 8bbd
000001f0: f3cb 183d 74dc 27be f89b d13d f94d c0bd
00000200: d0fd 903c b947 6fbd 9c4d 063e f3d7 1b3e
00000210: d678 973c 3189 303e 20f5 993c c773 48be
00000220: f35d 47be 3ac4 49be b31a a9bd 9076 dfbd
00000230: 6575 aabc 44fe c1bd 3528 ef3d d2bc a23d
00000240: b9e2 c33d 3574 29be 1c19 17bb edb9 46bb
00000250: 258f 183d 55fa c1bd c41d ea3d 1291 3bbe
00000260: ae87 97bd 57fb 91bd 932a 7cbb 5f4b c43d
00000270: 6779 2d3e 7538 113d 5477 babd 49cc 42be
00000280: 2c86 38be aa7e 133e 53e2 dc3b 2b5f 37be
00000290: 7242 d5bd 98c2 39be 5bfb 293c 290c c63a
000002a0: b5c9 3e3e 6c21 3b3e eaec 913d 463d a7bd
000002b0: 0a7f a43c 0e54 03be 6403 7ebc 9b6e 15be
000002c0: 82e3 a1bb 02f0 3b3d 30d8 213d 4ae8 093e
000002d0: 62f5 1d3e cee4 2e3e 911f b2bd 2b21 613d
000002e0: be34 0abc 7cb2 a4ba 0dd6 073e 46fa 2d3e
000002f0: 499c 1b3e c4a5 f93d 0c99 553d b80e 28be
00000300: bccb 173d 1020 193e f1d7 35bd 6529 c93d
00000310: 997b 7ebd 8aa2 933d 720b fcbd 5ab7 e33d
00000320: da78 3bbc 9920 e8bd a2c3 e3bd a450 563d
00000330: 3c9d dabd f5df c33d 9862 7e3d f231 bbbd
00000340: 3020 36be df52 34be d3d1 f33d 0a5f a53c
00000350: f2b4 05bd 2d0c f73d a2b7 c03d a779 2ebe
00000360: ecab d9bc 670b 2bbe 2883 b53d 7089 af3d
00000370: 2a70 3c3e c316 8b3d 946d fd3d c914 343e
00000380: 4903 2a3e 31f3 fc3d a102 0fbe c8be 933d
00000390: 1a33 9bbd d40d f2bc 13fa 013e 56bb 0d3d
000003a0: aa08 05be d2c4 b93d 1e01 343e f53c e1bd
000003b0: 45fb 24bd decf 0ebe 7574 4c3e d9c6 15be
000003c0: bf98 96bd b6f1 41be b2f6 51bd affe 193e
000003d0: 76b3 20bd 4dce 3b3e 9a53 9b3d 89e5 063d
000003e0: 0b5f fa3d b66e 0e3d ff4d 0a3e 7cf2 3cbe
000003f0: 9249 293e 5972 53bd 72aa 35be 5b8a fc3d

conv1.bias f4 [32]
-0.026183242 0.19332963 -0.09902514 0.17893106 -0.17968628 -0.13100898 -0.19682972 0.008066513
-0.020854235 -0.09538644 0.13674858 0.179025 0.10776827 0.014248719 -0.12142536 0.115139544
-0.05138988 -0.03525599 0.101167396 -0.1607874 0.085702255 0.16751905 0.19281389 0.18311134
-0.14113885 0.16152577 -0.026405232 0.06604437 0.09513193 -0.021290354 -0.04806126 0.06355236
00000000: 3d7e d6bc 34f8 453e b1cd cabd b439 373e
00000010: aeff 37be 3827 06be bb8d 49be 6829 043c
00000020: 80d6 aabc f759 c3bd d207 0c3e 5452 373e
00000030: 9cb5 dc3d 7673 693c dcad f8bd 48ce eb3d
00000040: 327e 52bd 9668 10bd da30 cf3d 74a5 24be
00000050: aa84 af3d 1d8a 2b3e 0171 453e 8a81 3b3e
00000060: b486 10be 0367 253e c94f d8bc 4542 873d
00000070: 88d4 c23d 1c69 aebc e2db 44bd bd27 823d

conv2.weight f4 [32, 32, 5, 5]
-0.034497242 -0.0313225 -0.017331425 -0.0029013907 -0.024523823 0.020587623 0.00017631208 0.006299525
0.020550216 -0.02949754 -0.003335703 -0.028872248 0.009877864 -0.022427004 0.033081226 -0.030234786
0.022394255 0.016099757 0.017926857 0.027076717 0.0075489054 -0.02496625 0.0281957 -0.014810555
-0.001092522 0.033247154 0.02689186 -0.007804781 0.026101481 -0.034250837 0.019534899 -0.031776078
0.017528381 -0.01803704 0.00705633 -0.01537073 0.033006426 -0.027884629 0.010210941 -0.028688842
0.00943815 -0.023194976 0.013076163 -0.014028795 -0.026373332 0.020829652 0.034188177 0.0016663836
0.033449475 0.028882662 0.001547854 -0.0028584318 0.0007767977 -0.010688437 0.0017528422 -0.017491989
0.02377073 0.018795643 0.0062724645 -0.014402821 0.02649172 0.019990282 0.00068086584 -0.007350115
0.002529238 -0.0041921474 0.0052941036 -0.004448884 0.032813292 0.0025361567 -0.016263906 -0.011085844
0.029588716 -0.021088978 0.027302356 0.024241136 -0.007843797 0.006499805 -0.033110183 -0.004703585
0.013754676 0.022291478 0.015576533 0.008532193 -0.03229793 0.007544146 -0.006292388 -0.007814098
-0.0121848555 -0.00051166135 -0.029890787 -0.015335302 0.0023064625 -0.031205399 0.030256137 -0.00523194
-0.0034654757 -0.010897878 -0.030130424 0.011912921 -0.022304313 -0.027322214 0.020878004 0.012804569
0.034730114 -0.02486459 -0.02501008 0.0011879618 -0.025621243 0.01428439 -0.02986118 0.0101642
0.031177517 0.019613307 0.018873947 -0.004697959 0.0093543865 -0.032044694 0.022747563 0.0045637637
0.023548312 0.028285744 0.0107417 0.023354078 -0.017952539 0.015089504 0.021095578 -0.03296948
-3.9518014e-05 -0.018918995 0.0012676682 -0.025035033 -0.0074191843 -0.018740617 0.0014528292 0.017961819
-0.004880676 0.0079788035 -0.025239326 -0.029283404 -0.03428767 0.025312115 -0.014483639 -0.030668687
0.018887943 0.02625291 -0.02082228 -0.004607502 -0.0049448363 -0.013184576 0.030591233 -0.0030813438
-0.02250752 -0.030991284 -0.012567003 0.013837985 -0.024041533 -0.015293046 -0.03189684 0.011608738
0.029385777 -0.014704026 -0.008186664 -0.02764149 0.02966556 0.0056286287 0.023619747 0.017950557
0.02009863 0.004225713 1.7332364e-05 0.01227851 0.019235888 0.01746097 0.029814698 0.0058132284
0.03423452 -0.026206432 -0.03508761 -0.02102002 -0.03011438 -0.011191966 0.012424967 -0.022962544
0.014218423 0.03016803 -0.02031864 -0.030538416 0.015707165 0.015398771 -0.023197325 -0.030996047
0.026802683 -0.018060764 -0.004540324 -0.02587226 0.016197624 -0.0070597273 0.0054925024 0.010731824
0.0104899015 -0.02729221 -0.010931757 0.0084728645 -0.01143531 0.0087465895 0.0020862112 0.028747639
0.0030862219 0.028235711 -0.011809786 0.008959042 0.021457298 0.008995036 0.012882772 0.009589908
-0.03481072 0.00750868 0.035130635 -0.029200861 -0.0026188164 0.032237276 -0.025269432 -0.022495756
-0.016943464 -0.0064052003 0.0020692693 -0.033738747 0.031691927 -0.017196817 -0.01672907 -0.002997208
0.025077902 0.013845764 -0.014995389 0.023564536 0.027668165 0.0020276455 -0.0027122959 -0.0013455501
-0.008124405 0.033361983 0.0038952178 -0.029959843 -0.011514314 -0.0070593003 0.021977745 0.005381535
-0.004161112 0.034514677 0.022661105 0.029573541 -0.014417421 -0.030006634 -0.008565381 -0.033652868
00000000: fb4c 0dbd 064c 00bd a2fa 8dbc 4225 3ebb
00000010: 2fe6 c8bc 60a7 a83c 6ae0 3839 3f6c ce3b
00000020: ed58 a83c d3a4 f1bc cf9b 5abb 7e85 ecbc
00000030: c4d6 213c d6b8 b7bc 2e80 073d f1ae f7bc
00000040: 2874 b73c a3e3 833c 58db 923c fecf dd3c
00000050: cf5c f73b 0586 ccbc abfa e63c f8a7 72bc
00000060: f532 8fba 2b2e 083d 514c dc3c 40bf ffbb
00000070: c6d2 d53c 9b4a 0cbd a707 a03c a227 02bd
00000080: ae97 8f3c 6ac2 93bc c938 e73b 84d5 7bbc
00000090: bf31 073d 4e6e e4bc ca4b 273c dd04 ebbc
000000a0: 78a2 1a3c 6403 bebc 673d 563c 08d9 65bc
000000b0: e30c d8bc f2a2 aa3c e708 0c3d 8e6a da3a
000000c0: 5102 093d 559b ec3c 5de1 ca3a 8754 3bbb
000000d0: 03a2 4b3a 8e1e 2fbc a0bf e53a 5c4b 8fbc
000000e0: d5ba c23c 52f9 993c 3f89 cd3b cff9 6bbc
000000f0: 2a05 d93c a9c2 a33c 227c 323a 3cd9 f0bb
00000100: 92c1 253b 485e 89bb 297a ad3b f2c7 91bb
00000110: 3b67 063d a635 263b e23b 85bc 66a1 35bc
00000120: 0964 f23c cbc2 acbc 31a9 df3c 5995 c63c
00000130: 4583 00bc 51fc d43b 8b9e 07bd 8820 9abb
00000140: 4b5b 613c 9e9c b63c b734 7f3c 9cca 0b3c
00000150: d64a 04bd e234 f73b 6030 cebb b406 00bc
00000160: fda2 47bc 0321 06ba 86dd f4bc eb40 7bbc
00000170: 0528 173b 77a2 ffbc b8db f73c b270 abbb
00000180: 091d 63bb 038d 32bc 14d4 f6bc 6a2e 433c
00000190: 89b7 b6bc d6d2 dfbc 5908 ab3c 41ca 513c
000001a0: 2a41 0e3d d3b0 cbbc f0e1 ccbc 62b5 9b3a
000001b0: a4e3 d1bc 1309 6a3c 6f9f f4bc bf87 263c
000001c0: fe67 ff3c 16ac a03c 899d 9a3c 56f1 99bb
000001d0: 2443 193c 4c41 03bd 1959 ba3c a08b 953b
000001e0: 64e8 c03c 81b7 e73c f5fd 2f3c 0d51 bf3c
000001f0: 3411 93bc f839 773c a2d0 ac3c 010b 07bd
00000200: 25c0 25b8 02fc 9abc e327 a63a 4516 cdbc
00000210: a11c f3bb ec85 99bc dc6c be3a aa24 933c
00000220: 14ee 9fbb 87b9 023c b4c2 cebc c0e3 efbc
00000230: 3a71 0cbd 5a5b cf3c c94c 6dbc e63c fbbc
00000240: e3ba 9a3c 5810 d73c 7c93 aabc 87fa 96bb
00000250: 4b08 a2bb 1f04 58bc 779a fa3c 5ff0 49bb
00000260: b161 b8bc 6fe1 fdbc d5e5 4dbc b7b8 623c
00000270: c0f2 c4bc af8f 7abc 43a6 02bd 9432 3e3c
00000280: 71ba f03c 28e9 70bc 5c21 06bc 6870 e2bc
00000290: 3005 f33c 5c70 b83b 337e c13c 0c0d 933c
000002a0: e2a5 a43c da77 8a3b f864 9137 ce2b 493c
000002b0: 9594 9d3c 4f0a 8f3c f43d f43c e57c be3b
000002c0: 7f39 0c3d dfae d6bc 07b8 0fbd 2d32 acbc
000002d0: 6fb2 f6bc 825e 37bc 1792 4b3c f21b bcbc
000002e0: 63f4 683c f222 f73c 4773 a6bc b32b fabc
000002f0: 50ac 803c 204b 7c3c 5108 bebc 6ceb fdbc
00000300: 4d91 db3c 2bf4 93bc 00c7 94bb 10f2 d3bc
00000310: e1b0 843c 4955 e7bb 73fa b33b 88d4 2f3c
00000320: d6dd 2b3c ea93 dfbc 1d1b 33bc c5d1 0a3c
00000330: 2b5b 3bbc db4d 0f3c d1b8 083b 2b80 eb3c
00000340: 3642 4a3b 944e e73c d57d 41bc f2c8 123c
00000350: 37c7 af3c ea5f 133c 4312 533c fd1e 1d3c
00000360: af95 0ebd 600b f63b 24e5 0f3d a536 efbc
00000370: 73a0 2bbb 3c0b 043d d701 cfbc 0549 b8bc
00000380: 05cd 8abc b7e2 d1bb 949c 073b a431 0abd
00000390: 65cf 013d 57e0 8cbc 670b 89bc ce6c 44bb
000003a0: 2c70 cd3c 58d9 623c 38af 75bc 6a0a c13c
000003b0: 59a8 e23c 3fe2 043b c6c0 31bb 2b5d b0ba
000003c0: 391c 05bc 93a6 083d e946 7f3b 586e f5bc
000003d0: 89a6 3cbc b451 e7bb ac0a b43c 9657 b03b
000003e0: f059 88bb 435f 0d3d c8a3 b93c 3644 f23c
000003f0: 0c37 6cbc 79d0 f5bc d055 0cbc 97d7 09bd

conv2.bias f4 [32]
-0.007122201 0.008544146 -0.03108994 0.013522089 -0.007274316 0.0081397435 0.019345934 -0.012823949
0.016724559 0.021977348 0.0062239543 -0.0149184875 0.010547517 -0.017752139 -0.020095201 -0.030307053
0.01812026 0.021563288 0.018542837 0.02917778 -0.023459129 -0.032886036 -0.0075795627 0.007878987
-0.033680674 -0.026162924 0.0047141593 0.03339722 0.009172768 0.02525621 0.0072533623 0.023796042
00000000: 5a61 e9bb bffc 0b3c 54b0 febc c18b 5d3c
00000010: 635d eebb 8f5c 053c 5d7b 9e3c 8a1b 52bc
00000020: f101 893c d709 b43c 50f2 cb3b ac6c 74bc
00000030: 7ecf 2c3c ef6c 91bc b19e a4bc 7f46 f8bc
00000040: f170 943c 7ea5 b03c 26e7 973c 3d06 ef3c
00000050: 5c2d c0bc 82b3 06bd fb5d f8bb de16 013c
00000060: bff4 09bd a153 d6bc 3c79 9a3b 86cb 083d
00000070: 6149 163c 1ce6 ce3c 9dad ed3b ebef c23c

conv3.weight f4 [32, 32, 5, 5]
0.0056561287 -0.009371385 -0.025391549 0.015479631 -0.0136921 0.011838252 -0.016350156 0.02396341
0.013575801 0.015807716 -0.01597607 0.022710321 -0.011807869 0.023075948 0.028026475 -0.0022361781
0.008728207 0.022603292 -0.025057342 0.0024253526 -0.0019211314 -0.021844868 -0.013066837 -0.008778913
0.016189525 -0.03331193 0.0048742085 0.00728089 -0.024765326 -0.00784573 -0.0047220457 0.014627379
-0.0009872456 -0.023563689 0.008552612 -0.026227975 -0.00296396 0.0073723863 -0.00821908 0.00900714
0.010113702 0.02416603 -0.0068731266 -0.009095833 -0.03136004 -0.01719182 -0.002480214 0.026273077
0.023363153 0.026215304 0.007825789 -0.011592035 -0.029439261 0.025203006 -0.0125528695 0.02152764
0.027448263 0.029673241 0.008765178 0.0030958026 0.02227989 -0.008841174 -0.024018135 0.0057509555
-0.013202829 -0.010835797 0.01066539 -6.907341e-05 -0.008845356 -0.00018656303 -0.013735594 -0.026133502
-0.013382804 0.005212554 0.020544464 -0.035020024 0.008264883 0.017829724 0.0024752861 0.02385359
-0.03035357 -0.0314904 0.018979676 -0.0031885928 0.00808827 0.033606064 0.002917881 -0.022558615
0.02800866 0.013647329 0.016054513 0.0030954066 -0.012195893 -0.020599896 -0.03461956 0.03038327
0.0034688734 -0.00869662 0.005703214 0.028694974 -0.00656472 -0.011523414 -0.023954744 0.027863272
0.0005744844 -0.0006600629 -0.033217974 -0.024312025 0.023335187 0.007079343 0.020697035 0.02711772
0.006836089 -0.022417292 0.017592529 0.018947449 -0.029386424 -0.030454818 0.027386606 -0.020642946
-0.018728 -0.011127733 0.024310265 -0.02931029 -0.022782227 -0.013658049 0.016381782 -0.00058560114
0.023470555 -0.0082169175 0.033516344 0.03419449 0.03295965 0.013021946 -0.005657585 0.019331936
0.019975796 -0.015909446 0.017916905 -0.012204418 0.029835658 -0.026588589 -0.008685013 -0.014408971
-0.006404442 -0.0022731093 -0.032989085 -0.017661322 0.030676417 0.008741278 -0.025107369 -0.0075793257
-0.027562734 0.025601905 -0.024453253 -0.011191049 0.02379658 4.7241238e-06 0.02489404 0.017358173
-0.031402443 0.033497393 0.01856089 -0.031272434 0.0077571273 -0.024230793 -0.028351722 -0.011939653
-0.03296095 0.01699407 0.0060812403 -0.020943638 -0.023760969 -0.024669612 0.031682998 -0.019004107
-0.028376706 0.025897972 -0.014935402 0.020472147 -0.02373992 -0.027041232 0.0021511822 0.031142442
-0.026820501 0.03142646 0.010946639 0.02542318 0.006654374 0.0154685415 -0.020939654 -0.024600858
0.02904354 -0.023827124 0.005468626 -0.008235344 0.021978023 -0.0220905 0.003063823 -0.00039479882
-0.008247512 0.00600726 0.015789447 -0.025593596 -0.031659283 0.023831349 0.005098452 -0.033266254
-0.013045085 -0.013445785 -0.004251329 -0.014551652 0.005800844 -0.027428856 -0.017749503 0.02394304
0.03124609 -0.020457081 0.03127223 -0.012474892 0.01229584 -0.020077778 -0.007529071 -0.031946506
-0.033641875 -0.0008132233 -0.009640851 -0.0017537425 -0.013514773 -0.00606652 -0.028609088 -0.009447142
-0.033810243 -0.009038737 -0.023299925 -0.007239537 -0.016219106 -0.006374302 -0.010405447 0.014455324
-0.010757507 0.024969509 -0.0002622778 0.022397343 -0.030126752 -0.034137886 0.03284443 0.00084419723
-0.010866176 0.012457578 -0.006661814 0.031356867 -0.026257778 0.02730397 -0.024974324 0.024006663
00000000: 0c57 b93b 708a 19bc f001 d0bc 479e 7d3c
00000010: d454 60bc 3af5 413c c3f0 85bc ea4e c43c
00000020: 096d 5e3c 2f7f 813c 3fe0 82bc ff0a ba3c
00000030: cb75 41bc c509 bd3c c797 e53c d88c 12bb
00000040: c100 0f3c 8a2a b93c 0e45 cdbc aaf2 1e3b
00000050: 79ce fbba 02f4 b2bc 4916 56bc 6ed5 0fbc
00000060: e59f 843c 1772 08bd d3b7 9f3b 8894 ee3b
00000070: a7e0 cabc 608b 00bc 64bb 9abb ada7 6f3c
00000080: 7766 81ba a308 c1bc 4120 0c3c 0ddc d6bc
00000090: ff3e 42bb 0f94 f13b 52a9 06bc af92 133c
000000a0: f1b3 253c d7f7 c53c f737 e1bb b006 15bc
000000b0: 6373 00bd dcd5 8cbc 168b 22bb a33a d73c
000000c0: 1564 bf3c 7ac1 d63c bd37 003c 85ec 3dbc
000000d0: 9b2a f1bc 8976 ce3c 8daa 4dbc bc5a b03c
000000e0: 2edb e03c 4c15 f33c d29b 0f3c f3e2 4a3b
000000f0: 5184 b63c 92da 10bc aec1 c4bc 8372 bc3b
00000100: ae50 58bc a088 31bc e3bd 2e3c 81db 90b8
00000110: 1dec 10bc 22a0 43b9 420b 61bc ed15 d6bc
00000120: 8c43 5bbc 12ce aa3b dd4c a83c 2871 0fbd
00000130: 6f69 073c a40f 923c 6938 223b 9b68 c33c
00000140: 0da8 f8bc 14fc 00bd 447b 9b3c b6f7 50bb
00000150: aa84 043c 83a6 093d eb39 3f3b d8cc b8bc
00000160: 6b72 e53c 0c99 5f3c c184 833c 4edc 4a3b
00000170: 48d1 47bc 1dc1 a8bc 3dcd 0dbd 56e6 f83c
00000180: 0a56 633b 457c 0ebc 07e2 ba3b b911 eb3c
00000190: dd1c d7bb b4cc 3cbc bd3c c4bc 8441 e43c
000001a0: ff98 163a 1208 2dba 920f 08bd 032a c7bc
000001b0: 6f29 bf3c d5f9 e73b d48c a93c fb25 de3c
000001c0: 4501 e03b 78a4 b7bc 351e 903c ae37 9b3c
000001d0: ccbb f0bc 627c f9bc e059 e03c 651b a9bc
000001e0: 766b 99bc 1851 36bc 5226 c73c 221c f0bc
000001f0: cba1 babc 02c6 5fbc 1633 863c 0783 19ba
00000200: 5245 c03c 40a0 06bc 6f48 093d 860f 0c3d
00000210: b300 073d 005a 553c 4363 b9bb 025e 9e3c
00000220: 48a4 a33c 8754 82bc 79c6 923c 0af5 47bc
00000230: e969 f43c 50d0 d9bc 964b 0ebc 9b13 6cbc
00000240: 5adc d1bb 72f8 14bb 901f 07bd 7aae 90bc
00000250: 1c4d fb3c 9437 0f3c f8ad cdbc fe5b f8bb
00000260: 3ecb e1bc 16bb d13c 3052 c8bc a95a 37bc
00000270: 0cf1 c23c ea83 9e36 96ee cb3c ba32 8e3c
00000280: d99f 00bd 9034 093d 020d 983c 8617 00bd
00000290: 802f fe3b a87f c6bc df41 e8bc 899e 43bc
000002a0: 1002 07bd 2637 8b3c 2445 c73b fe91 abbc
000002b0: 5da6 c2bc ed17 cabc 08c6 013d 80ae 9bbc
000002c0: 4476 e8bc fc27 d43c 9eb3 74bc 34b5 a73c
000002d0: 397a c2bc 9385 ddbc d9fa 0c3b 6f1e ff3c
000002e0: abb6 dbbc 08b9 003d 8859 333c 4644 d03c
000002f0: ef0c da3b c46f 7d3c a389 abbc bd87 c9bc
00000300: b8ec ed3c 1a31 c3bc 2932 b33b 89ed 06bc
00000310: 410b b43c 23f7 b4bc 6cca 483b 00fd ceb9
00000320: 9320 07bc 8dd8 c43b df58 813c a9a9 d1bc
00000330: 2aad 01bd f639 c33c ea10 a73b 3242 08bd
00000340: 0dbb 55bc b64b 5cbc bc4e 8bbb 0d6a 6ebc
00000350: 0215 be3b 7bb2 e0bc 6867 91bc 3224 c43c
00000360: cdf7 ff3c 9c95 a7bc 4f17 003d 7d63 4cbc
00000370: 7e74 493c 277a a4bc 6db6 f6bb 57da 02bd
00000380: 10cc 09bd 7e2e 55ba a9f4 1dbc d5dd e5ba
00000390: 116d 5dbc a9c9 c6bb 9b5d eabc 2fc8 1abc
000003a0: 9c7c 0abd 3617 14bc 7cdf bebc a339 edbb
000003b0: eedd 84bc 85df d0bb 9c7b 2abc 06d6 6c3c
000003c0: 4140 30bc db8c cc3c 5582 89b9 a27a b73c
000003d0: 61cc f6bc 2bd4 0bbd e287 063d 1e4d 5d3a
000003e0: 0c08 32bc df1a 4c3c 594b dabb 0f70 003d
000003f0: 8d1a d7bc 93ac df3c f496 ccbc 9fa9 c43c

conv3.bias f4 [32]
0.017323034 -0.0069755996 -0.033899516 -0.008121941 0.010557471 -0.03244302 0.022488827 -0.017190203
-0.010239667 0.020122072 -0.015353738 -0.0023577793 -0.030488651 -0.034655917 -0.008493147 -0.027255762
-0.013591129 -0.019438552 -0.006430337 -0.0024486934 -0.018897098 -0.020638304 0.023927568 0.0028362887
0.013512542 0.0076001654 0.02935337 -0.015130426 -0.012962043 0.021613799 -0.025533943 -0.029028866
00000000: 09e9 8d3c 9293 e4bb 38da 0abd e411 05bc
00000010: 3ef9 2c3c f9e2 04bd 7d3a b83c 78d2 8cbc
00000020: 47c4 27bc 0bd7 a43c 3f8e 7bbc f984 1abb
00000030: 56c3 f9bc 5df3 0dbd d726 0bbc 7a47 dfbc
00000040: 54ad 5ebc 993d 9fbc 94b5 d2bb 427a 20bb
00000050: 16ce 9abc a911 a9bc bf03 c43c 07e1 393b
00000060: b563 5d3c cf0a f93b 7b76 f03c 9be5 77bc
00000070: c05e 54bc 6c0f b13c 8f2c d1bc f2cd edbc

conv4.weight f4 [32, 32, 5, 5]
-0.031840786 0.009533813 0.014853233 0.03524366 0.018787133 -0.031188525 -0.020163497 -0.0005966432
0.009385632 -0.026905589 -0.018781645 -0.027609704 -0.012083441 0.001138584 -0.00964829 -0.029923812
-0.0022902596 -0.03443456 -0.019283287 -0.015312176 0.0068176216 0.032001033 0.028848106 -0.025335949
-0.01457624 -0.026651848 -0.0012037669 0.031651955 -0.004105381 -0.01626317 -0.026928116 -0.016195552
-0.027785225 0.01977151 0.018800016 0.022772996 -0.006287316 0.03102968 0.026596582 -0.00079049804
0.030461749 0.01827359 0.030152082 -0.025734074 0.0034099228 0.015690932 -0.023759885 -0.0009877014
-0.02530314 -0.011038044 -0.0019416217 -0.026211439 -0.006424266 -0.009208959 -0.002846731 0.022774821
0.03123113 -0.0033221717 -0.006493189 0.019733978 0.00837485 0.0024444065 0.029787848 -0.012838995
-0.023019241 -0.02282642 -0.029880745 0.0028127306 0.018849423 -0.031842053 -0.028200932 0.0074854773
-0.02640719 -0.020281687 -0.010523426 0.0009324905 -0.032446794 0.03073243 0.02836037 -0.009130168
-0.012386614 0.01829443 -0.009105287 0.025291912 0.004932167 0.03396467 0.004226013 -0.010767571
0.017211666 -0.0352775 0.006023259 -0.015954424 0.0011701626 -0.020837367 -0.0070141233 -0.019016184
0.019333579 0.008471068 -0.03525463 0.013022762 -0.022053434 0.0079355305 0.027324706 -0.0006920746
0.023757905 -0.030972999 -0.022972822 -0.010915585 -0.0026375223 -0.0077420063 0.003721509 0.008293618
0.0013042509 0.03293359 0.028017301 0.02092619 0.005557951 0.032779906 -0.03013095 -0.035038177
-0.010774615 0.00938688 0.03079241 -0.00313538 -0.013905839 0.017027834 0.03013191 0.025240475
-0.031379733 -0.0004689676 0.0215652 0.0041661654 -0.008206054 -0.0009644149 -0.01713164 -0.026010681
-0.02738597 0.018550698 0.027819125 -0.030685354 -0.009449749 0.016220478 0.024144689 0.026142394
-0.029111456 -0.008010207 -0.022638343 0.015488624 -0.00905158 0.021136025 -0.033300865 -0.0033787254
-0.030331092 0.03011628 0.022071917 0.023793995 -0.015053006 0.020678172 0.023838568 -0.015500041
-0.02124392 0.014806738 -0.0060383915 -0.0008390622 -0.018216003 -0.014203966 -0.019690765 0.010694245
-0.007699928 -0.03114118 -0.007103333 -0.02304008 0.010224904 -0.025232991 -0.00755688 0.033109296
0.025908282 0.024920845 -0.009632446 -0.01953002 0.021221645 0.030406922 -0.013983684 -0.028362727
-0.02577824 -0.008184299 -0.030040944 0.015606618 0.0050800345 0.00579739 -0.0044316696 -0.03161429
0.030007606 0.021111581 0.020816451 0.0055854167 -0.013445671 0.017787553 0.027749522 0.030246673
-0.02433668 0.025805904 -0.034673948 -0.024864502 0.0230167 -0.0057263738 -0.0209683 0.009318507
0.009260363 -0.0032991234 -0.022909539 0.0037476136 0.010605161 0.0037077183 0.010787982 -0.008479395
-0.017257284 0.0058379387 -0.007026082 -0.00093335944 0.023162402 0.01837657 0.021396056 0.006062088
0.026749488 0.024726609 0.007971271 -0.0006944416 -0.004008806 -0.016631817 -0.0025769358 -0.0028768175
-0.00065764744 -0.034566917 -0.032770514 -0.022529164 -0.011485602 6.750597e-05 -0.008747762 -0.020262094
0.025048506 0.009280257 0.0034851362 0.026300097 -0.035224207 -0.015978344 -0.021994546 -0.005490435
0.003258915 -0.0040770937 -0.032676056 -0.00638101 -0.017397616 -0.015620133 0.0033289348 0.025204789
00000000: 7c6b 02bd b633 1c3c f95a 733c a85b 103d
00000010: 79e7 993c 147f ffbc eb2d a5bc 0c68 1cba
00000020: 32c6 193c 1c69 dcbc f7db 99bc bf2d e2bc
00000030: a0f9 45bc 8a3c 953a dd13 1ebc c822 f5bc
00000040: 2e18 16bb 410b 0dbd fcf7 9dbc ecdf 7abc
00000050: 5b66 df3b 8413 033d dd52 ec3c 568d cfbc
00000060: 2fd1 6ebc fa54 dabc b7c7 9dba 7ba5 013d
00000070: 6f86 86bb 573a 85bc 5a98 dcbc 89ac 84bc
00000080: d79d e3bc ddf7 a13c 7e02 9a3c 6f8e ba3c
00000090: d405 cebb f531 fe3c 13e1 d93c 6d39 4fba
000000a0: eb8a f93c 7fb2 953c 8001 f73c 44d0 d2bc
000000b0: 0379 5f3b 458a 803c 17a4 c2bc c275 81ba
000000c0: 8848 cfbc e9d8 34bc 037e feba 5fb9 d6bc
000000d0: a682 d2bb 2ce1 16bc 3990 3abb 4392 ba3c
000000e0: 6dd8 ff3c cbb8 59bb d1c4 d4bb 27a9 a13c
000000f0: ab36 093c 5632 203b a505 f43c a65a 52bc
00000100: d992 bcbc 79fe babc 77c8 f4bc ca55 383b
00000110: 1b6a 9a3c d06c 02bd a405 e7bc bc48 f53b
00000120: e453 d8bc c825 a6bc 736a 2cbc 6172 743a
00000130: eee6 04bd 94c2 fb3c 0254 e83c b396 15bc
00000140: 3af1 4abc 33de 953c 572e 15bc fc30 cf3c
00000150: 049e a13b 8a1e 0b3d 5e7a 8a3b 776a 30bc
00000160: 7bff 8c3c 247f 10bd c25e c53b dab2 82bc
00000170: 2460 993a 20b3 aabc bbd6 e5bb d4c7 9bbc
00000180: 7461 9e3c 3cca 0a3c 2967 10bd 6c5d 553c
00000190: 67a9 b4bc 0704 023c 10d8 df3c 576c 35ba
000001a0: f09f c23c 16bb fdbc 8031 bcbc 48d7 32bc
000001b0: 48da 2cbb a8b0 fdbb 8fe4 733b f5e1 073c
000001c0: 66f3 aa3a 5fe5 063d 8a84 e53c 676d ab3c
000001d0: 791f b63b 3944 063d 2fd5 f6bc 3184 0fbd
000001e0: 0388 30bc 6ecb 193c 5d40 fc3c f37a 4dbb
000001f0: 51d5 63bc f57d 8b3c 32d7 f63c 1dc5 ce3c
00000200: 0988 00bd c4df f5b9 81a9 b03c 5484 883b
00000210: af72 06bc cad0 7cba a757 8cbc 5a14 d5bc
00000220: 8b58 e0bc a2f7 973c efe4 e33c da5f fbbc
00000230: 1fd3 1abc cfe0 843c 15cb c53c 9328 d63c
00000240: 267b eebc 3e3d 03bc 0c74 b9bc ffc3 7d3c
00000250: 144d 14bc 7525 ad3c 7d66 08bd 9b6d 5dbb
00000260: e978 f8bc 6bb6 f63c 2ad0 b43c a0eb c23c
00000270: e2a0 76bc 4565 a93c 1a49 c33c e2f3 7dbc
00000280: bb07 aebc f697 723c b3dd c5bb 83f4 5bba
00000290: ba39 95bc c0b7 68bc 874e a1bc ea36 2f3c
000002a0: ad4f fcbb ca1b ffbc 13c3 e8bb 8dbe bcbc
000002b0: 5b86 273c 6bb5 cebc b49f f7bb 9d9d 073d
000002c0: 9b3d d43c cd26 cc3c 68d1 1dbc 6cfd 9fbc
000002d0: 04d9 ad3c f017 f93c d21b 65bc f358 e8bc
000002e0: e32c d3bc 7017 06bc 6d18 f6bc e6b2 7f3c
000002f0: 6b76 a63b 08f8 bd3b 8a37 91bb fc7d 01bd
00000300: 83d2 f53c 32f2 ac3c 4387 aa3c df05 b73b
00000310: 3b4b 5cbc 34b7 913c f752 e33c dfc7 f73c
00000320: b85d c7bc e766 d33c 4506 0ebd a4b0 cbbc
00000330: 858d bc3c 4ea4 bbbb b6c5 abbc a7ac 183c
00000340: c7b8 173c 1b36 58bb c9ac bbbc 869a 753b
00000350: 45c1 2d3c 31fd 723b 13c0 303c 29ed 0abc
00000360: 265f 8dbc 2e4c bf3b 0c3b e6bb b1ac 74ba
00000370: 14bf bd3c 768a 963c c846 af3c 7ba4 c63b
00000380: be21 db3c 758f ca3c ef99 023c 300b 36ba
00000390: 4d5c 83bb 733f 88bc cfe1 28bb fd88 3cbb
000003a0: f965 2cba 0a96 0dbd 603a 06bd 158f b8bc
000003b0: 1b2e 3cbc fe91 8d38 c652 0fbc b1fc a5bc
000003c0: 8632 cd3c 380c 183c e266 643b 4d73 d73c
000003d0: 4247 10bd 04e5 82bc e82d b4bc 1be9 b3bb
000003e0: 8593 553b 2499 85bb 54d7 05bd cb17 d1bb
000003f0: 7285 8ebc 96eb 7fbc 422a 5a3b 467a ce3c

conv4.bias f4 [32]
0.023551472 0.01697108 0.012250042 -0.008062717 -0.003660021 0.016433353 -0.031751864 0.028232263
0.01431688 0.009287653 0.01993288 0.011940475 0.02232756 0.014229907 -0.008643989 0.017973283
-0.012119522 0.01076116 0.028965479 0.023401368 -0.014493557 -0.020833202 -0.005234283 -0.03161354
-0.030376 0.0137072075 -0.006617442 0.008206396 0.009998466 0.0059535913 -0.02662248 0.025368433
00000000: 04ef c03c ef06 8b3c 66b4 483c 7c19 04bc
00000010: f6dc 6fbb 3d9f 863c 3e0e 02bd 5947 e73c
00000020: 5991 6a3c 3d2b 183c 474a a33c fba1 433c
00000030: 49e8 b63c 8e24 693c 859f 0dbc b53c 933c
00000040: f690 46bc 944f 303c 0349 ed3c 3ab4 bf3c
00000050: 6276 6dbc 64aa aabc 5984 abbb 337d 01bd
00000060: 17d7 f8bc 3294 603c 20d7 d8bb 1f74 063c
00000070: 9bd0 233c 5816 c33b 6317 dabc 76d1 cf3c

conv5.weight f4 [32, 32, 5, 5]
-0.001905045 0.021027694 0.027377846 0.029799178 -0.010377148 0.03530687 -0.004722143 -0.028263424
0.0007481379 0.018267104 0.020076212 0.014832126 0.032460906 -0.00029336193 -0.029135047 -0.032451812
0.00065002806 0.016677104 0.0014122721 0.020605555 0.02950573 -0.0021141109 0.03386167 0.004182043
0.0004073945 -0.01548679 0.026174808 -0.0012738873 0.026550388 -0.025348958 -0.033668667 -0.01925847
0.005078314 -0.024540706 -0.023109272 0.0076847496 0.011001219 -0.025745587 0.0024773409 -0.013165739
-0.0013163087 -0.012455468 -0.016639471 0.023973063 0.029563624 -0.018335171 0.013818588 0.028603619
0.023365961 -0.02467944 -0.032513466 -0.015972003 -0.024435783 -0.022841461 -0.03214392 2.9874387e-05
-0.008250832 0.009006673 -0.008682757 -0.025102004 0.004646092 -0.029562559 0.026421854 0.00755845
0.02274884 0.021216476 -0.009610143 0.012293408 -0.006685494 0.034256656 -0.01190611 -0.0029581848
0.027164716 -0.0036383234 0.0036736983 0.018696984 0.022571605 0.011196926 0.023013098 0.005064975
0.015792508 0.0012894246 0.019463535 -0.027333248 0.011535614 0.029470472 0.03254596 -0.0030431119
0.035008825 0.024818696 0.010465608 0.030011846 0.0201903 0.026865909 0.034679748 -0.012726457
-0.017558007 0.031440508 -0.0018040674 -0.025697403 -0.014050305 -0.02846241 0.008600579 -0.023588687
-0.0030843623 0.009415592 -0.028512422 0.010120312 -0.018946867 -0.027750574 -0.0324346 0.011188556
0.025452474 0.023177244 0.016234664 0.007283246 0.017269494 -0.0069131143 -0.020420901 0.0005966673
-0.018182805 -0.033398077 -0.0028127641 -0.006608294 -0.006051335 -0.0012745492 -0.033504114 0.021709813
-0.025753604 0.0062861633 -0.023434862 -0.024227666 0.028564574 0.016164623 0.033420514 -0.028868062
0.03376023 0.014146542 -0.0050204927 -0.017292067 0.029474732 0.014367178 -0.033229478 0.034537394
-0.028219135 0.013213235 -0.0025933778 0.027769273 -0.029082008 -0.02728358 0.014110805 0.008961286
0.02673659 0.019876344 0.006909321 -0.0063314326 0.018980037 -0.030905126 -0.021409461 -0.0042704497
0.0009700092 0.017505938 -0.01168148 0.033427194 0.0057187323 -0.016317407 -0.015678607 0.013263864
0.009348444 0.032678258 -0.023596324 0.017982667 0.02994559 0.020071827 0.02305321 -0.024499984
-0.013717327 0.018931847 -0.02398894 -0.0046435245 0.022390923 0.03216204 0.018759783 0.017757982
-0.015824327 0.021348568 0.027441584 0.0007402211 0.021692147 -0.01090841 -0.010580429 -0.025627192
-0.032188103 -0.003127663 -0.015810523 -0.020669544 -0.0065712268 0.031530313 0.03301107 0.002127422
0.009260064 0.009390501 -0.008423053 -0.021264128 0.02093127 -0.0075748535 -0.0056182463 -0.021881413
-0.021170437 -0.01325823 -0.028215783 0.0005336188 -0.034169734 -0.034801163 -0.034788057 0.027774977
-0.019265236 0.031624515 -0.026742965 0.009093366 -0.031400647 -0.028929522 0.021272 -0.010048851
0.016717754 -0.015156355 0.031569157 -0.030893518 0.023501746 0.024619564 0.02599712 -0.0147517705
0.005484416 0.006684927 -0.010797203 -0.034601208 -0.021648597 -0.027899561 -0.02768574 0.0131592965
0.032818586 -0.0046009924 -0.022821777 -0.013829858 0.011567247 -0.03401761 0.009407048 -0.014759883
0.012589361 -0.024698941 -0.01810156 -0.003999273 0.031789515 0.01896638 0.031145554 0.022489626
00000000: b4b2 f9ba 4542 ac3c 8147 e03c 681d f43c
00000010: ea04 2abc f09d 103d 35bc 9abb b288 e7bc
00000020: af1e 443a e5a4 953c de76 a43c 7202 733c
00000030: baf5 043d 5fce 99b9 9fac eebc 31ec 04bd
00000040: a566 2a3a 6c9e 883c fd1b b93a fbcc a83c
00000050: 00b6 f13c e58c 0abb 89b2 0a3d 8509 893b
00000060: 9097 d539 4ebc 7dbc 8d6c d63c 91f8 a6ba
00000070: 3380 d93c 9ea8 cfbc 28e8 09bd f0c3 9dbc
00000080: fc67 a63b 9709 c9bc a84f bdbc 5ad0 fb3b
00000090: 753e 343c 69e8 d2bc e25a 223b 1db5 57bc
000000a0: fe87 acba 0512 4cbc 804f 88bc 2863 c43c
000000b0: 6a2f f23c a433 96bc 5c67 623c 2352 ea3c
000000c0: f969 bf3c 892c cabc d72c 05bd b8d7 82bc
000000d0: 8d2d c8bc 041e bbbc 58a9 03bd c29a fa37
000000e0: 7f2e 07bc b990 133c 1f42 0ebc b8a2 cdbc
000000f0: 3f3e 983b 2e2d f2bc a572 d83c e0ac f73b
00000100: c65b ba3c 2dce ad3c dc73 1dbc 4a6a 493c
00000110: fd11 dbbb b550 0c3d d811 43bc 1bde 41bb
00000120: 8a88 de3c f070 6ebb 6ec2 703b 6b2a 993c
00000130: 16e8 b83c 5073 373c f785 bc3c 17f8 a53b
00000140: 4a5f 813c e901 a93a fe71 9f3c fae9 dfbc
00000150: dfff 3c3c 0f6c f13c ea4e 053d f26e 47bb
00000160: 6a65 0f3d 9450 cb3c f177 2b3c 67db f53c
00000170: 2166 a53c e515 dc3c 5a0c 0e3d a182 50bc
00000180: cfd5 8fbc c3c7 003d 7576 ecba 5c83 d2bc
00000190: 4033 66bc 002a e9bc 71e9 0c3c 103d c1bc
000001a0: 0323 4abb db43 1a3c e292 e9bc aacf 253c
000001b0: 7636 9bbc 2c55 e3bc 25da 04bd 3550 373c
000001c0: b581 d03c 34de bd3c 8ffe 843c 4ca8 ee3b
000001d0: c178 8d3c 6887 e2bb bc49 a7bc aa69 1c3a
000001e0: 1bf4 94bc 6ccc 08bd 5a56 38bb 638a d8bb
000001f0: 474a c6bb c60e a7ba 9c3b 09bd c7d8 b13c
00000200: 39f9 d2bc 29fc cd3b 78fa bfbc 1979 c6bc
00000210: 4100 ea3c ac6b 843c f3e3 083d b77c ecbc
00000220: 2b48 0a3d e6c6 673c f282 a4bb 18a8 8dbc
00000230: fe74 f13c 5064 6b3c a21b 08bd 1577 0d3d
00000240: d12b e7bc 537c 583c a9f5 29bb 637c e33c
00000250: 643d eebc d081 dfbc 0131 673c 5cd2 123c
00000260: b106 db3c b7d3 a23c 9667 e23b e877 cfbb
00000270: 067c 9b3c bf2c fdbc e562 afbc 21ef 8bbb
00000280: 3748 7e3a 9d68 8f3c ae63 3fbc f4ea 083d
00000290: 3464 bb3b 15ac 85bc 6c70 80bc ae50 593c
000002a0: 372a 193c a3d9 053d 144d c1bc 6350 933c
000002b0: 7450 f53c ac6d a43c 16da bc3c 31b4 c8bc
000002c0: a4be 60bc f616 9b3c 7484 c4bc b528 98bb
000002d0: 2b6d b73c 58bc 033d 1eae 993c 3079 913c
000002e0: 05a2 81bc 31e3 ae3c 2ccd e03c 660b 423a
000002f0: bbb3 b13c 30b9 32bc 8959 2dbc 1ef0 d1bc
00000300: acd7 03bd 7af9 4cbb 1285 81bc 2d53 a9bc
00000310: 7253 d7bb ee25 013d 9e36 073d 386c 0b3b
00000320: 86b7 173c 9eda 193c d800 0abc 1c32 aebc
00000330: 0e78 ab3c 7a36 f8bb 4419 b8bb a640 b3bc
00000340: a06d adbc 0c39 59bc c924 e7bc 8de2 0b3a
00000350: 90f5 0bbd aa8b 0ebd ec7d 0ebd 5988 e33c
00000360: 21d2 9dbc b588 013d 1014 dbbc 57fc 143c
00000370: f79d 00bd 9bfd ecbc 9e42 ae3c f0a3 24bc
00000380: acf3 883c 5c52 78bc a94e 013d 6714 fdbc
00000390: bc86 c03c f8ae c93c eaf7 d43c 69b1 71bc
000003a0: 9eb6 b33b 3b0d db3b c0e6 30bc ffb9 0dbd
000003b0: 6658 b1bc 9f8d e4bc 34cd e2bc 179a 573c
000003c0: c86c 063d ecc3 96bb bcf4 babc a196 62bc
000003d0: 8d84 3d3c 0d56 0bbd 0520 1a3c 70d3 71bc
000003e0: 9b43 4e3c 6f55 cabc b949 94bc 550c 83bb
000003f0: b935 023d 625f 9b3c f624 ff3c 2a3c b83c

conv5.bias f4 [32]
0.00569172 -0.022467904 -0.013560269 0.026694292 0.0058571794 -0.023329025 -0.005368542 0.0236747
0.024462018 -0.031958584 -0.02209123 0.02223476 -0.00079431536 0.024896652 -0.0043659606 -0.010211439
0.030617455 0.029919254 -0.028315173 -0.025630746 0.023455005 0.038888652 0.027257163 0.027701536
-0.00016709656 0.0038037882 -0.005422708 0.006278014 0.0027221544 0.011407394 -0.0026753205 -0.030120114
00000000: 9c81 ba3b 9c0e b8bc e42b 5ebc fdad da3c
00000010: 95ed bf3b 831c bfbc 98ea afbb 72f1 c13c
00000020: 9264 c83c 01e7 02bd abf8 b4bc ac25 b63c
00000030: 9a39 50ba 10f4 cb3c 5510 8fbb e14d 27bc
00000040: 75d1 fa3c 3919 f53c 39f5 e7bc 92f7 d1bc
00000050: b624 c03c b549 1f3d 6a4a df3c 55ee e23c
00000060: a436 2fb9 fa48 793b f9b0 b1bb ccb7 cd3b
00000070: 2c66 323b 14e6 3a3c 6e54 2fbb 75be f6bc

conv6.weight f4 [32, 32, 5, 5]
0.018395834 0.011733351 -0.0053378595 0.013612898 -0.0069479533 -0.007555263 0.014880268 -0.003815576
-0.027610704 -0.0067262314 -0.010046993 0.03269964 0.010446012 -0.015350963 0.025866322 0.023417145
0.030595878 0.026652388 0.031279232 -0.035089772 0.0046797493 -6.201909e-05 -0.011214515 -0.005204909
-0.016663708 0.0057303263 -0.014598067 -0.006313984 0.020041203 0.006918764 0.01696117 0.005611766
-0.017384982 0.022962868 -0.0042774226 0.0058218585 -0.0042303177 0.012226465 0.005668342 0.021284504
0.03411683 -0.010338384 -0.03520869 -0.015571555 -0.032508656 -0.018026128 0.020993687 0.026691185
0.028198812 -0.01145591 0.02626628 0.021420762 -0.029119765 -0.0015657304 -0.0017706765 -0.012293237
0.023816343 -0.009979281 -0.0014795539 0.033791933 -0.012228851 0.023823055 -0.033199925 0.03124701
-0.012187089 0.0023730376 -0.016510744 0.017140998 0.008955925 -0.029026464 0.0067562377 0.0073003876
-0.007326699 0.03515316 -0.030408852 0.00080067536 -0.024701811 0.019312505 0.033932693 -0.021463227
-0.0012215977 -0.019864703 0.008258544 0.02584788 -0.024597188 -0.023685787 0.02160179 0.027906455
-0.028998148 0.035621103 -0.009318534 -0.026411206 0.014923073 -0.009853912 0.013696828 0.018123327
0.032776896 0.034883816 0.024041053 -0.01622436 0.0038425764 0.030126477 -0.007243859 -0.0032656298
0.029917788 -0.031788487 -0.030383345 -0.005166582 0.009781922 -0.02758073 -0.009967143 0.010669388
-0.03170041 -0.016959373 0.016454525 -0.009406964 0.008561402 0.022459673 0.0028164578 0.034229778
-0.030999191 0.032616343 0.02259855 -0.034062102 0.015140432 0.033101145 0.025221242 -0.034809384
-0.02412614 -0.019783968 0.026750987 -0.00030311308 0.022218024 0.00996356 -0.029178742 0.026656
-0.0020085718 0.006699879 -0.033227537 0.0063175876 0.0031503616 -0.02991968 -0.009283162 0.01008767
0.0069188843 0.00035521536 0.014865098 -0.019824833 -0.0019276033 -0.004270086 0.016869927 0.008058616
0.011121173 0.007334883 0.0019826305 0.010336894 0.034222137 0.015497856 0.033201087 0.030913655
-0.0037183226 -0.015299448 0.008938734 -0.007922499 0.020554023 0.003562688 0.011100132 -0.012793398
0.012812965 -0.009831359 0.004669595 0.022170523 0.014896308 0.018544408 -0.0034426746 -0.0011529718
0.0190537 -0.010147459 0.035781216 -0.034771394 0.020121703 0.011064383 0.032648306 -0.034529533
-0.034242865 0.0007664226 -0.0005992682 0.0077269142 0.020184567 0.0022941665 -0.016014183 -0.018020695
0.020063035 0.005927299 0.017068211 0.016171245 -0.029959518 -0.02738549 0.013123254 0.01819853
0.013013167 -0.018112963 0.0061786636 0.024010021 0.007440158 0.020545304 0.010861932 -0.003449862
-0.0040897946 0.022742156 -0.026987001 0.033026617 0.033162 0.014188664 0.013631431 -0.033321515
0.015792504 0.007449806 0.010010779 0.007912477 0.0056423796 -0.024508107 0.010683048 -0.022952171
0.010045185 0.016897013 -0.033250708 0.033020467 -0.016435735 0.028887065 0.032096166 -0.008277498
0.008500369 0.020803291 -0.013326408 -0.0144935055 -0.031487256 0.02682755 0.02443204 -0.032966312
-0.010150792 0.005277315 0.009958079 0.032463204 -0.0208876 0.025757615 -0.015503734 0.024359144
-0.01829128 0.02419546 -0.025097422 -0.00593563 -0.027197538 -0.009431994 -0.005126878 -0.014761423
00000000: dcb2 963c 3e3d 403c 36e9 aebb a208 5f3c
00000010: a8ab e3bb 2492 f7bb 5ecc 733c be0e 7abb
00000020: d82f e2bc b867 dcbb 259c 24bc 0ff0 053d
00000030: c025 2b3c 9b82 7bbc 9ce5 d33c 50d5 bf3c
00000040: 35a4 fa3c 1c56 da3c a71e 003d 4bba 0fbd
00000050: 9558 993b 3f10 82b8 16bd 37bc f18d aabb
00000060: 5482 88bc 76c5 bb3b bb2c 6fbc 89e5 cebb
00000070: 732d a43c cdb6 e23b 27f2 8a3c e8e2 b73b
00000080: f36a 8ebc a01c bc3c 9f29 8cbb 4ac5 be3b
00000090: 7a9e 8abb 8351 483c 80bd b93b d75c ae3c
000000a0: 17be 0b3d 5362 29bc fd36 10bd d61f 7fbc
000000b0: cc27 05bd 88ab 93bc f4fa ab3c 79a7 da3c
000000c0: 3201 e73c 92b1 3bbc 622c d73c 987a af3c
000000d0: 938c eebc 3239 cdba 0b16 e8ba 9369 49bc
000000e0: 7e1a c33c 2380 23bc 97ed c1ba 6969 0a3d
000000f0: 855b 48bc 9128 c33c a5fc 07bd bbf9 ff3c
00000100: 5bac 47bc f784 1b3b 8a41 87bc 476b 8c3c
00000110: dfbb 123c e8c8 edbc 6e63 dd3b 1738 ef3b
00000120: ce14 f0bb c3fc 0f3d fc1b f9bc 6ae4 513a
00000130: 745b cabc 4235 9e3c 02fd 0a3d a6d3 afbc
00000140: 041e a0ba 4dbb a2bc d84e 073c efbe d33c
00000150: 0b80 c9bc b208 c2bc 3df6 b03c 149c e43c
00000160: 868d edbc 6fe7 113d c4ac 18bc 505c d8bc
00000170: e87f 743c 4d72 21bc a968 603c 5f77 943c
00000180: 1141 063d 55e2 0e3d bef1 c43c f3e8 84bc
00000190: bcd3 7b3b cdcb f63c e55d edbb 2d04 56bb
000001a0: 2616 f53c a534 02bd 7ee6 f8bc 6e4c a9bb
000001b0: 5b44 203c fcf0 e1bc 3a4d 23bc a8ce 2e3c
000001c0: 4ad8 01bd 62ee 8abc a4cb 863c ab1f 1abc
000001d0: 1f45 0c3c 59fd b73c 5294 383b 8634 0c3d
000001e0: 04f2 fdbc b798 053d 9820 b93c b484 0bbd
000001f0: 930f 783c 1195 073d c79c ce3c 4994 0ebd
00000200: 2fa4 c5bc fd11 a2bc e324 db3c 26eb 9eb9
00000210: 9302 b63c 333e 233c 4208 efbc af5d da3c
00000220: 3ea2 03bb a98a db3b 9919 08bd c403 cf3b
00000230: 4c76 4e3b 1e1a f5bc 6718 18bc c146 253c
00000240: cfb7 e23b 333c ba39 bd8c 733c b067 a2bc
00000250: a2a7 fcba 14ec 8bbb cd32 8a3c 4908 043c
00000260: 9535 363c 7559 f03b 05ef 013b 135c 293c
00000270: 832c 0c3d b8ea 7d3c ddfd 073d a23e fd3c
00000280: 1aaf 73bb 89aa 7abc c573 123c 5fcd 01bc
00000290: e960 a83c fc7b 693b 54dd 353c 679b 51bc
000002a0: 78ed 513c b513 21bc 6703 993b f59e b53c
000002b0: a50f 743c 71ea 973c 7f9e 61bb 501f 97ba
000002c0: 8116 9c3c 8741 26bc 538f 123d 736c 0ebd
000002d0: 45d6 a43c 6347 353c 3bba 053d d76e 0dbd
000002e0: 3f42 0cbd c0e9 483a 3518 1dba 0e32 fd3b
000002f0: 1b5a a53c ba59 163b 2d30 83bc 23a0 93bc
00000300: 3c5b a43c ca39 c23b a2d2 8b3c 8f79 843c
00000310: aa6d f5bc 8957 e0bc eb02 573c 1515 953c
00000320: 2e35 553c a361 94bc 6376 ca3b aab0 c43c
00000330: 92cc f33b a04e a83c 3ff6 313c 1417 62bb
00000340: af03 86bb c24d ba3c d813 ddbc eb46 073d
00000350: e1d4 073d 9277 683c 5e56 5f3c 247c 08bd
00000360: 485f 813c 811d f43b 4004 243c 55a3 013c
00000370: b6e3 b83b 3ac5 c8bc f307 2f3c 3106 bcbc
00000380: 8f94 243c 9b6b 8a3c e531 08bd 7840 073d
00000390: 3ca4 86bc 91a4 ec3c 4577 033d 589e 07bc
000003a0: 2245 0b3c aa6b aa3c 0257 5abc 2b76 6dbc
000003b0: c8f8 00bd 73c5 db3c b425 c83c af07 07bd
000003c0: 824f 26bc 54ed ac3b 3627 233c 23f8 043d
000003d0: 791c abbc a201 d33c 6003 7ebc d48c c73c
000003e0: 98d7 95bc 8f35 c63c 1c99 cdbc ac7f c2bb
000003f0: 5fcd debc a688 1abc 5fff a7bb e5d9 71bc

conv6.bias f4 [32]
0.01759471 0.012690202 0.02313191 0.005594099 -0.033367366 0.03452709 0.05074851 -0.016988577
0.030685417 0.02067095 -0.012680046 -0.03344249 -0.005603696 0.0099728145 0.01638819 0.019369522
0.044614315 -0.020721937 -0.030366119 -0.022480492 -0.02467118 0.026640028 -0.020008016 -0.0123500945
0.038546897 -0.0060654557 -0.032964118 0.010731287 0.00044044835 -0.009769708 -0.022118503 0.008633421
00000000: c822 903c 91ea 4f3c 227f bd3c b44e b73b
00000010: 38ac 08bd 476c 0d3d abdd 4f3d a12b 8bbc
00000020: fc5f fb3c 2056 a93c f8bf 4fbc fefa 08bd
00000030: 369f b7bb 0465 233c 8740 863c d5ac 9e3c
00000040: 80bd 363d 0dc1 a9bc 5ec2 f8bc 0229 b8bc
00000050: 371b cabc 303c da3c dae7 a3bc 0d58 4abc
00000060: 5ae3 1d3d bbc0 c6bb 6205 07bd 48d2 2f3c
00000070: faeb e639 2011 20bc dd31 b5bc 3173 0d3c

conv7.weight f4 [32, 32, 5, 5]
-0.006512469 0.0040146927 -0.022162355 0.005625035 0.0042192163 -0.034709916 -0.014033132 -0.02772617
-0.03372687 -0.027680058 0.019405313 0.014092554 0.035182524 0.015486771 0.01903451 -0.022418562
0.012816544 0.028387038 -0.019116817 0.0010400232 -0.029718855 0.0037627884 0.026055599 0.029194133
-0.026329063 0.010468819 -0.008988334 -0.018766474 -0.018958528 -0.025096815 0.014811333 -0.024495015
-0.018547326 -0.024363134 -0.023191411 0.032075174 -0.0070580817 -0.026959864 -0.013754034 0.008576215
0.005364642 0.011385924 -0.011376171 -0.025436109 -0.013096496 -0.012732987 -0.0031226894 -0.028736139
-0.016882649 -0.0029328028 0.0053767804 -0.0005585427 -0.008235176 -0.0006152827 0.008355518 -0.03182444
0.028470745 -0.00681294 -0.012662243 0.018832551 -0.018991794 -0.013017336 0.006238596 -0.017854955
0.0061757118 0.021569658 -0.033688705 0.02995829 0.012778653 0.03038087 -0.014868923 0.015815692
-0.005257068 -0.011991429 0.016097305 0.020728093 -0.0048751137 -0.005020016 -0.013596653 0.017431086
-0.015172208 -0.022741305 0.028896108 0.026597593 -0.0030813208 0.0035550178 -0.018896312 0.009543673
0.024248509 0.004370976 0.00020438562 -0.02389582 0.026674794 -0.027654901 0.007841055 -0.0058247815
0.018005995 -0.030070867 -0.021641837 0.0009989557 -8.102857e-05 -0.02144434 -0.018237693 -0.010767568
0.009503326 0.021793809 0.032498654 -0.034084182 0.021947673 0.034721185 0.009273063 -0.021402134
0.033700537 -0.01219255 -0.022520239 0.024850069 0.026572619 0.03509998 0.034454145 0.030888319
0.025924448 -0.009161194 0.009357682 0.0038255688 0.021071732 0.0065172543 0.031199187 0.009301329
-0.02205773 0.02445665 -0.012204449 0.0084383655 0.010432305 -0.0055187754 0.0019132147 -0.029378308
0.02027933 0.017621746 -0.007738543 -0.016749159 0.032001037 -0.009759491 0.009699866 0.034913808
-0.011786698 -0.02389365 0.016240537 0.028867312 0.022994105 -0.022722077 0.023988253 -0.010497767
0.017257502 0.016989974 -0.0037910372 0.02697953 -0.017791169 -0.030918285 -0.014631352 0.031777013
0.027581876 -0.016556073 -0.0046021184 0.00944655 -0.018728578 0.020693619 -0.0028229123 0.017020285
0.034104288 -0.03296018 -0.0034273046 0.012808998 0.014024011 0.013485245 0.035984557 0.0114738215
0.015155135 -0.009047683 0.015091084 -0.025796417 0.0040495405 -0.010767229 -0.010037863 0.008592695
-0.011564036 0.0009303304 0.009125195 0.024831163 0.022452874 0.0017253194 -0.020898586 -0.021924341
-0.015786288 0.0145731205 0.003535021 -0.006059591 -0.028484572 0.014986267 0.027626524 -0.016050221
0.035207115 -0.01552964 -0.018940832 0.029650422 0.031436007 0.011978481 0.0021113253 -0.0073576164
-0.0072024683 0.014300027 0.028771697 -0.006584919 0.01176776 0.011259574 0.016856238 0.018825762
-0.020993726 -0.0056965128 0.025715847 0.021332093 -0.024090204 0.026380885 -0.009907977 0.005278906
0.001209311 -0.022336053 -0.032674022 -0.015529764 0.0062548993 0.032194678 0.007622497 -0.0070888065
-0.021397779 0.029532138 -0.0074782833 -0.033795256 -0.01035508 -0.013891627 -0.026495488 -0.002316626
0.008990917 0.008956878 0.035456713 0.012709842 0.005818483 -0.0051351073 0.024782639 0.02948293
-0.0019408588 -0.024441477 0.022417203 -0.0032906192 0.025109489 -0.02455337 0.010799013 0.012583693
00000000: 8d66 d5bb af8d 833b d48d b5bc 3752 b83b
00000010: 5a41 8a3b fc2b 0ebd 39eb 65bc fe21 e3bc
00000020: 3025 0abd 4ac1 e2bc e4f7 9e3c 75e4 663c
00000030: 8d1b 103d 3abc 7d3c 43ee 9b3c 22a7 b7bc
00000040: 7bfc 513c ef8b e83c df9a 9cbc 6351 883a
00000050: f574 f3bc 1d99 763b 8d72 d53c 8928 ef3c
00000060: 0cb0 d7bc 6985 2b3c ce43 13bc 26bc 99bc
00000070: ea4e 9bbc d697 cdbc 3cab 723c c5a9 c8bc
00000080: 90f0 97bc 3295 c7bc eafb bdbc 4261 033d
00000090: 7b47 e7bb efda dcbc 9a58 61bc 4183 0c3c
000000a0: e1c9 af3b 078c 3a3c 1f63 3abc 635f d0bc
000000b0: b092 56bc 059e 50bc 09a6 4cbb 0d68 ebbc
000000c0: 7b4d 8abc 4434 40bb b42f b03b 2b6b 12ba
000000d0: d5ec 06bc ec4a 21ba 95e5 083c 585a 02bd
000000e0: 7b3b e93c 153f dfbb 4c75 4fbc b946 9a3c
000000f0: ae94 9bbc aa46 55bc 236d cc3b 8e44 92bc
00000100: a05d ca3b dab2 b03c 2bfd 09bd 166b f53c
00000110: 8e5d 513c 4de1 f83c c99c 73bc e98f 813c
00000120: 7c43 acbb b377 44bc 7fde 833c f6cd a93c
00000130: 6bbf 9fbb f27e a4bb 7fc4 5ebc a3cb 8e3c
00000140: da94 78bc f94b babc 88b7 ec3c 32e3 d93c
00000150: fcef 49bb 4dfb 683b 70cc 9abc 115d 1c3c
00000160: cfa4 c63c 673a 8f3b 5950 5639 2bc1 c3bc
00000170: 1985 da3c 888c e2bc c577 003c cfdd bebb
00000180: 4f81 933c 2e57 f6bc 394a b1bc 64ef 823a
00000190: e2ed a9b8 0aac afbc 3767 95bc 746a 30bc
000001a0: d7b3 1b3c ee88 b23c 4f1d 053d db9b 0bbd
000001b0: 9bcb b33c cd37 0e3d 0cee 173c 8753 afbc
000001c0: 9309 0a3d 43c3 47bc 5d7c b8bc 5f92 cb3c
000001d0: d2ae d93c ffc4 0f3d ca1f 0d3d 8009 fd3c
000001e0: 825f d43c d518 16bc f750 193c 65b6 7a3b
000001f0: a09e ac3c b18e d53b 7095 ff3c 9a64 183c
00000200: 6ab2 b4bc 5059 c83c 2bf5 47bc 1241 0a3c
00000210: 42ec 2a3c d8d6 b4bb d5c4 fa3a c7aa f0bc
00000220: d620 a63c 7b5b 903c 9b93 fdbb 8835 89bc
00000230: 8513 033d 46e6 1fbc 30ec 1e3c c801 0f3d
00000240: ff1c 41bc 9ebc c3bc e00a 853c 247b ec3c
00000250: 225e bc3c a623 babc 0383 c43c d3fe 2bbc
00000260: 9b5f 8d3c 8f2e 8b3c 0d73 78bb 2d04 dd3c
00000270: c9be 91bc 5848 fdbc 57b8 6fbc 9d28 023d
00000280: 63f3 e13c 9aa0 87bc 5ecd 96bb b4c5 1a3c
00000290: ad6c 99bc aa85 a93c 9c00 39bb 206e 8b3c
000002a0: f0b0 0b3d 4101 07bd a19c 60bb d5dc 513c
000002b0: f7c4 653c 38f1 5c3c 8b64 133d b2fc 3b3c
000002c0: 3e4d 783c bc3c 14bc 9840 773c 0253 d3bc
000002d0: 02b2 843b 0869 30bc d975 24bc 60c8 0c3c
000002e0: 1577 3dbc 6be1 733a d881 153c b96a cb3c
000002f0: 17ef b73c 1d24 e23a 8333 abbc ad9a b3bc
00000300: 3f52 81bc 19c4 6e3c d0ab 673b 898f c6bb
00000310: 7a58 e9bc f688 753c 0551 e23c c17b 83bc
00000320: 5635 103d 0870 7ebc ce29 9bbc 71e5 f23c
00000330: 0bc3 003d 6441 443c 295e 0a3b 2918 f1bb
00000340: af02 ecbb a94a 6a3c 9fb2 eb3c 4ec6 d7bb
00000350: 90cd 403c 147a 383c 1816 8a3c 7c38 9a3c
00000360: 09fb abbc d0a9 babb 0aaa d23c a4c0 ae3c
00000370: d258 c5bc ba1c d83c 1155 22bc acfa ac3b
00000380: be81 9e3a 19fa b6bc 32d5 05bd 8d70 7ebc
00000390: e6f5 cc3b 91de 033d 24c6 f93b 3849 e8bb
000003a0: 654a afbc 62ed f13c 630c f5bb e56c 0abd
000003b0: 5aa8 29bc b599 63bc 110d d9bc 89d2 17bb
000003c0: a44e 133c dfbf 123c 0f3b 113d f13c 503c
000003d0: f9a8 be3b 6744 a8bb f604 cb3c 3086 f13c
000003e0: 6a64 feba 7e39 c8bc 48a4 b73c 6ea7 57bb
000003f0: 6ab2 cd3c 2624 c9bc 58ee 303c d52b 4e3c
