model_10000.pt (torch, 8887 bytes, 7 tensors)

linear1.weight f4 [24, 49]
-0.2251368 0.17386347 -0.19427022 -0.23010735 0.021996154 -0.27466026 0.21346226 -0.37820703
-0.05138432 -0.031580605 -0.03871117 -0.14261544 -0.081543796 -0.06236734 -0.32916152 0.12127797
-0.18749413 -0.13803114 -0.30037183 -0.011080184 -0.2153403 0.15240778 0.11921848 0.016593615
-0.2937602 0.036339074 -0.12062143 0.07202679 0.16706221 0.12418917 0.03985284 -0.09130878
-0.16031162 0.17238244 -0.03438998 -0.0146672 -0.02390165 -0.13459182 0.14057562 -0.11154112
-0.23210321 0.17321794 -0.16962461 -0.23826942 0.94310695 1.197634 0.92924935 -0.7596255
-0.34481132 0.39061737 0.10660851 -0.01881569 -0.28534555 0.018969638 0.17739408 0.27547684
-0.088558346 -0.0069748014 0.075873464 -0.097909965 -0.015822869 -0.0078084357 -0.04121676 0.07223467
-0.0633615 -0.13416773 0.10318644 -0.07659008 -0.11415574 0.059551854 -0.052370314 -0.06514004
0.002093641 0.08139804 -0.116588116 -0.10644089 0.10057622 -0.03323447 -0.025575869 0.031246709
0.19623098 0.054093312 -0.096401274 -0.11742853 -0.0149998125 0.19617635 0.21743532 0.24060476
0.25498512 -0.047444895 -0.09370388 -2.5384831 0.16325922 1.7736527 2.7378197 1.8335052
0.06395923 -2.3415935 0.31618142 0.3347542 0.13012138 -0.32949063 -0.013655469 0.29108232
0.3274226 0.0018603859 -0.03434361 -0.18205869 -0.18520904 -0.17989834 -0.019196672 0.044820897
-0.041569058 -0.24142961 -0.110390574 0.040482536 -0.24159382 -0.22608542 0.024197366 -0.23153521
-0.125145 -0.21942158 -0.12860416 -0.13003837 -0.339049 -0.20541294 -0.10195361 -0.12808782
-0.20027804 0.026545191 -0.101405635 -0.056256425 -0.11536971 -0.10610148 -0.03268107 0.095395386
0.25378123 -0.058940023 -0.06234574 -0.14922659 -2.4964423 0.039034188 1.8138819 2.6330519
2.0491085 0.01579702 -2.1480417 0.19660977 0.20922391 0.08505221 -0.25291482 -0.06927259
0.13449293 0.21730338 -0.06774177 -0.07430286 -0.00439678 -0.03377387 0.0062558 -0.062548175
0.00076672086 0.122075975 -0.004041898 -0.08852531 0.15457505 -0.0052580014 -0.07974402 -0.015619714
-0.10717532 -0.12930816 0.007058177 0.045419604 0.06967097 -0.059202865 0.07291238 -0.027958531
-0.04661165 0.0949235 0.11938287 0.06091614 0.044027735 -0.1355537 0.053194553 -0.024815032
0.098153934 0.26973963 0.21025303 -0.08021732 0.030095741 -2.419801 0.059110776 1.7274257
2.614447 1.842865 0.008329617 -2.3258386 0.13304181 0.18697321 0.038955472 -0.18576312
0.05384708 0.15937544 0.29417196 -0.1257948 -0.09857659 -0.010694923 -0.07078568 0.016240407
0.00954048 0.037553046 -0.15226763 -0.13692488 -0.053464808 0.10012688 0.04918375 -0.12160471
0.044227276 -0.032979786 -0.18521336 0.067874685 0.082523525 -0.08208218 -0.071790695 -0.029259954
0.05008809 -0.025289822 -0.021379683 0.17245094 -0.0022175983 -0.019573089 -0.0011433908 -0.07202632
-0.013460871 0.0046546217 0.22336857 0.22756381 0.08120568 -0.15065923 -2.5136564 0.059121028
1.7151557 2.7363446 2.0071807 -0.03888458 -2.1448233 0.89665663 0.84087574 0.7633424
0.5216057 0.663121 0.840363 1.0829982 0.48202705 0.52754945 0.6041825 0.7008559
00000000: 438a 66be 4409 323e c6ee 46be 43a1 6bbe
00000010: 4731 b43c 45a0 8cbe da95 5a3e 5aa4 c1be
00000020: 5d78 52bd aa5a 01bd 9b8f 1ebd c809 12be
00000030: 6f00 a7bd e574 7fbd dc87 a8be 9660 f83d
00000040: 76fe 3fbe 0958 0dbe 56ca 99be a989 35bc
00000050: 2b82 5cbe c910 1c3e d228 f43d 55ef 873c
00000060: bd67 96be 48d8 143d 5e08 f7bd c882 933d
00000070: 5b12 2b3e e456 fe3d bb3c 233d 1900 bbbd
00000080: bb28 24be 0685 303e 82dc 0cbd b24e 70bc
00000090: 65cd c3bc 70d2 09be 0ef3 0f3e ac6f e4bd
000000a0: 77ac 6dbe 0b60 313e 13b2 2dbe e6fc 73be
000000b0: 756f 713f 124c 993f 49e3 6d3f d176 42bf
000000c0: 1c8b b0be 00ff c73e 9055 da3d 5d23 9abc
000000d0: d018 92be 3766 9b3c cba6 353e 4d0b 8d3e
000000e0: 145e b5bd e08c e4bb 8c63 9b3d 0585 c8bd
000000f0: f69e 81bc e8dd ffbb e8d2 28bd c5ef 933d
00000100: adc3 81bd 4463 09be 6a53 d33d 43db 9cbd
00000110: 7cca e9bd a5ec 733d 4182 56bd 2468 85bd
00000120: 7835 093b 04b4 a63d c0c5 eebd aefd d9bd
00000130: e8fa cd3d de20 08bd 7c84 d1bc 19f9 ff3c
00000140: c6f0 483e f390 5d3d 086e c5bd 5e7e f0bd
00000150: c6c1 75bc 74e2 483e 5da7 5e3e 1861 763e
00000160: 698d 823e 9455 42bd d2e7 bfbd 8276 22c0
00000170: 6d2d 273e 0d07 e33f 7038 2f40 4cb0 ea3f
00000180: 0ffd 823d abdc 15c0 88e2 a13e e764 ab3e
00000190: 8a3e 053e ffb2 a8be 30bb 5fbc be08 953e
000001a0: efa3 a73e 31d8 f33a e3ab 0cbd 986d 3abe
000001b0: 70a7 3dbe 4537 38be 5742 9dbc 1e96 373d
000001c0: 5144 2abd 5339 77be 7414 e2bd 04d1 253d
000001d0: 5f64 77be f082 67be 8e39 c63c 9117 6dbe
000001e0: 0326 00be 0db0 60be cfb0 03be c728 05be
000001f0: d597 adbe c557 52be 0ecd d0bd 7429 03be
00000200: b015 4dbe 4d75 d93c c2ad cfbd 236d 66bd
00000210: f446 ecbd bc4b d9bd 96dc 05bd a85e c33d
00000220: 9def 813e 186b 71bd 3f5e 7fbd dbce 18be
00000230: b6c5 1fc0 50e2 1f3d 482d e83f ec83 2840
00000240: 9824 0340 c168 813c 8479 09c0 1254 493e
00000250: cb3e 563e da2f ae3d 0d7e 81be cade 8dbd
00000260: 84b8 093e c784 5e3e 32bc 8abd 192c 98bd
00000270: dd12 90bb 7856 0abd 74fd cc3b 4219 80bd
00000280: c4fd 483a f802 fa3d e671 84bb c24c b5bd
00000290: ec48 1e3e 504b acbb d550 a3bd d4e9 7fbc
000002a0: bc7e dbbd 5c69 04be 4848 e73b e809 3a3d
000002b0: a7af 8e3d b47e 72bd 1653 953d 4a09 e5bc
000002c0: dceb 3ebd 4167 c23d 027f f43d 3483 793d
000002d0: 6d56 343d 97ce 0abe 88e2 593d e548 cbbc
000002e0: ee04 c93d 501b 8a3e 924c 573e fa48 a4bd
000002f0: 588b f63c 05de 1ac0 241e 723d 491c dd3f
00000300: 1a53 2740 00e3 eb3f f278 083c 8ada 14c0
00000310: 1d3c 083e e875 3f3e c68f 1f3d b038 3ebe
00000320: c18e 5c3d 5133 233e b59d 963e 5ad0 00be
00000330: 86e2 c9bd c239 2fbc 15f8 90bd 9a0a 853c
00000340: ac4f 1c3c 39d1 193d 0cec 1bbe 0936 0cbe
00000350: eafd 5abd 520f cd3d e674 493d e40b f9bd
00000360: a927 353d d015 07bd 92a8 3dbe e201 8b3d
00000370: 1802 a93d b41a a8bd 0007 93bd 92b2 efbc
00000380: 2b29 4d3d 9a2c cfbc 7224 afbc fb96 303e
00000390: 2055 11bb be57 a0bc d4dd 95ba 8982 93bd
000003a0: fc8a 5cbc cc85 983b bbba 643e 7d06 693e
000003b0: 2a4f a63d 6a46 1abe bfdf 20c0 e428 723d
000003c0: 398a db3f 4520 2f40 a675 0040 7045 1fbd
000003d0: c944 09c0 4a8b 653f a243 573f 686a 433f
000003e0: f387 053f 4cc2 293f 0822 573f af9f 8a3f
000003f0: 40cc f63e 7b0d 073f b4ab 1a3f 4b6b 333f

linear1.bias f4 [24]
1.4568796 1.9252156 1.8198396 1.8044999 1.9780164 2.2844288 1.9777569 1.927783
1.9912328 1.9539627 2.433909 1.896348 0.06920711 -0.18177448 1.8430468 1.9302655
0.7890658 1.8247477 0.6933502 -0.48889896 1.7653958 1.0003374 1.9194363 1.8972842
00000000: 087b ba3f 776d f63f 81f0 e83f daf9 e63f
00000010: a42f fd3f 1534 1240 2327 fd3f 98c1 f63f
00000020: b7e0 fe3f 731b fa3f 2ac5 1b40 88bb f23f
00000030: 75bc 8d3d 1723 3abe f5e8 eb3f f112 f73f
00000040: 3700 4a3f 5591 e93f 667f 313f f750 fabe
00000050: 7df8 e13f 0e0b 803f 17b0 f53f 35da f23f

linear2.weight f4 [12, 24]
0.85559404 2.0736446 2.07957 1.9700552 1.836587 1.3569155 1.9549448 1.8811113
2.1092787 2.02843 1.5426304 2.0993438 0.4083989 -0.025012812 2.103256 2.0482259
0.674332 1.8197545 0.86433506 -0.117934845 2.0088503 1.1957469 1.9426203 2.100149
0.25409153 0.9922873 1.0515267 1.2006184 0.9359801 0.579109 0.99610794 1.2915794
1.2239851 1.1288904 0.41477808 0.80376184 -0.51853937 -0.15605372 1.0218686 0.7723601
0.3623123 0.8653021 -0.2488532 -0.023522612 0.91390127 0.40142095 1.1006575 0.8821174
0.47528708 1.9677342 1.7382479 1.9042519 1.9548857 1.1543846 1.8795031 1.9630128
1.656843 1.9350293 1.5079494 1.920459 0.22724192 0.035790015 1.6593682 1.6734608
0.5258342 1.9132898 0.81856644 -0.071790606 1.7888767 1.1839935 2.048997 1.9182051
0.052495692 0.83682764 0.72775584 0.8757605 0.6637707 0.74124455 0.88741785 0.96506464
0.60511756 0.67596036 0.8163213 0.81829786 -1.0059838 0.13036524 0.698872 0.7811678
-0.05972739 0.71093047 -0.84833544 -0.023868972 0.85691726 -0.9521011 1.0372863 0.76617515
0.5901655 2.10958 2.013489 2.1465228 2.026799 1.3753413 1.9809678 2.0714898
1.9444771 2.1625133 1.5413632 1.8939253 0.56379277 -0.12647913 1.8825281 1.9962827
0.5527983 1.8670574 0.7040476 -0.027244398 1.6920986 1.0714688 2.09825 1.8171985
0.62483525 -0.22977014 -0.1457015 -0.15938857 -0.41671798 0.23750083 -0.13972212 -0.41675833
-0.36346382 -0.29148093 0.31446612 -0.35407382 0.2591108 -0.067761585 -0.24363442 -0.11770576
0.05861963 -0.27768978 0.29862145 -0.049454812 -0.3325277 0.0954054 -0.40913412 -0.28213155
0.7193999 -0.21553333 -0.43731415 -0.121446416 -0.33909854 0.32185063 -0.15541433 -0.39243108
-0.12006687 -0.39826155 0.24679247 -0.47325733 -0.15396892 -0.08132825 -0.38064328 -0.319041
0.21807551 -0.23307516 0.16866903 0.03419242 -0.09961085 -0.19000441 -0.4641047 -0.34274593
-0.34695897 0.9176933 0.4715815 1.202822 0.7429747 0.46421295 0.49158746 0.8319449
0.779219 0.63791776 0.4876821 0.7886762 -0.14791068 -0.15324578 0.7881598 0.59515905
0.028781025 1.0072773 0.036000766 0.20471573 0.9839104 0.27361917 1.1093047 0.69291514
0.84108216 -0.25267574 -0.39579132 -0.31775248 -0.23397873 0.25134668 -0.44414356 -0.5314917
-0.3625702 -0.2979414 0.33516973 -0.4971245 0.006008325 -0.19100258 -0.23497713 -0.18385269
0.38715753 -0.11322038 0.36374074 0.03932619 -0.35428837 0.25907817 -0.2470857 -0.27981246
-0.1421588 0.05799791 -0.028402077 -0.1299026 -0.056193095 -0.08922693 -0.11433779 -0.2606404
0.09755801 -0.100037545 0.055665467 -0.012444711 0.11517169 -0.15821578 -0.013522626 -0.028980946
0.09564378 0.10953803 0.024542535 0.15845369 -0.20031424 0.09841417 -0.068173215 -0.048980262
0.19183955 1.3983978 1.1023724 1.370092 1.5341862 1.187841 1.100698 1.1729373
1.4292591 1.0966179 1.039372 1.3439751 -0.21432893 0.13257417 1.3462658 1.0628276
00000000: 3608 5b3f 98b6 0440 ad17 0540 c52a fc3f
00000010: 4815 eb3f 68af ad3f a23b fa3f 41c8 f03f
00000020: 6cfe 0640 ccd1 0140 ea74 c53f a65b 0640
00000030: a919 d13e abe7 ccbc bf9b 0640 2216 0340
00000040: 06a1 2c3f b7ed e83f 1045 5d3f d387 f1bd
00000050: 0191 0040 3c0e 993f c8a7 f83f d768 0640
00000060: 4918 823e 8a06 7e3f 6d98 863f ddad 993f
00000070: 649c 6f3f 7d40 143f ee00 7f3f 7952 a53f
00000080: 8bab 9c3f 7b7f 903f cb5d d43e 56c3 4d3f
00000090: ffbe 04bf 8ccc 1fbe 97cc 823f 64b9 453f
000000a0: ff80 b93e 7084 5d3f 60d3 7ebe 7eb2 c0bc
000000b0: 6ff5 693f 0c87 cd3e 58e2 8c3f 72d2 613f
000000c0: d458 f33e b7de fb3f e87e de3f 87be f33f
000000d0: b239 fa3f e0c2 933f 8f93 f03f 0144 fb3f
000000e0: 6e13 d43f 0aaf f73f 7c04 c13f 9ad1 f53f
000000f0: 1bb2 683e 8d98 123d 2d66 d43f f733 d63f
00000100: 129d 063f aee6 f43f 928d 513f f406 93bd
00000110: e9f9 e43f 198d 973f c422 0340 bf87 f53f
00000120: b905 573d 563a 563f 354e 3a3f d731 603f
00000130: e0ec 293f 34c2 3d3f d12d 633f 7a0e 773f
00000140: fce8 1a3f bd0b 2d3f 6ffa 503f f87b 513f
00000150: 14c4 80bf 777e 053e 47e9 323f 9dfa 473f
00000160: b5a4 74bd 8aff 353f 832c 59bf dd88 c3bc
00000170: ee5e 5b3f e6bc 73bf ccc5 843f 0e24 443f
00000180: 1615 173f 5c03 0740 01dd 0040 a160 0940
00000190: 13b7 0140 2f0b b03f 5a90 fd3f 4a93 0440
000001a0: a0e4 f83f 9e66 0a40 644b c53f 256c f23f
000001b0: b954 103f bf83 01be aef6 f03f 3186 ff3f
000001c0: 3084 0d3f bdfb ee3f 773c 343f a52f dfbc
000001d0: b096 d83f e425 893f ba49 0640 f699 e83f
000001e0: 34f5 1f3f dd48 6bbe c632 15be c236 23be
000001f0: 0f5c d5be 6b33 733e 5113 0fbe 5961 d5be
00000200: ee17 babe fd3c 95be b401 a13e 2a49 b5be
00000210: 2caa 843e 96c6 8abd 4d7b 79be b80f f1bd
00000220: 231b 703d 5b2d 8ebe e9e4 983e 2191 4abd
00000230: 1241 aabe e863 c33d 077a d1be 8c73 90be
00000240: 982a 383f c5b4 5cbe a4e7 dfbe e6b8 f8bd
00000250: 539e adbe 9bc9 a43e ef24 1fbe baec c8be
00000260: 9ee5 f5bd f0e8 cbbe 2ab7 7c3e c94e f2be
00000270: 07aa 1dbe 6d8f a6bd ade3 c2be 5859 a3be
00000280: 304f 5f3e 41ab 6ebe 93b7 2c3e 5a0d 0c3d
00000290: c600 ccbd 8490 42be 229f edbe 657c afbe
000002a0: 9ba4 b1be f3ed 6a3f 2173 f13e 12f6 993f
000002b0: 9733 3e3f 52ad ed3e 5ab1 fb3e 57fa 543f
000002c0: e57a 473f 944e 233f 78b1 f93e afe6 493f
000002d0: e675 17be 76ec 1cbe d7c4 493f 585c 183f
000002e0: 2fc6 eb3c 76ee 803f 8a75 133d 00a1 513e
000002f0: 8de1 7b3f d017 8c3e b2fd 8d3f e362 313f
00000300: 2951 573f b75e 81be 29a5 cabe 74b0 a2be
00000310: 1f98 6fbe 83b0 803e c966 e3be d70f 08bf
00000320: cda2 b9be c68b 98be 5e9b ab3e 1a87 febe
00000330: 7ce1 c43b 2e96 43be d89d 70be e143 3cbe
00000340: 8339 c63e 16e0 e7bd 3a3c ba3e 8014 213d
00000350: 4965 b5be e5a5 843e 0904 7dbe 9443 8fbe
00000360: 1492 11be 378f 6d3d 79ab e8bc 3005 05be
00000370: bb2a 66bd 9cbc b6bd ee29 eabd a972 85be
00000380: 7ecc c73d 7ce0 ccbd 7901 643d e7e4 4bbc
00000390: 23df eb3d 5103 22be 018e 5dbc 7369 edbc
000003a0: e3e0 c33d 7a55 e03d 6d0d c93c af41 223e
000003b0: 2d1f 4dbe 5e8d c93d 669e 8bbd 879f 48bd
000003c0: 9671 443e b3fe b23f 8a1a 8d3f 2d5f af3f
000003d0: 3760 c43f 2d0b 983f ace3 8c3f cf22 963f
000003e0: f6f1 b63f fa5d 8c3f 240a 853f 6007 ac3f
000003f0: 0b79 5bbe 86c1 073e 7052 ac3f bc0a 883f

linear2.bias f4 [12]
0.11426972 -0.31141853 -0.056266967 -0.45380905 0.17443155 0.40366217 1.4877502 -0.3336703
1.0626144 -0.1332073 -0.040906724 0.21784534
00000000: 3e06 ea3d 4072 9fbe 3178 66bd a959 e8be
00000010: 2f9e 323e cfac ce3e 996e be3f d5d6 aabe
00000020: c003 883f 7f67 08be cf8d 27bd d912 5f3e

linear3.weight f4 [6, 12]
0.29672492 0.5128695 0.37998813 0.4825343 0.31179932 -0.7797427 -1.5221683 0.42962384
-1.2169966 0.06502776 0.390973 -0.6154694 -0.101392195 -0.2428791 0.19673243 -0.12413394
-0.038864132 -0.17474498 -0.122047946 0.031431727 -0.03795666 -0.16809544 0.02424137 0.25920412
-0.037624575 0.05754525 0.026274318 -0.28267857 -0.111762434 0.23695365 0.18190412 -0.191786
0.007850576 0.14580667 -0.22228998 0.2341479 0.060513638 -0.04022222 -0.11465317 0.040337455
-0.0896878 0.16812454 0.061487056 -0.122055426 0.048456606 0.20545019 -0.023607329 -0.09965006
0.16807279 0.30076322 0.25469518 0.25423878 0.09754498 0.35773215 1.6494306 0.32530817
1.2564152 -0.17350863 0.30822614 0.5265145 -0.31423885 0.00046216906 -0.32852042 0.042220388
-0.19689678 0.02573073 0.1790811 -0.27232516 0.12393713 -0.11214562 0.21125226 -0.25123888
00000000: 54ec 973e 6a4b 033f ce8d c23e bc0e f73e
00000010: 29a4 9f3e 389d 47bf 69d6 c2bf a8f7 db3e
00000020: 8bc6 9bbf 462d 853d 9d2d c83e 678f 1dbf
00000030: b6a6 cfbd 4cb5 78be 3a74 493e ef39 febd
00000040: ff2f 1fbd 59f0 32be 46f4 f9bd 8ebe 003d
00000050: 7178 1bbd 3621 2cbe d695 c63c 67b6 843e
00000060: 3a1c 1abd 91b4 6b3d 3d3d d73c 3fbb 90be
00000070: b4e3 e4bd faa3 723e 1345 3a3e 8d63 44be
00000080: b49f 003c 584e 153e fc9f 63be 78c4 6f3e
00000090: 26dd 773d 0ec0 24bd 48cf eabd e338 253d
000000a0: 3dae b7bd d728 2c3e dad9 7b3d 32f8 f9bd
000000b0: 6f7a 463d 8961 523e 2864 c1bc 5515 ccbd
000000c0: 461b 2c3e a3fd 993e 6867 823e 962b 823e
000000d0: aac5 c73d ab28 b73e 8b20 d33f cb8e a63e
000000e0: 37d2 a03f 3fac 31be d1cf 9d3e a7c9 063f
000000f0: eae3 a0be 484f f239 d433 a8be 49ef 2c3d
00000100: 4f9f 49be 40c9 d23c 0961 373e 346e 8bbe
00000110: c0d2 fd3d 9aac e5bd 8352 583e 62a2 80be

linear3.bias f4 [6]
0.3476517 0.031045226 -0.1033759 -0.38499153 0.525203 -0.26420614
00000000: 67ff b13e 8f52 fe3c beb6 d3bd 9c1d c5be
00000010: b473 063f 0746 87be

linear4.weight f4 [1, 6]
0.473175 -0.19276728 0.30744606 0.25397915 -0.51572984 -0.069697835
00000000: fe43 f23e c964 45be 9269 9d3e 8e09 823e
00000010: df06 04bf bdbd 8ebd
