model.pt (torch, 8783 bytes, 7 tensors)

linear1.weight f4 [24, 49]
000000 a0 75 99 3d 8b fc 62 bd 4e 42 17 3d 62 62 10 be
       0.07493138 -0.055416625 0.036928467 -0.1410003
000010 be 09 1f 3d c0 4f 09 3e 81 73 0e be 55 44 9b 3d
       0.03882765 0.13409328 -0.13911249 0.07581393
000020 f4 4e bc 3d 01 b9 89 bd 7f a2 8c 3b 9e 67 65 bd
       0.091947466 -0.0672474 0.004291832 -0.05600702
000030 f2 68 98 bd b5 8c f3 3d af 93 a1 3d f6 86 2a bd
       -0.07441892 0.11892072 0.078894965 -0.041632615
000040 bd 48 b2 bb 35 e7 fb 3d 03 86 8a 3d c4 20 2b 3d
       -0.0054408 0.122999586 0.06763842 0.041779295
000050 46 69 40 bd 9d 5c b1 3d 71 c6 bf 3d c9 ae 07 be
       -0.046975397 0.08660243 0.093640216 -0.13250269
000060 a2 cf 2b bd 7f 2e b7 3d 34 f8 87 3d 81 ea 27 bd
       -0.04194606 0.08944415 0.06639138 -0.040995125
000070 29 ae f0 bc 7d b0 e5 bd 55 47 99 3c 4c 46 7e bd
       -0.029379921 -0.11215303 0.018710772 -0.06207876
000080 ac 1a fd 3d 06 20 1f bd ab 4d b3 3d 8d 82 ed bd
       0.12358603 -0.0388489 0.08755048 -0.11597166
000090 06 ef d0 3d 01 1f fd 3b 4e cd 67 3d 3d a2 6a bd
       0.1020184 0.007724643 0.05659228 -0.05728363
0000a0 9b 73 10 be 95 a7 eb 3c 48 36 e6 3b 65 d8 da bd
       -0.141066 0.028766433 0.007025514 -0.10685805
0000b0 ad de 88 3d 9d d6 69 3d 16 f6 38 3d 5c 54 f5 bd
       0.06683097 0.057089437 0.04515656 -0.11978981
0000c0 61 cc 71 3d ee e0 0f bd 85 a2 00 be 7c 29 c1 3d
       0.0590328 -0.03512662 -0.12561996 0.09431741
0000d0 cd c2 8c bd 6d 5c 46 3c 3e 82 f4 3d 27 59 16 3d
       -0.06873093 0.012106997 0.11938904 0.036706116
0000e0 8d 29 00 be 40 b2 ac 3c 27 1d ca bd a4 11 ee bc
       -0.1251585 0.02108109 -0.098688416 -0.029061146
0000f0 94 c1 08 be ef bc df 3d 9c f9 5d bd 0f 77 ae bc
       -0.13355094 0.10924708 -0.054193124 -0.021297006
000100 93 5a 0d bd a3 4b 0d 3e 9f 58 03 be 7a 7f f6 3d
       -0.034510206 0.13798384 -0.12826775 0.12036033
000110 f7 7f a1 bd 5e c6 0a be d6 6a a7 3a 80 2e 65 b8
       -0.078857355 -0.13552234 0.0012772928 -5.464116e-05
000120 70 ba 65 bd 26 95 0d 3e 19 b1 23 bd c2 7b cc 3d
       -0.056086004 0.13826427 -0.039963815 0.099845424
000130 13 b6 a6 bd 57 09 0f be cc 75 5b 3d 40 13 a6 bd
       -0.08140197 -0.13968407 0.053579137 -0.081091404
000140 65 78 5d bd 19 d2 95 3b 6a b1 4f bd 73 23 03 3d
       -0.054069895 0.0045721647 -0.050706305 0.03201623
000150 6b 76 44 3d e4 70 88 bd 04 21 a9 3c 2f 18 f7 3d
       0.047964495 -0.06662157 0.020645626 0.120651595
000160 3d 02 d6 3d ae 1e 07 3e f6 d1 46 bc fe 3e 8b bb
       0.10449646 0.13195297 -0.0121350195 -0.0042494526
000170 78 97 e5 3c 13 2c d6 bd d2 aa bf 3d dc fe 4d 3d
       0.028026327 -0.10457625 0.09358753 0.05029188
000180 dd bc 95 3d 91 fe 9c 3d 42 ff 7e bd e5 e5 ff 3d
       0.073114134 0.07665742 -0.06225515 0.12495021
000190 c5 2b 02 3e b6 06 48 bd 21 a9 9f 3d 56 82 96 3d
       0.12712009 -0.048834525 0.07795931 0.07349078
0001a0 47 66 13 be 61 8a c4 bc 71 62 a6 bd 18 e9 78 3d
       -0.14394484 -0.023991765 -0.08124245 0.06076917
0001b0 dc 26 c7 3d 2a 36 ce bd d1 bd 0e 3d b9 67 03 3e
       0.09724209 -0.10068925 0.03484899 0.12832536
0001c0 64 75 db bd 6f 1b 03 be 10 59 b5 3d 46 66 e7 3d
       -0.1071575 -0.12803434 0.08854878 0.11298804
0001d0 7a 9c 49 bc f6 90 08 3e a7 05 18 3c cd da d5 3d
       -0.012305373 0.13336548 0.009278691 0.104421236
0001e0 36 bb 81 3d 84 4c 08 be b1 b1 99 bc 9b 30 77 3d
       0.06334536 -0.13310438 -0.018761488 0.06034909
0001f0 21 b8 e4 3d 5b a4 7c bc ba 44 2e bc 78 e3 37 3d
       0.11167932 -0.015420045 -0.010636503 0.044894665
000200 28 da 46 3c db 81 b5 3d 3d ff cf 3c b7 6f d5 bd
       0.012136973 0.088626586 0.025390262 -0.104216985
000210 f2 cc af bd ba e6 25 bd 4c 47 28 3d ae b1 11 be
       -0.08584012 -0.04050324 0.04108362 -0.14227936
000220 b6 ac f2 3d 75 72 85 bd 3b 6b 9b 3d ec 40 83 bd
       0.11849348 -0.065159716 0.07588812 -0.06408867
000230 ea 56 13 bd 10 15 eb bd df 9c 81 bd 04 b4 ac 3d
       -0.03597156 -0.11478627 -0.06328749 0.08432773
000240 f3 07 f5 bc 9c 26 a6 3d 62 ae dc bd 87 be 30 3d
       -0.029911017 0.08112833 -0.107754484 0.04315045
000250 2c 90 14 3e 04 c5 48 3d e3 1f 6a 3b 03 ab e2 bd
       0.14508122 0.049016014 0.0035724572 -0.11067774
000260 e5 9a bd 3d 12 4d 46 bc ef 0d ea 3d bb 52 86 3d
       0.092580594 -0.012103336 0.11428439 0.06558748
000270 7e f9 43 3d d4 f0 a2 3d d5 cb be bd 3e 65 12 3e
       0.047845356 0.079560906 -0.093162216 0.14296433
000280 35 d0 9a ba c6 2b 6c bd 43 78 c0 bc 28 f9 a9 bd
       -0.0011811318 -0.057658933 -0.023494845 -0.08299476
000290 1d 2a 25 bd 8c d7 c5 3d 01 86 b4 3d ee 12 df bd
       -0.040323365 0.09660253 0.08814622 -0.108922824
0002a0 02 e9 54 3c a6 20 cd 3d 44 77 ff 3d 38 1c 16 3e
       0.0129950065 0.10015993 0.1247392 0.14659202
0002b0 4b 7a 6e 3c 7e b9 4e 3c 52 17 d4 bd b6 76 02 3e
       0.014555524 0.012617467 -0.103560105 0.12740597
0002c0 1a 4d 88 3c 61 64 28 bd 22 95 d1 bd 62 cb 5b 3d
       0.016638327 -0.041111354 -0.10233523 0.053660758
0002d0 a6 f7 8b bd 04 29 1c 3c 93 14 dc 3d 6c b7 96 3d
       -0.068343446 0.009531263 0.10746112 0.07359204
0002e0 e0 8c 16 3e cf 04 56 bd 83 27 45 bd 90 68 ec 3c
       0.14702177 -0.05225068 -0.048133384 0.028858453
0002f0 4c 2a df bd c8 68 b0 3c b7 01 20 3d 83 69 22 bd
       -0.10896739 0.021534339 0.039064135 -0.039651405
000300 92 8c d7 3c f1 1d 9c 3d 9f f2 9e 3d 6d 58 07 ba
       0.026312146 0.07622898 0.0776112 -0.0005163018
000310 d6 23 3e 3d d8 88 81 bd 5c 78 11 3e 8b 2c 8a 3d
       0.046420895 -0.06324929 0.1420607 0.06746777
000320 00 63 35 3b 49 3a 00 3e ac 79 f3 3b dd 97 39 3d
       0.0027677417 0.12522234 0.007430276 0.045310844
000330 6c 4b aa ba fb ed ec ba c3 4d f6 bd be 65 f4 bd
       -0.0012992448 -0.0018076295 -0.120265506 -0.11933468
000340 9a 33 00 bc 38 05 99 bd ad a9 c7 bd 19 3a 0d 3e
       -0.007824803 -0.074716985 -0.0974916 0.13791694
000350 a9 e7 e5 3c 56 67 f5 bc b1 7e 9e bd 0f 69 b1 bd
       0.028064566 -0.029956501 -0.07739008 -0.086626165
000360 b1 6a 22 3d d7 8d f2 bd 52 a7 84 bd b2 d6 f8 bb
       0.03965253 -0.1184346 -0.06477226 -0.007593953
000370 8d 90 af 3c 6f f8 cf bd a1 b1 06 be c3 8f f9 3d
       0.021431232 -0.10154807 -0.13153698 0.121856235
000380 5e 6e d8 3d 3c 31 61 3d 9d cb 8f 3c c1 27 ce 3d
       0.10567926 0.054978594 0.017553145 0.10066176
000390 fd 3b ea bd bc 49 c1 3d cf 3f dd 3d 73 4a 23 3d
       -0.11437223 0.09437892 0.10803186 0.039865922
0003a0 d1 78 17 bd da ad cc 3d ed 40 f9 3d 72 99 23 3d
       -0.036980454 0.09994097 0.12170587 0.03994126
0003b0 0b e1 ae 3d 28 9d b3 bb 20 ac e9 3d ac 95 e8 3d
       0.08539017 -0.005481381 0.11409783 0.11356673
0003c0 8a b5 ff 3d 9c 9e c2 3d 99 c4 59 bd 5a 1a 0d 3e
       0.12485798 0.095029086 -0.053166006 0.13779584
0003d0 cf f8 48 3d 9a 24 9a bd 7c 77 69 3d 54 33 d1 bc
       0.049065407 -0.075265124 0.056998715 -0.02553717
0003e0 3a 9a a9 bd c2 74 f8 3d 80 05 65 3b 08 45 cd 3c
       -0.082813695 0.12131645 0.0034945905 0.02505733
0003f0 ce 56 ad bd 9a 0b e3 bd f0 74 d8 3d b0 4f 82 bd
       -0.08463822 -0.11086197 0.10569179 -0.063628554

linear1.bias f4 [24]
000000 eb a1 8c bd 45 de 31 bd 27 3c 5c bb f4 cb ef bc
       -0.06866821 -0.043424863 -0.003360519 -0.029272057
000010 a1 6e c2 3d 33 7f 82 bd de 9a ea 3d 8d 4f 10 3c
       0.09493757 -0.063719176 0.1145532 0.008808029
000020 76 3a 8e bc 6e 07 ca 3d fe 59 60 bd 10 1f 10 bd
       -0.01736186 0.09864698 -0.054773323 -0.035185874
000030 e2 8e 7c 3b 9f ab e5 3d 54 d6 70 3c e0 27 01 3c
       0.0038537313 0.11214375 0.014699537 0.007883042
000040 38 9f da 3d 63 ff bd bd 42 ca 54 bc a8 57 b3 3d
       0.106749 -0.09277227 -0.012987675 0.087569535
000050 91 66 b0 3d 83 89 e7 3d 60 a3 47 3c c0 94 2b 3d
       0.08613313 0.11305525 0.012184948 0.041889906

linear2.weight f4 [12, 24]
000000 65 ca d1 3d 98 3d 1f 3e 8d 22 e6 bd 93 a7 9d 3c
       0.10243682 0.1555084 -0.11237059 0.019244945
000010 5d d8 03 be fa 5d ac bd 4a 26 3f be 5d 95 89 3d
       -0.12875505 -0.08416362 -0.1866695 0.06717942
000020 39 6a d3 bc 5c 53 2e bc af cc c7 bc 65 11 4e 3d
       -0.025807487 -0.010639992 -0.024389593 0.050309557
000030 72 08 2c bd 57 7e 21 bd a6 2a 7a bd 2c 73 0c 3d
       -0.04200024 -0.039427128 -0.06107583 0.034289524
000040 d0 d1 84 bd 9e bb c0 3d 2f 1b 0b 3e a4 d6 45 be
       -0.06485331 0.09410785 0.13584588 -0.1932016
000050 81 59 42 3e 71 1c 61 3d 30 57 54 bc 5c 19 02 3d
       0.18979456 0.054958764 -0.01296024 0.031762466
000060 e0 d2 97 3d e8 d6 f5 bc 9c 8e c9 bd 90 39 39 3d
       0.07413268 -0.030009702 -0.09841654 0.04522091
000070 c6 ff 42 3e a0 d8 0b bc 94 95 19 bd 43 9e 12 be
       0.19042882 -0.008535534 -0.037496164 -0.14318185
000080 1a b0 d7 bd 85 d7 13 3d 8a 66 28 3e f3 ca 33 be
       -0.105316356 0.036094207 0.16445366 -0.17557888
000090 52 a7 90 bd 45 cc c0 bd 6d 85 33 3e 7c 4d 01 3e
       -0.07063164 -0.09413961 0.17531367 0.12627214
0000a0 ac ec bf 3d 41 7d fe bd 95 52 18 3e a7 a4 7d bd
       0.093713135 -0.12426234 0.14875253 -0.061924603
0000b0 a7 65 83 bc c8 35 f8 3d 00 19 01 3b ab 9d 2d be
       -0.016039683 0.12119633 0.001969874 -0.16954677
0000c0 58 dd cf bd a2 49 e7 3c 9b 61 43 3e 58 38 90 3d
       -0.1014964 0.028233353 0.19080202 0.07041997
0000d0 61 96 e5 3d 14 1e 45 3e 04 58 3f 3e ac 0d 50 3e
       0.11210323 0.19249755 0.18685919 0.20317715
0000e0 43 72 29 3e fa 1e 2a 3e 90 35 cd 3d 5e cf fe 3d
       0.16547494 0.16613379 0.10019982 0.12441896
0000f0 10 0e 51 3c 60 6d 19 3e 2f b3 22 be 10 7c 72 3d
       0.0127597 0.1498313 -0.15888666 0.059200346
000100 ba 7e 12 3e 66 4b df 3d ee ff f7 bd a0 56 2a 3d
       0.14306155 0.10903053 -0.121093616 0.04158652
000110 d6 ef 22 be bd 58 37 3d ec 9a 56 bd 78 14 60 3d
       -0.15911803 0.04476236 -0.05239384 0.05470702
000120 0c 25 ab 3d cc 60 42 be 51 cc 83 3d 64 83 d0 bd
       0.083566755 -0.18982238 0.06435455 -0.10181311
000130 32 70 90 bd 44 6f 45 bd 9c ae a1 bd d4 09 0b bd
       -0.070526496 -0.048201814 -0.07894632 -0.03394492
000140 58 d0 82 3d 29 75 ce bd f7 8a a3 bd 55 5b f9 3c
       0.06387395 -0.1008094 -0.0798549 0.030439058
000150 d3 5d 48 3e 8e 84 d4 bd e2 2b 96 bd 00 e6 2a be
       0.19567041 -0.10376845 -0.07332589 -0.166893
000160 cc 78 c3 3d 83 4d 82 bd 5f 9c d1 3d 00 70 8d 3d
       0.095445246 -0.063624404 0.102349035 0.06906128
000170 09 82 1d 3e 61 f5 a9 3d 00 1c 04 3b 40 80 18 3e
       0.15381636 0.082987554 0.002015829 0.14892673
000180 06 8d 45 3d f2 2a cd 3d 1e 52 8f 3d 2a fe bf 3c
       0.048230194 0.10017957 0.069980845 0.023436625
000190 74 59 e1 bd 3e ee 39 3e 50 74 0d 3e e3 04 c5 3b
       -0.1100339 0.18157288 0.13813901 0.0060125454
0001a0 d3 30 b3 3d 3c c0 52 bd 6d 0c 04 3e d2 e5 40 3e
       0.08749547 -0.05145286 0.12895365 0.1883767
0001b0 3b 7f 4b bd e3 ba 0c 3c a9 54 e0 3c 90 39 11 3c
       -0.049681883 0.008589479 0.02738412 0.008863822
0001c0 04 d7 b5 3d 36 67 28 bc 36 7e ee bd 87 57 0d be
       0.088789016 -0.010278514 -0.116451666 -0.1380292
0001d0 82 c2 53 3e c6 13 c2 3d 56 a5 42 3e 40 a2 d8 3c
       0.20679668 0.09476428 0.19008383 0.026444554
0001e0 84 53 13 be 14 5a 17 3e 01 9c 21 be a0 f5 1f 3d
       -0.14387327 0.14780456 -0.15782167 0.039052606
0001f0 78 39 3f bd b0 28 6b 3c b8 a2 00 3d 43 6e 4f be
       -0.046685666 0.014352962 0.03140518 -0.20256905
000200 24 2f d4 3d 25 4b 3a be 00 b0 23 3e dc ac ac bd
       0.10360554 -0.18192728 0.15985107 -0.08431408
000210 10 4c 60 3d 80 1e 63 bc 28 4b 8f 3c c4 ae e1 3d
       0.05476004 -0.013862252 0.017491892 0.11019662
000220 98 86 e9 bc 4e e1 34 3e 20 f8 dd 3b c9 65 b0 bd
       -0.028506562 0.17664072 0.0067739636 -0.08613164
000230 a7 4c 0a be b3 b6 fd bd 0e 46 0a 3e 84 49 00 3d
       -0.13505803 -0.12388363 0.13503286 0.03132011
000240 56 58 23 3e 28 7c 17 be 30 2d 96 bd 3c a1 e3 bd
       0.15951666 -0.14793456 -0.073328376 -0.111147374
000250 a8 72 8f 3d 80 09 17 3e 62 f7 b8 bd 8a 7e 06 3e
       0.07004291 0.14749718 -0.090315595 0.13134208
000260 ec 84 0f 3d 17 4c 46 be 1d 8e e7 bd 39 9d 21 be
       0.035038874 -0.19364963 -0.11306403 -0.15782632
000270 20 8f dd 3b d0 41 3d 3c e0 c9 d1 3d 70 c3 ca bc
       0.0067614466 0.011551335 0.10243583 -0.024751395
000280 0c 7e 78 bd e0 ef 10 3d f8 6e b3 3c b8 55 ee bd
       -0.060667083 0.035385013 0.0219035 -0.11637443
000290 6e a4 14 be 18 d5 fa bd 26 2f 10 3e 91 2c ac bd
       -0.1451585 -0.12247676 0.14080486 -0.08406938
0002a0 50 02 d5 3d c3 21 72 bd 69 2a 06 bd b0 be a6 3d
       0.10400832 -0.05911423 -0.03275529 0.081418395
0002b0 27 af cd 3c d0 41 b5 3d 76 ea 21 3e 17 c4 1f be
       0.025107933 0.08850443 0.15812096 -0.15602146
0002c0 b7 9d 30 3d 78 f0 d1 bd 9a 4d 16 3e 1b 2d ac 3b
       0.04311916 -0.10250944 0.1467804 0.0052544004
0002d0 ca 05 fe 3c 66 c8 7e 3c 4a 59 0a be 50 8c 24 bc
       0.03100862 0.015550708 -0.13510624 -0.010043219
0002e0 74 cd ec 3d 20 12 33 bc 80 de c0 bc 72 d8 94 bd
       0.115626246 -0.010929614 -0.023543596 -0.07267846
0002f0 5d a5 4a 3d bc 1c 5f bd 60 81 e1 3d 00 a5 cc 3a
       0.04947411 -0.054470763 0.110110044 0.0015613139
000300 56 54 f7 bd 9d 13 15 3e 1d 7d 8f bd 97 3f 21 3e
       -0.12076633 0.14558263 -0.07006285 0.15746914
000310 2f 71 b4 bb 65 b2 de bd a4 f9 b6 3d b2 5b 29 3e
       -0.0055066566 -0.1087387 0.08934334 0.16538885
000320 fd 76 43 bc ed 68 0f 3e 75 b1 d6 bd 23 31 93 3d
       -0.0119302245 0.1400487 -0.10483066 0.071871065
000330 25 50 ea 3d cf 3e 2c 3e e7 a4 23 bc d0 e5 9f 3d
       0.114410676 0.16820835 -0.009988046 0.07807505
000340 74 c6 d9 bd 44 20 33 be 5d a3 8e 3c 98 47 70 bc
       -0.10633555 -0.17492777 0.017411882 -0.014665507
000350 7a 39 2e 3e c3 ec 34 be 44 38 95 bd 64 55 fa 3d
       0.17014113 -0.17668442 -0.072861224 0.12223318
000360 10 37 90 3c 40 e1 40 3d 1a 0d 28 3e a2 24 32 be
       0.01760438 0.047089815 0.16411248 -0.17396787
000370 4e 3d c7 bd 94 e4 a7 3d 8b e7 d5 bd d2 73 4b be
       -0.0972849 0.08197895 -0.10444554 -0.198684
000380 e0 37 7e 3d d0 8f 34 3c 4a 07 25 be 58 c7 64 3d
       0.062065005 0.011020616 -0.16116062 0.05585417
000390 c6 3b 41 be fc 64 12 3e 88 a2 3e bd 36 42 22 be
       -0.18870458 0.14296335 -0.04654172 -0.1584557
0003a0 70 e3 1c be a0 aa 2f bd fc 5f a6 bd f8 f6 88 3c
       -0.15321136 -0.04288733 -0.08123776 0.016719326
0003b0 aa eb 47 be 12 fd 31 be 58 77 0c 3e 92 14 4f 3e
       -0.19523492 -0.17381695 0.13717401 0.2022269
0003c0 ac c7 c6 bd e1 68 1e 3e 6f b2 43 3e a2 77 f0 bd
       -0.09706053 0.15469696 0.19111036 -0.11741568
0003d0 a0 2f 19 be b0 b2 2d 3e c4 76 15 3d 98 0a e0 bd
       -0.14959574 0.16962695 0.036490217 -0.109395206
0003e0 90 dc 27 bd 95 70 52 be 14 9c 43 3e e3 83 c2 bb
       -0.04098183 -0.20550759 0.19102508 -0.0059361323
0003f0 b3 eb ae 3c c7 f8 8f 3d 59 bc 97 bd f8 bb bd 3c
       0.021352625 0.070298724 -0.07408971 0.02316092

linear2.bias f4 [12]
000000 88 5d 93 bd d3 80 dc bc 23 df ce 3d 58 a8 2b bd
       -0.07195574 -0.026916897 0.10101154 -0.041908592
000010 18 b5 89 3d 70 d1 d0 3d 80 16 5b 3b ff a3 2c be
       0.06723994 0.10196197 0.003343016 -0.16859435
000020 25 b6 65 3d 60 d1 3d bc c1 5d 1e 3e 20 e7 32 bc
       0.05608191 -0.011585563 0.15465452 -0.010919362

linear3.weight f4 [6, 12]
000000 cc fc a8 3d fa 85 07 be b0 bd 9b 3c 80 20 80 3e
       0.08251342 -0.13234702 0.019011348 0.25024796
000010 b0 38 57 3d 60 8c 80 3d c2 b6 58 be b6 e5 f5 bd
       0.052544296 0.062767744 -0.21163467 -0.120067045
000020 4e 8b 0c be ce 9e 21 3e 8f f0 19 be ac 4f c2 bd
       -0.13725016 0.15783235 -0.15033172 -0.094878525
000030 30 db e5 3c 68 72 f6 3d c4 31 28 3e 54 89 62 3e
       0.028058618 0.1203354 0.16425234 0.22122699
000040 54 58 2c be 37 da 68 be 58 52 60 be dc c2 26 bd
       -0.1683057 -0.22739492 -0.21906412 -0.040713176
000050 50 da e6 3d 20 3d 03 bd ec 85 7b 3e 0e cc 89 3e
       0.112721086 -0.032040715 0.24562806 0.26913494
000060 d8 4b 93 3d 9e 80 d8 bd 32 ad 2e 3e 00 12 c8 3b
       0.071922004 -0.10571407 0.17058256 0.0061056614
000070 e4 cc b5 bd d8 e1 d4 3d 00 f7 6c bc 20 a5 c3 bc
       -0.088769704 0.10394639 -0.014463186 -0.023882449
000080 c9 8f 78 be 60 cc 53 3d 09 a7 0a be 8e da 4a be
       -0.242736 0.05170858 -0.13540281 -0.19809934
000090 58 48 19 be d9 7f 52 be 75 59 53 be 49 30 c0 bd
       -0.14969003 -0.20556583 -0.20639594 -0.0938421
0000a0 16 4e cc bd 7c 42 c2 3d 40 49 fe 3c 21 4e cc bd
       -0.09975831 0.09485337 0.031040788 -0.099758394
0000b0 09 e1 5e be 94 7b 0a be b3 38 ea 3d c8 a5 78 3e
       -0.21765532 -0.13523704 0.11436596 0.2428199
0000c0 c0 97 5a 3e 04 a7 c6 bd c0 1b ed bb bc d6 ac 3d
       0.2134695 -0.096998245 -0.007235974 0.08439395
0000d0 e0 10 c5 bc 06 8e 36 3e b8 77 40 be 98 b7 04 be
       -0.024055898 0.17827615 -0.18795669 -0.1296066
0000e0 78 47 ed bd aa ed 5e be a4 e8 07 be af de 2f be
       -0.11585897 -0.21770349 -0.13272339 -0.17174791
0000f0 9d 0c 86 bd e6 43 44 be 98 0d 8f be e1 53 7c 3d
       -0.065453745 -0.19166526 -0.2794006 0.06160343
000100 51 d2 42 bd 30 2f f1 3d c4 a6 6e 3e bf 50 6a 3e
       -0.047563855 0.117765784 0.23305804 0.22882365
000110 e0 90 44 bd c8 5f 78 3e 62 85 42 3e cc 76 a2 3d
       -0.047989726 0.24255288 0.18996194 0.07932815

linear3.bias f4 [6]
000000 1c fd 14 be ca 80 90 be 3d 89 3e be 50 91 81 3e
       -0.14549679 -0.28223258 -0.1860704 0.25306177
000010 9c cf 54 be 79 bf 03 3e
       -0.20782322 0.1286601

linear4.weight f4 [1, 6]
000000 20 94 a0 3e 9f 32 d0 be 34 9a be be 8b 6c f8 3d
       0.3136301 -0.4066362 -0.37227023 0.12130078
000010 4e d1 9c 3e 68 41 8e 3e
       0.30628437 0.27784276
